IsaacGymEnvs/isaacgymenvs/runs/Ant_22-18-09-58/nn/Ant.pth (torch, 703336 bytes, 36 tensors)

value_mean_std.running_mean f8 [1]
000000 59 66 bc ae 79 5d 0c 40
       3.54564224731875

value_mean_std.running_var f8 [1]
000000 93 4e 3a 99 18 da 09 40
       3.231492230502974

value_mean_std.count f8 []
000000 00 00 00 08 00 00 82 41
       37748737.0

running_mean_std.running_mean f8 [60]
000000 04 ff 1c 1d 61 4f e3 3f 9f 77 de 6e 41 17 09 40
       0.6034398621195298 3.136355272449648
000010 a0 49 55 2b 4d de d9 bf 7f 51 44 53 c4 93 dd bf
       -0.404193203275236 -0.4621439755585683
000020 f9 ff 64 0a 60 12 8b bf 52 93 02 44 1a c9 73 bf
       -0.013218641583648593 -0.00483045825982205
000030 43 85 ec 11 ea fd a8 bf 54 b0 8e 9e 79 2f 03 40
       -0.04881221264646254 2.3981811892790947
000040 0e 00 2f f0 1f 5b 0f 40 39 02 2a 7c bd 30 03 c0
       3.9194945110648467 -2.398798913986209
000050 30 a1 75 a9 aa f3 ec 3f d9 b0 7f 0e 59 78 ea 3f
       0.904744463897293 0.8271909030131851
000060 d5 4a a7 d5 0b 08 e6 bf 07 0d 60 57 41 27 e0 bf
       -0.6884822056693688 -0.5047918993517734
000070 23 6e 5e 1b 44 a6 d5 bf 54 3d 67 0a 7b 3a e9 3f
       -0.33827307389012357 0.7883887484730772
000080 49 b5 d6 08 74 2b c4 3f ec 36 d2 3a 82 f9 e7 3f
       0.15757608825280503 0.7492076062059971
000090 86 3d da c7 3a 80 e1 bf 4d e8 56 a4 0a 0c e7 bf
       -0.5469030288094678 -0.7202199182277212
0000a0 0d c4 0d 70 83 36 99 3f 5c c4 5a 16 e3 7a b0 3f
       0.024622014726848152 0.0643751077248153
0000b0 af 3d 5d 97 1a aa a2 3f 7c e0 56 75 43 80 b1 bf
       0.03645403955180925 -0.06836339583139933
0000c0 a1 71 a5 23 e0 ac 93 bf 47 5a ae 77 da 23 ab bf
       -0.019214155364680633 -0.05300791464758397
0000d0 3c 85 41 15 4a 46 99 3f f4 7f be 0f b0 73 b1 3f
       0.0246821952317806 0.0681715048253862
0000e0 6c 55 03 dd b7 fa e0 bf eb 38 c1 f7 9f 14 c2 3f
       -0.5306052509937849 0.14125442120934592
0000f0 c1 52 52 e6 e2 ee cb bf 90 6c e9 df 65 bd a9 bf
       -0.2182277321450297 -0.05027311666773315
000100 4e 38 7c aa 60 c4 71 bf fb 7e 65 26 51 7c a7 3f
       -0.004337670899770952 0.04587033837992568
000110 22 47 2a e7 6f 79 94 3f 93 81 a2 3d ee 00 a1 3f
       0.019994495853615686 0.033210225127962144
000120 cc 2d 5e 79 8c 98 d9 bf 49 20 62 b0 1b 06 b0 bf
       -0.39993583538372657 -0.0625932031272224
000130 e5 b4 14 63 b4 e0 03 bf d6 19 ea ea 22 b4 8e 3f
       -3.791380403082317e-05 0.014992020410557066
000140 62 bf ef b1 28 ed d5 bf 40 91 ad 97 fc 36 b0 3f
       -0.3426000344907064 0.0633390302951442
000150 76 9f c7 9e 0c e6 c9 bf 2f b7 f6 e3 71 6e ad 3f
       -0.20233304741781993 0.05748325259933861
000160 e5 dc 3e 74 87 d3 4d bf db f8 2b 0b e8 26 82 bf
       -0.0009102260014434398 -0.008863270607886544
000170 73 0c 2d 00 d2 1d d0 3f bc d2 fa e9 b2 42 b7 bf
       0.2518200875967473 -0.09086149418255735
000180 f3 1b de 92 20 ee ce bf 20 c4 14 5a 43 2e b5 3f
       -0.2416420666815778 0.08273716878171955
000190 ea 7d 84 59 b2 e5 61 3f 1e 1a 6f 98 82 12 9e 3f
       0.0021847232238909513 0.029367485574562584
0001a0 e7 93 30 a0 19 02 df bf e0 ac d1 83 9d 04 c6 bf
       -0.4845031799653143 -0.17201584755398525
0001b0 de a8 ad 07 e2 30 c1 bf 8b 0b 9a 00 b3 06 ce 3f
       -0.13430428862495253 0.23457944421178598
0001c0 32 f4 45 4b 4d 36 b6 3f 6c e9 e5 64 d9 00 cd 3f
       0.08676608169294367 0.22658841540016839
0001d0 3b 97 c3 e4 75 53 d2 bf 9b 7b 58 ef 74 ee d3 bf
       -0.2863440259956069 -0.3114292466506698

running_mean_std.running_var f8 [60]
000000 bd a4 ec 50 3e eb 8b 3f 69 2d 5a d6 aa fa 10 40
       0.013632284969917636 4.244792317632666
000010 77 83 8c 79 cb 2c f5 3f ab 1f 51 43 45 5b e8 3f
       1.3234362361910976 0.7611414255888936
000020 17 21 9a db 41 ce 0b 40 c5 82 18 fc 0c ff 15 40
       3.4757115513240353 5.499072970386526
000030 6a 37 ed 6e d2 0c 1e 40 54 51 78 3b 06 08 1d 40
       7.512521489361328 7.257836274355515
000040 85 39 fa d6 20 a0 20 40 80 19 77 4d 0d 08 1d 40
       8.312750547451978 7.257863245386375
000050 6e 42 bb 5a d5 47 b6 3f 4c df 36 00 f6 64 be 3f
       0.0870335909378441 0.11872804169877077
000060 5a 86 a2 28 ff 53 d4 3f aa a9 38 4f 7b 9c d1 3f
       0.3176267525505857 0.27517588364085077
000070 4a e3 4b c7 1f b5 d8 3f c0 da ef 37 77 12 cf 3f
       0.3860549398664729 0.24275102835937012
000080 ad c1 67 21 dd 02 df 3f 0d 85 a8 85 fc 68 cd 3f
       0.4845497919295905 0.2297664311054536
000090 10 cd a2 98 4c 67 da 3f ca 91 4b 06 a6 e9 c9 3f
       0.41255488305905974 0.20244288737661825
0000a0 c5 48 18 4e 2b 9a 00 40 f2 e4 15 1c 22 6a 0b 40
       2.0752779103432624 3.426822871606981
0000b0 6c 8c fe a2 6f d3 0d 40 49 59 9e 9a 30 0d ec 3f
       3.728240273850636 0.8766100902455857
0000c0 fb 09 23 d9 83 a5 17 40 91 ec 3a 63 f2 5c f3 3f
       5.911635773433313 1.2101920963457682
0000d0 20 b6 04 75 73 c9 f6 3f 47 35 49 84 9b 78 fe 3f
       1.424182374098912 1.9044451873226806
0000e0 40 36 be ad 09 d2 f4 3f 04 b4 c1 68 65 46 cc 3f
       1.301278761562017 0.22089831938811255
0000f0 80 2d 83 8f 64 e6 f1 3f 7c 58 b1 d5 75 6e 99 3f
       1.1187482458070406 0.024835435073633935
000100 d7 51 4d 97 c3 d5 10 3f 81 4f 5e 7b a6 84 78 3f
       6.422048848026635e-05 0.0059858802032016776
000110 3b 24 fe a2 08 2a fb 3f 3a e2 28 fe 03 08 c2 3f
       1.6977621428398055 0.14086961660520264
000120 b0 f3 49 56 9c 89 ee 3f 95 a6 e8 f5 3b bc 93 3f
       0.9542981801347334 0.019272744068223508
000130 11 3d 24 29 23 b9 0e 3f 69 b3 4a a7 91 b3 81 3f
       5.8599839706125385e-05 0.008643281858292178
000140 e6 8d d4 63 bb cb 08 40 9a cf 15 95 cf 7b c3 3f
       3.099478511737959 0.1522159078555177
000150 38 99 9f 4a f9 5e f1 3f eb cc da 03 af 65 97 3f
       1.0856869616487312 0.022848829851409496
000160 1d 99 db c4 5c 80 14 3f ea b6 10 43 d4 ae 90 3f
       7.820669381039922e-05 0.016291920274105566
000170 28 6f 87 8e c7 54 ef 3f 2c e7 1e 35 a6 cd c4 3f
       0.9790990623255071 0.16252591699395091
000180 fe 67 02 ec df 38 ee 3f 3c a5 c4 f9 b7 62 95 3f
       0.9444427117880421 0.02088439428294929
000190 8c de a4 04 a5 66 05 3f 97 ba a6 90 05 33 73 3f
       4.081908316993813e-05 0.004687329996541443
0001a0 fa 58 6c 66 78 d9 d8 3f ee 33 0e 9b 40 0e da 3f
       0.38827333452481094 0.40711989538323123
0001b0 c8 c2 2c c1 bd 25 e0 3f 46 a0 b0 7a b5 3f d4 3f
       0.5046070836015923 0.3163884828704834
0001c0 e8 09 98 fa 2e 12 e2 3f 18 92 8e 47 c5 73 d7 3f
       0.5647196669017918 0.3664410780714049
0001d0 43 60 51 6f 10 cc da 3f be a3 a6 aa 05 08 d8 3f
       0.41870509024511565 0.3754896322739646

running_mean_std.count f8 []
000000 00 00 00 10 00 00 72 41
       18874369.0

a2c_network.sigma f4 [8]
000000 96 ee 65 bf b5 8b ae bf cf a5 98 bf c6 e2 a1 bf
       -0.8981718 -1.3636385 -1.1925601 -1.2647331
000010 73 d9 81 bf ca 51 b5 bf a0 31 58 bf 1e 94 8f bf
       -1.0144485 -1.4165585 -0.8445072 -1.1217077

a2c_network.actor_mlp.0.weight f4 [256, 60]
000000 1d ae 28 3d 26 5b 45 be 70 5d d9 bc 07 62 64 bd
       0.041181672 -0.19273052 -0.026533812 -0.05575755
000010 8d bc 82 3e 79 c9 c9 bd a7 f9 38 3e d1 73 a7 bd
       0.25534478 -0.09852881 0.18063985 -0.08176387
000020 4e f5 dc bd ed fa 92 bd d8 a5 36 3d f5 42 25 bd
       -0.10788976 -0.071767665 0.044591755 -0.04034706
000030 6e 89 82 3e 46 c7 99 be 57 3f 06 be 9d e4 d1 bd
       0.25495476 -0.30034846 -0.131101 -0.10248683
000040 78 7e be bd db 53 7e bc f6 ab 62 3d ce 34 43 3e
       -0.09301466 -0.015522922 0.055339776 0.19063112
000050 24 f9 25 3d de 80 2f be 03 da 95 3d 1f b3 11 bc
       0.040520802 -0.17139003 0.07316973 -0.008892803
000060 3c 75 01 3e 80 28 1f be 94 14 21 3e 67 64 c2 3a
       0.12642378 -0.15542793 0.15730506 0.0014830948
000070 97 2c ac bd 0b 6e 5e 3d 1c f2 f8 3c 0c 27 46 bd
       -0.08406942 0.054304164 0.030388884 -0.04837708
000080 b2 b6 88 3d c4 5c 7a 3d cc af b9 bd ec 28 ae bc
       0.06675471 0.061123624 -0.09066734 -0.021259747
000090 ea 9d a3 3d 2d f0 6f bd 3c ba 5e bd c1 6e 09 be
       0.07989104 -0.05857866 -0.054376826 -0.13421156
0000a0 95 a4 ba bd 55 64 54 3d b0 3a 94 3c b7 56 b8 bd
       -0.09113423 0.051853497 0.01809439 -0.090009145
0000b0 b0 54 f5 bc 4c a5 a3 bd 04 a8 0b be 5e ae bd bc
       -0.029947609 -0.07990512 -0.13638312 -0.023154434
0000c0 4b 32 be bd 21 ff b1 bd 8f 85 c8 3d 99 62 64 3b
       -0.09286936 -0.0869124 0.09791099 0.0034848808
0000d0 f8 18 4e 3d 82 22 f8 bc 2d 96 1a bc 1d 45 e6 bc
       0.05031678 -0.030289892 -0.009435219 -0.028109128
0000e0 c2 45 d0 bc 91 22 f9 bd 27 26 3d bc 1e b7 27 bd
       -0.025423888 -0.12164796 -0.011544741 -0.04094612
0000f0 fd 3d 1d 3d 2c 70 0d be bc ff 37 bd 01 3b b1 bd
       0.038389195 -0.13812321 -0.04492162 -0.08653832
000100 56 e3 9f bd e9 0b e5 bd a4 b6 74 3d fe 5f 32 bd
       -0.07807033 -0.11183912 0.059744492 -0.043548577
000110 2a 1c 53 3e 27 fe ab bd 03 a6 e5 3d c1 3b 50 3d
       0.20616212 -0.08398085 0.11213305 0.050838236
000120 85 0b e9 bc 00 2a d4 3d b8 da 33 3e c9 ed 67 bd
       -0.028447876 0.10359573 0.17563903 -0.056623254
000130 58 81 81 be 0f 5e 08 be 8d ea 84 3d 87 be 84 bc
       -0.25293994 -0.1331713 0.064900495 -0.016204132
000140 dc a6 98 3d c3 95 e9 bd 69 f3 f3 3d 81 30 b5 bd
       0.07453701 -0.11405518 0.11911661 -0.08847142
000150 19 bb 2f be 39 d8 df 3d fd f7 00 3e a4 c5 94 3d
       -0.17161216 0.10929913 0.125946 0.072642595
000160 cd 79 b6 3d 4e 17 d3 bd 10 07 0a bd 68 64 a6 bd
       0.089099504 -0.103071794 -0.03369814 -0.0812462
000170 88 53 c3 bc c7 e0 0f be 23 2d 96 3d 08 3c ad bd
       -0.023843542 -0.1405059 0.07332828 -0.08458716
000180 39 ab 98 3d 6c 44 dd 3c a7 75 58 3d 99 db a0 bd
       0.07454533 0.027010165 0.052846577 -0.07854385
000190 04 cc 58 3d 5f a6 80 3c e5 7d ae 3c e3 3d f2 bd
       0.05292894 0.015704332 0.021300266 -0.1182821
0001a0 85 c5 0d 3c b5 58 73 bd d8 2d a4 bd 5f 35 06 3e
       0.008653049 -0.05941077 -0.080165565 0.13106297
0001b0 57 88 4f bb 8d 67 c2 bc 94 6d b8 bd 5f bd 20 3d
       -0.0031666958 -0.023731017 -0.09005275 0.0392431
0001c0 83 6b 52 3d c4 8a 76 bd 98 9c 0a bc 9f 09 9a bd
       0.051372062 -0.06019093 -0.008460186 -0.07521366
0001d0 68 d8 57 bd 61 ee 76 3d 8d 2e 02 3e 13 7f 2a be
       -0.052696615 0.06028593 0.1271307 -0.16650037
0001e0 53 b3 a0 3d 5b 1f d4 3d 80 6a f1 3c 5d 4e b1 bd
       0.078467034 0.10357543 0.029469728 -0.08657525
0001f0 f2 31 fa 3d 9e d2 3d 3d 88 a3 3e 3d b9 89 db ba
       0.122165576 0.04634344 0.046542674 -0.0016749419
000200 05 e9 84 bd 73 fb eb bb 97 a9 ad 3c 06 4d d6 bc
       -0.064897574 -0.007201606 0.02119903 -0.026159775
000210 e8 52 18 3e 9d 8a 26 3e 63 66 e6 bc 31 79 d6 3c
       0.14875376 0.16263814 -0.028124994 0.026180835
000220 c4 40 aa bc 81 72 85 bd 96 01 f6 3c 6a 45 41 3d
       -0.020782836 -0.065159805 0.030030053 0.04718534
000230 c6 d8 15 be 5d 95 9a bc 8c 15 ab 3d 3e 45 3b 3d
       -0.14633474 -0.01887005 0.08353719 0.04572033
000240 aa 16 f6 3c 36 5d 05 be ce 11 c6 3c 57 64 b2 bd
       0.030040104 -0.13023838 0.024178412 -0.087105446
000250 8b 2c 65 bc e8 8c 98 3d 6d 98 65 3c 8e de 3f 38
       -0.013987671 0.07448751 0.014013392 4.574522e-05
000260 72 d6 93 bd 6e 91 3b bd 51 14 94 bd cb 7d 93 3d
       -0.072186366 -0.04579299 -0.072304375 0.072017275
000270 f7 aa 60 b9 8a 1f 42 bd 7f df 1d 3d 79 8a d3 3c
       -0.00021425994 -0.04739336 0.03854322 0.025822865
000280 63 bc 09 bd fa c5 fb 3d 28 9e 93 bc 7b ba a3 bc
       -0.033626925 0.122936204 -0.01801975 -0.019986382
000290 1e 26 a8 bd 29 4a cd 3d 10 bf c6 3d 58 76 b5 3c
       -0.08210395 0.100239106 0.09704411 0.022151157
0002a0 94 af 91 bd d4 c1 18 be 19 2b d4 bd 08 6d 97 3d
       -0.07113567 -0.1491769 -0.10359783 0.07393843
0002b0 65 cc 24 3d c6 f9 06 3e 4c 7d 0f 3d 2f 04 79 3c
       0.04023399 0.13181219 0.0350316 0.015198751
0002c0 66 23 75 3b 70 28 f6 bc 32 af 0e bd 64 ba 5e bd
       0.0037405132 -0.030048579 -0.034835048 -0.054376975
0002d0 d9 92 73 3d a8 36 8d bc b8 4d e5 bc 16 83 f1 bd
       0.059466217 -0.017237976 -0.02799116 -0.11792581
0002e0 45 29 98 3d 49 bc 86 be a0 fb b3 bd 29 65 b4 3c
       0.074297465 -0.26315525 -0.08788228 0.022020893
0002f0 9d f5 00 be fa cb cd 3d 20 66 ae bd a9 19 22 be
       -0.12593694 0.10048671 -0.085155725 -0.15830101
000300 66 1a 5c bc 3b 48 55 be b2 e2 99 bd f4 6d 13 be
       -0.013434028 -0.20828335 -0.07513942 -0.14397413
000310 0d 88 0e 3e bf 11 e8 bd 04 9a b4 3d 0c 60 83 3d
       0.13919087 -0.1133151 0.08818439 0.06414804
000320 72 71 67 3d 4a 7f a0 be 85 5e 66 3d 11 30 fd 3b
       0.056504674 -0.31347114 0.056242485 0.007726677
000330 22 53 8b 3d 9a 87 ad 3d fd 63 db bc 67 22 26 3c
       0.06802966 0.084731296 -0.026781077 0.010140038
000340 20 19 27 3d 27 3f fa bd 37 b0 9d 3d 79 79 d8 bd
       0.040795445 -0.122190766 0.07699626 -0.10570044
000350 ff 93 00 3e b8 a0 2e 3d aa 88 32 3e cc 40 19 bd
       0.12556456 0.042633742 0.17434946 -0.03741531
000360 7a cc c8 bd 3c 6d 25 3d 54 16 60 3d 83 24 24 be
       -0.09804626 0.040387377 0.054708794 -0.16029553
000370 bf 71 44 3c 38 c6 1e bd 5a f5 1f bd e6 e4 8b bd
       0.01199001 -0.038763255 -0.039052345 -0.06830768
000380 e6 42 59 bd ee 9b b6 bd 83 8b 82 bd 7b 4c c8 3d
       -0.053042315 -0.0891646 -0.06374266 0.097802125
000390 d4 50 4f 3d 06 dd 0b 3c 6f 0e cc bc 39 76 85 3b
       0.050614193 0.008536583 -0.024909226 0.004072931
0003a0 d1 e1 da bd 0c 21 38 be db 86 fb 3d 55 c4 d0 bd
       -0.10687602 -0.17981356 0.12281581 -0.10193697
0003b0 ff 32 dc bd f0 22 42 bd 7c c3 c7 bc d6 ad 9a bd
       -0.10751914 -0.0473966 -0.024385206 -0.07552688
0003c0 99 a0 d3 bc b4 f8 8f 3c 1b 29 05 3d 2c c3 30 bc
       -0.025833415 0.017574646 0.032509904 -0.01078872
0003d0 86 df 8a bd bc 42 0b 3e 7a 80 52 bd 45 e6 0d 3c
       -0.06780915 0.13599676 -0.051392056 0.008660858
0003e0 61 16 a2 bd c2 a2 13 3d a8 c7 94 3e dc 29 36 3e
       -0.07914425 0.03604389 0.29058576 0.17789406
0003f0 6d b2 01 be b3 e2 79 3b f0 27 95 3d e9 83 0e 3d
       -0.1266572 0.0038129508 0.07283008 0.034793768

a2c_network.actor_mlp.0.bias f4 [256]
000000 cc d9 83 bd e3 ee 18 3c dc 22 32 bd d5 5c fe 3c
       -0.06438026 0.009334299 -0.043490276 0.031050125
000010 1e fb cd 3c 61 8b 24 3b 45 9a 99 bb ab 28 65 bd
       0.025144156 0.002510749 -0.00468758 -0.055946987
000020 83 75 57 bd cc a4 0e bc 2d 22 b7 3c d2 e3 e8 bb
       -0.052602302 -0.008706283 0.022355163 -0.0071072364
000030 11 d3 d2 bb 50 aa c8 bc 62 a0 7f bd 4a e3 7b 3c
       -0.0064338525 -0.024495274 -0.062408812 0.015374014
000040 ee 57 13 bd 07 f0 b0 3d 75 65 a2 bd 55 12 6e 3c
       -0.03597253 0.086395316 -0.07929508 0.014530738
000050 75 9d 3a bd 74 89 22 bd 81 e8 4f 3c 45 df 07 3d
       -0.04556032 -0.039681867 0.012689711 0.03317191
000060 23 09 95 bd ba 3a 3c bc 4e 14 61 3c cd 53 1b 3d
       -0.07277133 -0.011488611 0.013737751 0.037921716
000070 c3 6a 25 bd 19 96 54 3d 88 33 9c bd 2c 95 12 3c
       -0.04038502 0.051900957 -0.07627016 0.008946698
000080 dc 3d 8b bc 37 a0 10 bd 62 d1 45 3d af 3e d8 3d
       -0.01699727 -0.035309043 0.048295386 0.10558831
000090 16 28 39 bc 7e 6b 61 bc 9e bb aa bc ad 6e 2c 3d
       -0.011301061 -0.013758538 -0.020841416 0.042097736
0000a0 9d 22 ec 3c 00 f6 6d 3d 40 fd a1 bc fe 25 7e 3d
       0.028825099 0.058095932 -0.01977408 0.06204795
0000b0 86 18 85 bc ea 1e 7b bc 00 d7 84 3c 20 47 c8 3c
       -0.016247045 -0.015327195 0.016215801 0.024447978
0000c0 0d de d6 bc 1d c7 1e bd 84 3a 0b bb 32 bf 23 bd
       -0.026228929 -0.038764108 -0.0021244595 -0.03997726
0000d0 7e c6 1b bd 17 3f c6 3c 9b 33 41 3d fe 0a 9f 3d
       -0.038031094 0.024200005 0.047168355 0.077657685
0000e0 c9 3f fa bc 5a d2 ea ba ed 4a 91 3d da fe 4a 3c
       -0.030547993 -0.0017915473 0.07094369 0.012389863
0000f0 bb c2 c7 3c 5f c4 12 3c 75 7e c7 bc 4a 8b b1 bc
       0.024384847 0.008957951 -0.024352292 -0.021672864
000100 67 06 19 bd 56 f1 c7 bc f7 61 77 bd d1 4f 0e bd
       -0.03735962 -0.02440707 -0.06039616 -0.034744088
000110 2d 2e 43 3d 2b fe 64 bc 6e 10 20 bd 36 48 f7 bc
       0.04765146 -0.013976614 -0.03907817 -0.0301858
000120 3e b2 6b 3d b3 ae 18 3c cd 0e 08 bd b5 04 a5 bb
       0.057543032 0.009318995 -0.03321724 -0.0050359615
000130 d7 a6 86 bc 6c fb ae 3d 2f 47 73 bc a3 fa 94 bc
       -0.016436977 0.08544049 -0.014848514 -0.01818592
000140 56 84 0a 3c 33 74 42 bd a1 11 53 bd 9a 2e 3f bb
       0.008454403 -0.047474097 -0.051530484 -0.0029172064
000150 23 31 13 bb 08 ca 9a bd 9a 5e 0a 3b bd 8f e7 3b
       -0.0022459708 -0.07558066 0.0021113516 0.0070666955
000160 cf bd c2 3a 27 e6 fa bc a0 ae 09 3d d0 af b6 3c
       0.0014857593 -0.030627323 0.0336138 0.02230063
000170 ff 38 e1 bc 48 a8 b1 bc 70 af 48 3c a9 3f 67 bc
       -0.027492998 -0.021686688 0.012248859 -0.014114299
000180 bb 9d 0e bd 0b 47 1b bd 66 6d 73 3d fd 0e 06 bd
       -0.034818392 -0.03790955 0.059430502 -0.032729138
000190 52 87 39 bd 81 ed b4 3d 82 17 02 bd 04 9f d9 3c
       -0.045295067 0.08834363 -0.0317607 0.026565082
0001a0 fb 1a 28 bc 78 d0 1c 3c 37 56 d1 bc 81 2c 3e bd
       -0.010260339 0.009571187 -0.025553806 -0.04642916
0001b0 6e 24 d1 bb 6c 73 6d bc 2a 0b 51 3c 3b e6 89 3c
       -0.0063825166 -0.014492851 0.012759009 0.016833415
0001c0 f9 df 2e bd a6 6a 25 3c e8 b2 98 3c b2 42 d7 bc
       -0.042694066 0.010096228 0.018639997 -0.02627692
0001d0 db f5 18 bd 3c eb af bc 6f e0 13 bd 48 48 19 3d
       -0.03734384 -0.021474473 -0.03610271 0.03742245
0001e0 12 25 a6 bc a6 b5 5d 3d a8 d0 46 3d 05 d3 ad 3c
       -0.020281348 0.05412831 0.048538834 0.021218786
0001f0 45 1a 87 3b bc cb e0 3c ae 1b 22 3d 1c 2b 56 3b
       0.0041230046 0.027440898 0.03957718 0.0032679504
000200 a1 ff df 3b 59 26 3c bc 38 fe f5 3b e7 17 b3 3c
       0.0068358933 -0.011483752 0.007507112 0.021861983
000210 b2 10 3a bd 31 58 1f bc e0 41 bd bb 2d 33 04 3d
       -0.04542608 -0.009725616 -0.005775675 0.032275368
000220 a0 da 09 be 47 7d f3 3c 09 23 f8 b8 6e 2d c9 bd
       -0.13462305 0.029722823 -0.00011832087 -0.09823118
000230 68 88 97 bc 98 94 da bb 07 31 8e 3c 61 46 7a 3c
       -0.01849766 -0.006670546 0.017357362 0.015275569
000240 b1 3b 6d bc 1e c1 96 3c ac 4c 39 3d bc 18 6d 3d
       -0.014479564 0.018402632 0.045239136 0.057884917
000250 c5 3e f9 3c c4 51 25 bc 24 59 7a bd a7 0e ac 3b
       0.030425439 -0.010090295 -0.061120167 0.00525077
000260 af b2 97 bc e3 9e 88 bb 2a 32 c0 3b e5 2e 23 3c
       -0.01851782 -0.0041693314 0.005865355 0.009959911
000270 91 09 bb bc 33 c7 30 3c db f2 dd 3c 0c 3b dc ba
       -0.02283171 0.01078968 0.027093342 -0.0016802265
000280 38 6d 43 3d bf 97 98 3d ff c4 09 bd 87 59 2e bd
       0.04771158 0.07450818 -0.033635136 -0.04256585
000290 c0 ea d6 bb 05 b0 fb 3c 41 9c 20 bd 6c b4 96 3c
       -0.006558746 0.030723581 -0.039211515 0.018396579
0002a0 47 a5 69 3c c7 d6 0c bd dd c8 11 bd 31 0b 1d bd
       0.014260597 -0.034384515 -0.03559195 -0.03834075
0002b0 ec 65 89 3d 23 15 a0 3c f2 0b 63 bc af 6f 89 bc
       0.06708893 0.019541329 -0.013857828 -0.016776888
0002c0 19 d0 ce 3c 63 b7 1f bc b0 12 cc bc 16 5a 82 bd
       0.025245713 -0.009748313 -0.024911255 -0.06364839
0002d0 72 a2 55 3d 74 f7 91 bd 60 c3 d8 bd 22 f5 a5 bd
       0.052156873 -0.07127276 -0.1058414 -0.08103396
0002e0 f7 d0 5e 3a 45 24 62 bc e9 3b 96 3d 58 e1 18 bd
       0.0008499766 -0.013802593 0.07335646 -0.03732428
0002f0 25 61 df bc 5b 1b b3 bc 4b 33 e5 bc 9c 62 1d bd
       -0.027268002 -0.02186363 -0.02797856 -0.03842412
000300 5f 08 83 bd 84 88 a8 3a 2e c7 e0 bd fc 62 c0 3d
       -0.06398081 0.0012858068 -0.109754905 0.0939388
000310 fe 92 16 3d 43 f0 e1 bc 92 59 93 bc 3c 60 f4 3a
       0.036761276 -0.027580386 -0.017987046 0.0018644403
000320 e7 49 27 3c 20 95 e0 bc aa 6b 5f 3d 65 71 21 bd
       0.010210491 -0.027414858 0.054546036 -0.039414782
000330 03 22 92 bd 6c 33 d4 ba 8a 40 a9 37 72 8e 7d ba
       -0.071353935 -0.0016189641 2.0176423e-05 -0.000967241
000340 b9 dc 1e bd c1 56 89 3d b2 6a 00 3d 29 8b 8a bb
       -0.038784716 0.06706 0.031351753 -0.004228015
000350 6b 13 da 3b 9f c9 47 bb 41 ae d7 3b b2 e4 5c bd
       0.006655147 -0.0030485166 0.006582052 -0.05392904
000360 d8 41 2d bd aa 62 32 3c bb 07 d4 bc c2 0e 1e 3c
       -0.04229912 0.010887781 -0.025882592 0.009647073
000370 b1 8f dc bc 1a 8b 01 bc 90 15 b5 3c d2 3d 37 bc
       -0.026923986 -0.0079067 0.022105008 -0.011184173
000380 55 11 6f 3d b3 6f e3 3c d2 2c f3 3d ba 75 b6 3c
       0.05836614 0.027763223 0.11873783 0.022272933
000390 5c 52 61 bd 3c f3 66 bd 00 98 25 3d 71 63 2e 3c
       -0.055010185 -0.05638431 0.04042816 0.010643826
0003a0 3e 58 52 3d 7f f5 cf bc d6 dd b8 3c 20 70 c4 3c
       0.051353686 -0.025385616 0.022566717 0.023979247
0003b0 d6 1b 12 3d b9 bd 34 bc af 26 99 bc 99 09 db 3c
       0.035671078 -0.0110315615 -0.018695204 0.026737975
0003c0 9e ec 99 3c 02 7c c6 bc ea ce b3 3d 4e 59 96 3c
       0.018789586 -0.024229053 0.087797 0.01835313
0003d0 94 f4 7d 3b 6b 42 8c 3c b8 37 90 3d 88 2a 93 bd
       0.0038750516 0.017121514 0.070418775 -0.071858466
0003e0 13 9d 2c bd d2 31 b4 bd 5b b4 0a 3d cc c7 01 3d
       -0.042141985 -0.08798565 0.033863407 0.03168468
0003f0 ff f9 b7 3c f0 ea 6a 3d 52 dd 5f bb a6 21 fc bc
       0.022458075 0.05735296 -0.0034159017 -0.030777764

a2c_network.actor_mlp.2.weight f4 [128, 256]
000000 0f 61 7c bd e3 ac 99 3d b3 e4 8c bd 60 b9 c4 bc
       -0.061616 0.07503679 -0.068795584 -0.024014175
000010 ff da 65 3c 28 b7 14 3d cb 64 89 bc 0a 1a 6e 3d
       0.0140292635 0.036307484 -0.016771695 0.0581303
000020 7f 67 35 bb c9 19 9a 3d 9b bc de 3d de ab af bd
       -0.0027680097 0.075244494 0.108758174 -0.08577703
000030 35 34 05 bd 60 7f ce 3b 14 2d 08 bd bb f1 9a bb
       -0.03252049 0.0063018054 -0.033246115 -0.0047285235
000040 3e bf 8a bd 24 8a 4f 3d ab 0e 01 bd 19 37 8d bc
       -0.06774758 0.05066885 -0.03150813 -0.017238187
000050 42 70 7b bb b9 9d 4d bc 71 94 0c bd a4 30 28 bd
       -0.0038366471 -0.012549811 -0.034321252 -0.041062012
000060 65 7f b4 bc 69 97 97 3c 67 03 6f 3c 0e 47 d8 bd
       -0.022033403 0.018504815 0.0145882135 -0.105604276
000070 c3 81 a9 3c d1 81 d4 bd 7d 4c 59 bc df 13 a7 bb
       0.020691758 -0.10376323 -0.013262865 -0.0050988044
000080 98 de be 3d 4b 4a 1d 3b c8 0c 39 3d 58 9e 06 bc
       0.093198 0.002400058 0.045178205 -0.008216463
000090 e7 4f 8c bd 51 65 f2 bc 5a 44 e1 bc a7 c8 22 bd
       -0.06851178 -0.029589327 -0.027498413 -0.03974214
0000a0 98 ff 28 3c ef 39 b6 3c 21 79 fc bc b4 99 ed 3c
       0.010314845 0.022244422 -0.030819478 0.029003955
0000b0 bf 85 a8 bd 4e eb 9c b9 4f b5 2d 3d 97 f7 18 3d
       -0.08228635 -0.00029929954 0.042409237 0.037345495
0000c0 fe 46 e8 bb e3 ab 11 bd de 52 d4 3d ce d2 c8 3d
       -0.007088541 -0.035564315 0.10367368 0.09805833
0000d0 37 c6 02 3c e8 47 2c 3c c0 27 96 bd 00 d6 25 3d
       0.007981828 0.010515191 -0.073318005 0.04048729
0000e0 8f 3b 32 3d 9d 11 d3 bd e4 db a5 b9 2b 95 19 be
       0.04351383 -0.10306094 -0.00031635084 -0.1499831
0000f0 c1 7b 6b bd 86 f3 f9 bc 32 35 34 bd a6 a7 0e 3d
       -0.057491068 -0.030511629 -0.043996044 0.03482785
000100 94 68 5c 3b 44 c2 2c 3d d3 c8 e2 bc 82 22 d9 3a
       0.003363167 0.042177454 -0.027683651 0.001656607
000110 aa f9 f0 3c 90 2f c5 bd 1d b3 e5 3a f4 8a 88 bd
       0.029415924 -0.096282125 0.0017524693 -0.06667128
000120 c4 f8 86 bd 87 21 45 bd 57 21 8c bb 6f 71 73 3d
       -0.06590417 -0.048127677 -0.0042764354 0.05943435
000130 cc 1d 0b 3d 84 5c 1c bd 82 4a f7 bc 7a 9a 53 bc
       0.033963963 -0.038174167 -0.030186895 -0.012915248
000140 71 fd c2 3d 90 ec 29 bd 57 d8 c9 3c 6e 67 8e 3d
       0.09520996 -0.04148537 0.024639292 0.069533214
000150 71 7a 69 3d 57 79 e6 bc 9e 0f 1e bb 0b ac f7 bc
       0.057001535 -0.028134031 -0.0024118195 -0.030233404
000160 d4 7a 3a bd 44 2d 9c bd ef 77 51 bb 02 63 a4 bd
       -0.045527294 -0.07625821 -0.0031962355 -0.08026697
000170 ac 8d a1 3d 0a 9b 03 bc 24 43 bd 3d e8 70 23 bd
       0.0788835 -0.00803257 0.09241322 -0.039902598
000180 a4 c4 36 3d 74 3a 68 3c 66 b7 0c 3d 41 90 4a 3b
       0.044621125 0.014174093 0.03435459 0.0030908736
000190 29 dc 46 3b b8 70 ca 3b 8c 57 4f 3d e8 05 50 3c
       0.0030343628 0.006177988 0.0506206 0.012696721
0001a0 ab e9 5e 3d d9 e5 0f bd fe bd 43 3d d8 be 85 bc
       0.054422062 -0.03513131 0.047788613 -0.016326353
0001b0 03 92 e5 bc 8c 13 7e bd 04 57 0e bc bf b0 83 bc
       -0.028023725 -0.06203036 -0.008687738 -0.01607549
0001c0 7c fe e4 bb ea d8 30 3d e4 f4 ce bc 9e ea ed bc
       -0.0069883447 0.043175615 -0.025263257 -0.029042538
0001d0 e7 2f aa 3c 2a 4c 44 3d ca 6c 74 bd b3 0c 22 bd
       0.020774795 0.0479242 -0.05967406 -0.039562892
0001e0 5f 35 3e 3d e9 92 59 bb 78 f0 41 3b 65 56 5d 3c
       0.046437617 -0.0033199138 0.0029592793 0.013509368
0001f0 b1 10 e1 3d 22 c1 9b bd 05 75 fc 3c b3 1a aa bd
       0.10989512 -0.076051965 0.030817518 -0.08305874
000200 34 97 b9 3d b7 d0 06 bd 53 7d 44 3d 94 08 00 bd
       0.09062043 -0.03291389 0.04797108 -0.03125818
000210 bd 00 f5 bc ce 88 89 bb 10 29 b4 3c 20 83 4a bc
       -0.029907579 -0.0041972166 0.021992236 -0.012360364
000220 4d bd 22 bc 4a 2d 81 3d 15 c8 e5 3c a7 04 12 3d
       -0.009932828 0.06307466 0.028049508 0.035648968
000230 37 8e 35 bd 70 c5 23 bd 2e 4a c2 bc 32 5a 3c bd
       -0.04432508 -0.039983213 -0.023717012 -0.045984454
000240 cc 4d 16 bd 09 5d 4f 3c 0e 1e d0 3c 56 0e a1 3c
       -0.036695287 0.012656459 0.025404956 0.019660156
000250 b6 f9 b6 3c c4 2a e3 bc c2 6b b0 3c ab 09 82 bd
       0.022335868 -0.027730353 0.021535758 -0.063495
000260 47 6a 59 bd 3f f8 31 3d 83 a4 3e bc e6 fa ba 3d
       -0.05307987 0.043449637 -0.011635902 0.09129886
000270 86 52 ae bd 1d 81 99 bd 9d 31 64 bd 6d 36 b0 bd
       -0.08511834 -0.074953295 -0.055711377 -0.08604131
000280 0a b8 a4 bd 68 b3 9f 3d 3c f3 a7 bb 1d b3 76 3d
       -0.08042915 0.07797891 -0.0051254313 0.06022941
000290 d8 37 33 3d ef eb 69 3d 6a 6f ab bc d5 e6 a4 3d
       0.04375443 0.05710977 -0.02092715 0.0805184
0002a0 8a 0f 8f 3d b1 b9 e0 3c 16 69 be bc e3 c2 99 3d
       0.06985386 0.027432295 -0.023243468 0.07507875
0002b0 42 ce e1 3d 3c 4b 09 bd 94 52 c6 3c 52 1c 08 bd
       0.11025669 -0.033519015 0.024209298 -0.033230133
0002c0 4e bf 68 bc cd 6b 8c bd 68 ba a3 bc 54 91 39 3d
       -0.014205767 -0.06856499 -0.019986346 0.04530461
0002d0 39 ff 8b 3b b8 ab 96 bc f3 8a 28 bd 68 00 97 bc
       0.0042723683 -0.018392429 -0.041148137 -0.01843281
0002e0 12 0a b5 bc cf 26 8f 3b c1 35 97 3d 5e 72 28 3c
       -0.022099528 0.00436864 0.073832996 0.0102811735
0002f0 12 bc b0 3a 07 2f c2 bc 5f 0c ba bd b3 3a 28 3c
       0.0013483784 -0.023704065 -0.09084391 0.010267901
000300 1d 0f b2 bc 63 a5 1d 3d c3 59 ec bc 15 79 fc 3d
       -0.021735722 0.038487803 -0.028851395 0.12327782
000310 87 d3 4b ba c3 6d 8f 3d 7c 32 74 3d 52 f1 94 bc
       -0.00077753555 0.07003357 0.05961846 -0.018181477
000320 52 df a9 3d 55 e2 bf 3c 3e 1b ce 3c bd 4f 18 bb
       0.08294548 0.023423353 0.025159474 -0.0023240887
000330 84 31 93 bd 74 0c 19 bd 7a 8f f4 3c 7e 5c 56 3d
       -0.07187179 -0.03736539 0.029853571 0.0523343
000340 db 75 25 3d d5 5b 16 3b fc 0a ce 3d a9 90 d5 bd
       0.0403956 0.002294292 0.10060689 -0.10427982
000350 3a 65 3d 3c c3 1f a7 bc b1 45 23 3a c3 c7 f5 3b
       0.011559779 -0.020400887 0.00062283414 0.00750062
000360 21 6f c6 3d 7f e3 c3 3b e1 62 61 3d ad 32 75 38
       0.09689165 0.0059780474 0.05502594 5.8459747e-05
000370 34 c2 b8 3b 2b 34 a1 3d e9 f2 9d 3c 8a 9b 0b 3d
       0.005638385 0.078712784 0.019280868 0.03408388
000380 56 c9 32 bd af bb c8 3d 20 8e f6 bc 1d d4 1a bc
       -0.04364904 0.09801423 -0.030097067 -0.009449986
000390 17 05 2a bd d6 f9 2e bc a8 40 af 3c 8d b3 c3 3d
       -0.04150876 -0.010679683 0.021393135 0.09555731
0003a0 d9 75 52 3d 08 a8 b2 3c 62 bc 5f 3d da 89 be 3d
       0.05138192 0.02180864 0.054623015 0.09303637
0003b0 fe f4 8a bc c4 68 8d 3c d7 a0 60 3d 79 2d 05 3e
       -0.016962525 0.01726187 0.05484089 0.13005628
0003c0 18 a3 de ba 91 1a 33 bd 7c 69 63 3c 0b 41 0c bd
       -0.0016985862 -0.043726508 0.01388013 -0.034241717
0003d0 1a 29 15 3e 17 92 9a bd b4 2f 3b bd 7b ed 11 3d
       0.1456646 -0.07547396 -0.04569979 0.03562687
0003e0 65 6d b9 bd b8 fc 51 bc f3 77 01 3d 10 c5 9d 3d
       -0.090540685 -0.0128166005 0.031608533 0.07703602
0003f0 f9 f7 63 bd 1c 0e 69 3d e9 6b a0 3d 52 58 2c 3d
       -0.055656407 0.05689822 0.07833082 0.042076416

a2c_network.actor_mlp.2.bias f4 [128]
000000 80 6a 26 3d 12 ae 80 bc ac 9c 38 3d aa 11 92 bd
       0.04062891 -0.015708003 0.04507129 -0.071322754
000010 b0 cc 79 bd 16 36 08 3d 94 0e ba bc 81 3f a2 bc
       -0.06098622 0.033254705 -0.02271203 -0.019805672
000020 2a 9f 97 bc 5f 36 9c bc 5e 21 2f 3c 05 7f 7c 3c
       -0.018508513 -0.019068895 0.010689108 0.015411143
000030 05 5d c2 ba 96 ed 3c bd e5 57 a6 3d 18 32 b1 bd
       -0.0014828747 -0.046125017 0.08122233 -0.08652133
000040 5d 9c 0d bd 19 30 25 bc 4c d0 8d bd fc 3a c9 3b
       -0.034572948 -0.010082268 -0.06924495 0.0061410647
000050 cd df 0e bd c8 b6 e3 bc a1 01 df bc f7 56 0d bc
       -0.0348814 -0.027797118 -0.027222456 -0.008626691
000060 aa 51 23 bd 5e 7e 73 bd 22 c9 c4 3b 65 39 07 bc
       -0.039872803 -0.059446685 0.006005422 -0.00825343
000070 cc 66 69 bc e3 82 db 3c ab 4e 8f bd 42 b9 0f bd
       -0.0142457 0.02679581 -0.069974266 -0.035088785
000080 e6 63 40 3d 62 4b f0 3c 0e e1 ad bc 56 1b 5e bd
       0.04697027 0.02933282 -0.021225479 -0.05422529
000090 ac 4d e2 bd ea c5 9a bc 73 5e 53 bd 97 d1 2e bd
       -0.11049971 -0.0188932 -0.051603746 -0.04268035
0000a0 b6 e4 e6 bc 67 a4 b3 3b 40 79 67 3d 82 04 13 be
       -0.02818523 0.005482245 0.056512117 -0.14357188
0000b0 6c 4d 80 bd 78 70 52 bc b3 00 2c bd 66 ba 14 bd
       -0.06264767 -0.012844197 -0.041992854 -0.036310576
0000c0 3e 35 09 3d c0 e6 dd bc b7 0f e9 3c 36 57 2e 3c
       0.03349804 -0.02708757 0.028449876 0.01064091
0000d0 31 fc de bd cf 61 fa ba 19 f3 3f bb ab 6e 91 3c
       -0.108879454 -0.0019102636 -0.0029289185 0.017752966
0000e0 68 f5 4e 3d bc 08 a9 3c 3b 02 86 3c 70 33 70 bd
       0.050527006 0.020634048 0.016358485 -0.058642805
0000f0 f8 9e 9e 3c 43 a5 80 3d 6a a7 cc bd ea cb c9 3c
       0.019362912 0.06281521 -0.09992869 0.024633367
000100 80 be b5 3d a2 39 4d bb d6 8d 5e bd 60 46 97 3c
       0.088742256 -0.003131487 -0.054334484 0.018466175
000110 71 41 ee 3c ec 80 a0 3c 94 9c e5 3c 30 96 7b 3d
       0.02908394 0.019592725 0.028028764 0.061422527
000120 28 c7 ee bc 19 08 0f 3d 87 6d 6d bd b8 08 ff 3c
       -0.0291477 0.034919832 -0.05796578 0.031132087
000130 86 a2 14 3c f1 79 66 3c 94 76 72 3c 96 0d dd bc
       0.009071952 0.014067159 0.014798779 -0.026984017
000140 67 de bd 3c ed ef 44 bd ce df 4f 3c 9b bd 7d 3c
       0.023177339 -0.048080374 0.012687637 0.0154871
000150 e8 44 1c 3d 48 6c 2a 3c 01 ed 47 bd dc fd c1 bd
       0.03815165 0.010401793 -0.04881001 -0.09472248
000160 96 22 a2 bc 76 54 da 3c b1 6b 59 3d ba 1a 6f 3c
       -0.019791882 0.026651602 0.05308122 0.014593774
000170 e9 81 d3 ba 32 32 3e bc 98 59 5c bd f8 cd 5b 3c
       -0.0016136739 -0.011608647 -0.05379638 0.013415806
000180 43 c0 d3 3c df 52 77 bd 6c ca 04 3c 78 85 a1 bc
       0.025848513 -0.060381766 0.008104902 -0.019716963
000190 6a ec 7b 3c e5 87 55 3c 84 ee 28 3c 30 9b a4 bb
       0.01537619 0.013032888 0.010310773 -0.0050233826
0001a0 75 68 d4 3b 85 c3 91 ba fb 13 d5 3b 0a 04 58 bc
       0.006482179 -0.0011120891 0.006502626 -0.013184557
0001b0 14 1b a0 3c ce d0 fa bd 9c d9 b1 bc 19 ba ea 3c
       0.019544162 -0.122468576 -0.02171021 0.028653191
0001c0 52 62 a5 bd 70 ab f8 3c 75 2e 9d 3c bc 9d 8d 3c
       -0.08075394 0.030355185 0.019187192 0.017287128
0001d0 33 9a 5c 3b 81 e4 96 ba ac 7c 9f 3b 29 46 54 bd
       0.0033661246 -0.0011512191 0.004867157 -0.051824722
0001e0 4f dd 15 3d bf ef 06 3d 66 f0 d7 3c cc 1f 96 3b
       0.03658801 0.032943483 0.026359748 0.004581427
0001f0 b9 d5 c2 bc 8f af bd 3c ba bf ed 3c db fe 94 bd
       -0.023783552 0.023155002 0.029022086 -0.07275172

a2c_network.actor_mlp.4.weight f4 [64, 128]
000000 05 b6 d6 bb 13 98 cc 3c d4 e5 ea 3c 83 1e 43 bd
       -0.00655246 0.024974858 0.028674044 -0.04763652
000010 be 50 02 3c 0f 8b e6 3d 80 30 0f 3d 6d 10 cb 3d
       0.007953821 0.11256992 0.034958363 0.09915242
000020 2a 96 92 bd 76 e0 84 ba 83 88 18 bb da 59 19 bd
       -0.07157548 -0.0010137695 -0.0023274727 -0.037439205
000030 e1 ce c5 3c b9 ba e9 3b 26 34 08 bd 29 8f bc bc
       0.0241465 0.007132855 -0.033252858 -0.023017483
000040 41 52 be bd f9 a0 4d bd f4 32 b6 bd bd 81 2b 3d
       -0.092930324 -0.050202344 -0.08896437 0.041871775
000050 67 32 45 bd b6 60 9d bc 16 f6 25 bd 04 28 32 bd
       -0.04814377 -0.019211154 -0.04051789 -0.043495193
000060 57 06 f7 3d 1d cf 30 3d 45 1f 83 bd 20 ce b3 bd
       0.12061756 0.04316627 -0.064024486 -0.087795496
000070 0d c0 9e bd e2 f1 61 3c d8 46 1d bd 13 9b c5 bd
       -0.077514745 0.0137905795 -0.03839764 -0.09648719
000080 02 05 bf 3d ed ef 9b 3d 74 6c 8e bd 08 d0 89 3d
       0.09327127 0.076141216 -0.069542795 0.06729132
000090 c6 8f 92 3d 71 28 c0 bb b4 47 d6 3d c7 07 c9 bd
       0.07156329 -0.005864196 0.10462895 -0.098159365
0000a0 57 73 b1 bd 61 ad 75 3b bd 5a b5 bd 46 ef f8 bc
       -0.086645775 0.0037487375 -0.088551976 -0.030387532
0000b0 3d a7 91 bd 2a 6c 37 3b 80 a1 ba 3c 19 3d c6 3d
       -0.07111976 0.0027988055 0.022782087 0.09679622
0000c0 af ad 9b bb 86 ad 5b 3d 77 81 4d bd cf a5 1a 3d
       -0.0047509293 0.05363228 -0.050172295 0.037755784
0000d0 90 1c a7 3d 3a 0a 60 3d f0 53 4b bd f3 b4 64 3d
       0.08159745 0.054697253 -0.049640596 0.05583663
0000e0 53 fe c1 3d e7 2f 33 bb c3 03 22 3d 78 b9 80 bd
       0.094723366 -0.0027341784 0.03955437 -0.06285375
0000f0 26 81 66 3c 19 b9 84 3b 72 3a f8 3b 24 10 bb bc
       0.014068877 0.0040503857 0.0075753266 -0.022834845
000100 b7 fe 88 3c f1 1a 72 bc 32 8c ff 3d 8c 4e 7c 3b
       0.01672302 -0.014776931 0.12477912 0.0038498966
000110 61 e2 c7 3d 53 13 8e 3d e0 a7 71 bd 26 07 62 3d
       0.09759975 0.069372796 -0.05899799 0.0551826
000120 a3 a9 c9 bd e9 37 bd bc eb 73 b5 bd d0 67 c8 3d
       -0.09846809 -0.02309795 -0.0886 0.09785426
000130 04 b7 eb bd 87 65 2e 3c 5d 86 65 3d e5 aa d3 bd
       -0.11509517 0.010644323 0.056036342 -0.1033533
000140 16 54 81 3d 17 cf 61 bd 6c f4 91 bd ee 3a 2a bc
       0.06314866 -0.055129137 -0.07126698 -0.0103900265
000150 81 19 91 3d aa 1e ad bc de 07 7e 3d 03 ab e8 bc
       0.070849426 -0.021132786 0.06201922 -0.028401857
000160 f7 bc 32 3d 3c 84 9c 3c 43 4b af bd ca e5 8f 3d
       0.043637242 0.019106023 -0.08559277 0.07026251
000170 56 db 1d 3d a4 6d 02 be 1e 75 ea bd 05 73 21 3d
       0.038539253 -0.12737137 -0.114481196 0.03941633
000180 87 8b 0c 3d 61 4e a8 bc c5 18 94 bd 62 77 27 bd
       0.03431275 -0.020545186 -0.07231287 -0.040885337
000190 f6 ba 4e 3d bd 4b 26 3d 2c 55 ed 3d a8 81 bf bd
       0.05047127 0.040599573 0.11588511 -0.09350902
0001a0 06 36 57 bd 13 c0 0e 3e 4f ad a1 3d cb 73 44 3c
       -0.052541755 0.13940458 0.07894384 0.011990498
0001b0 63 05 40 bc 1a f8 77 3c 8a 63 a9 bb 1e 2a ce 3d
       -0.011720034 0.015134836 -0.0051693367 0.10066627
0001c0 71 f8 1a bd eb 05 83 3d d1 e4 df 3c 93 16 07 3d
       -0.03783459 0.06397613 0.027330788 0.032980513
0001d0 54 97 db 3c 13 a8 ba bc b1 de 3d 3d 4a 89 f2 bc
       0.026805557 -0.022785222 0.046354953 -0.02960648
0001e0 e0 a0 9c 3d 98 fd 89 bd a0 46 b0 3d e5 b7 0e 3c
       0.07647872 -0.06737822 0.08607221 0.008710836
0001f0 7e df 20 3d 93 c0 3e 3d 72 b9 b5 3c 9c e1 5e bc
       0.03927564 0.04657037 0.022183154 -0.013603594
000200 8f 6f 10 bd 74 37 6f 3d 83 a4 1c 3c 6d 00 1e be
       -0.03526264 0.058402494 0.009560707 -0.1542985
000210 06 b0 39 3d 13 74 32 bd 1c 3a c9 bd cb 60 78 3d
       0.045333885 -0.04356773 -0.098255366 0.060639184
000220 0d 5c 60 3b 9c 6c 93 bd 6e 69 a1 bc b0 8a 93 bd
       0.0034234554 -0.0719845 -0.019703593 -0.07204187
000230 19 22 62 bd 8b 63 05 3d b2 6a b8 bd 19 b3 57 bd
       -0.0552083 0.032565635 -0.090047255 -0.052661035
000240 c3 4f d4 bd 65 63 11 3d 5b a2 49 bd ad b0 71 3d
       -0.10366776 0.03549518 -0.0492271 0.05900638
000250 1a db 44 bd df 4c 4e 39 f3 e1 68 3d 73 10 13 3d
       -0.048060514 0.00019674328 0.056856107 0.03590436
000260 6f 56 0c 3e 74 3d 3f bd 49 58 c5 bd 07 ee af bd
       0.13704847 -0.046689466 -0.0963598 -0.08590322
000270 a9 95 80 3d f8 d8 4c bd fe d7 aa bd 19 18 98 3d
       0.062785454 -0.050011605 -0.083419785 0.07426471
000280 f8 1b 6b 3c dc 22 fe 3c 57 b1 aa 3c 2a 5e 81 bd
       0.01434993 0.031022482 0.020836515 -0.063167885
000290 a3 73 2d bd 23 71 48 3d 2b 86 11 bd 34 f8 4a 3c
       -0.042346608 0.04893602 -0.035528343 0.012388278
0002a0 37 52 4c bd c8 a4 80 3b 19 61 c7 bd 96 83 a9 bd
       -0.049883094 0.0039258935 -0.09735317 -0.08277051
0002b0 6e 7c 28 3d 31 60 8c bd 8e dc ab 3c de 5d e0 3d
       0.04113429 -0.068542846 0.020979192 0.10955404
0002c0 60 b9 9f 3d e5 65 42 3e 8a e3 80 3d d6 05 ab bd
       0.07799029 0.18984182 0.062934 -0.083507225
0002d0 16 94 a7 bc ee ed bd bd 3b 24 22 3d 9d b4 b9 3c
       -0.020456355 -0.09273897 0.039585333 0.022669131
0002e0 f4 ba 84 3d 03 ea db bb 6e ea 46 3d 5a 0c 02 3d
       0.06480971 -0.006711246 0.048563413 0.03175006
0002f0 1f 7a bb bd 2c 6f 83 bd c2 6e 57 3d 88 87 a7 bd
       -0.09154152 -0.06417689 0.05259586 -0.081801474
000300 72 4e 44 bd e9 46 a3 bd 96 7b 1a 3d c7 12 c7 bd
       -0.047926374 -0.079725094 0.037715517 -0.09720378
000310 89 48 ac bd 61 fd d8 bd ec 19 49 bd f5 48 02 be
       -0.084122725 -0.10595203 -0.049096987 -0.12723143
000320 93 d5 0f bd af a5 80 3c 16 22 66 be b2 69 48 3d
       -0.03511579 0.015704004 -0.2247394 0.048928924
000330 a1 7f 65 3c 3f 88 a3 bd e8 5e 8d bb d4 f3 ad bd
       0.01400748 -0.07984971 -0.004314292 -0.08493772
000340 73 df a9 3d 48 18 cb 3d 67 8f 33 bd a6 26 01 bd
       0.08294573 0.09916741 -0.04383793 -0.031531
000350 a2 1e ac 3d 0b 97 59 3d 70 c0 88 bb b9 b3 fa 3b
       0.0840428 0.05312256 -0.004173331 0.007650819
000360 1b 37 cf bb cb 03 6e 3d 35 77 2f bd ea 64 2c bd
       -0.0063237078 0.058109086 -0.042838294 -0.042088427
000370 96 94 be 3d 01 01 61 bd e6 c9 99 bd bd eb 14 be
       0.09305684 -0.054932598 -0.07509212 -0.14543052
000380 95 51 8e bd 48 c5 c6 bc da f3 24 3d 2e 61 bc 3b
       -0.06949154 -0.024263993 0.040271617 0.0057488894
000390 6d b6 d1 bd 6f b8 20 bd 9a 6a e0 bc 62 b1 a0 bd
       -0.10239873 -0.03923839 -0.027394582 -0.07846333
0003a0 59 d0 09 3d c0 db 8d 3c 30 5b 58 3d 77 c8 85 3d
       0.03364596 0.017316699 0.05282134 0.06532376
0003b0 a4 64 d8 bc 27 9c c4 bc aa b9 98 bd 22 88 d7 3d
       -0.026415177 -0.02400024 -0.074572876 0.10524012
0003c0 cd e0 2e 3c 3b e3 c8 3b 57 5b fd 3c 2f 00 b6 3d
       0.010673714 0.0061306036 0.030927343 0.08886754
0003d0 c2 5b 1d 3e e1 5f 28 bb 6a c4 7d bc a2 60 09 be
       0.15367034 -0.0025691914 -0.015488723 -0.13415769
0003e0 f7 41 a0 bd 5b 18 21 3c 70 98 a5 3a 3c cd 95 bc
       -0.07825082 0.009832467 0.0012633931 -0.01828634
0003f0 92 16 43 3c b4 08 aa 3d 32 f7 19 3c b5 a5 84 3d
       0.011907237 0.08302441 0.009397315 0.064769186

a2c_network.actor_mlp.4.bias f4 [64]
000000 53 f7 a3 3c 6e 66 77 bd 79 46 29 3d a9 70 e4 3c
       0.020015394 -0.06040042 0.041326974 0.027885752
000010 75 c7 2c bd 23 8f 18 bd 08 0d 61 bd 54 cb 92 bd
       -0.042182405 -0.03724588 -0.05494407 -0.07167688
000020 2b e0 5f bd 33 b9 07 bd 4c be d8 bd 70 9e 2c 3d
       -0.054657143 -0.033135604 -0.10583171 0.042143285
000030 a3 a7 8c 3d ef 15 a1 bc 2a c4 96 bd 87 42 95 bb
       0.06867912 -0.019663779 -0.07361634 -0.00455505
000040 31 2d 63 bd 4d 7b 29 bd 91 c6 60 3d 8c 0e 25 bd
       -0.05546302 -0.041377354 0.054876868 -0.040297076
000050 f0 d4 92 bd 85 5b 28 bd b6 26 4d bd 6a 47 8d bc
       -0.07169521 -0.041102905 -0.050085746 -0.017245967
000060 48 f1 8f 3c 48 ff c8 bc ce 5d 36 bd 32 3d 40 3d
       0.017571107 -0.02453579 -0.044523053 0.04693336
000070 30 9a 68 3d 7a 51 a5 bd b5 14 ca bd c9 2b a1 bc
       0.05678767 -0.08072181 -0.09867231 -0.019674199
000080 4c 0b 7e bd e1 42 d7 3b 27 02 aa 3c da 23 99 bd
       -0.062022492 0.006569252 0.02075298 -0.07477541
000090 b3 cc 99 bd ee 0f be 3c 68 ab b2 3a 45 44 0b bc
       -0.075097464 0.023200955 0.0013631405 -0.008500163
0000a0 a7 45 09 3d 65 e2 e4 3c 80 b9 2a bd 04 1a fe 3b
       0.03351369 0.027939985 -0.041680813 0.007754566
0000b0 2b 61 b4 bd 1e c6 24 be b2 3b 75 3d 5e cf c5 3c
       -0.08807596 -0.160912 0.059871383 0.024146732
0000c0 7d f6 68 bd e0 9c a3 bd da c7 39 3d 59 cf 4f bd
       -0.056875695 -0.07988906 0.04535661 -0.05073485
0000d0 17 91 0a 3d 6c 1a 6c bd bd e4 d9 3c 32 95 6c bd
       0.033829775 -0.057642385 0.026598329 -0.05775947
0000e0 b4 eb 16 bd 43 b6 58 3d 25 79 3d bd 43 66 7b bd
       -0.036845878 0.052908193 -0.04625811 -0.06137682
0000f0 41 3f 32 3d 23 5b a3 bd bc 2e 65 bd f8 54 69 bd
       0.043517355 -0.07976367 -0.055952772 -0.0569658

a2c_network.value.weight f4 [1, 64]
000000 fd 95 8b 3d a2 39 4d 3a 50 9f de 3c 1c d1 f9 3d
       0.06815717 0.00078287174 0.027175575 0.121980876
000010 f4 27 1a bd f6 1a d1 3c 27 5f 68 3c 2d b7 d9 3b
       -0.03763576 0.025525551 0.014182842 0.0066441507
000020 8e 3b 53 bc fc e3 81 bc c7 81 5d 3d 02 dd 9f 3c
       -0.012892617 -0.015855782 0.054078843 0.019514564
000030 de 46 61 3c 42 81 29 39 5a 0c 65 bd d8 67 cd bc
       0.013749806 0.00016165248 -0.055919982 -0.02507393
000040 f3 d5 b3 bd 86 0b 87 bd 30 85 96 3d 94 fb 2d bc
       -0.08781042 -0.06593995 0.07349622 -0.010619063
000050 67 b4 01 be 4f 5f f1 3c 6c 1b 1a 3c 8e 78 ff bc
       -0.12666474 0.029464392 0.009405952 -0.031185415
000060 c9 9d 90 bd 36 5c c0 3c 93 4d ad bd e1 e9 14 3d
       -0.07061345 0.02348147 -0.08462062 0.036355857
000070 d1 21 47 3c b9 52 83 bd 93 e8 f5 bb 20 82 1e 3c
       0.012154059 -0.064122625 -0.0075045316 0.009674579
000080 8a b6 12 be 3d 5c 02 bd 40 c7 9f bc 75 13 92 ba
       -0.14327446 -0.031826247 -0.01950419 -0.0011144715
000090 bd 5c c4 bd 6b e1 5f 3d 0d 6e 70 3c 45 98 2b bd
       -0.09588001 0.054658335 0.014674676 -0.041893262
0000a0 b8 46 6c 3d 44 89 22 bb c7 ce bf bb 4b 7e 1f 3d
       0.05768463 -0.0024801055 -0.005853507 0.0389388
0000b0 9e eb 99 bc 2c 53 5d 3c c4 e3 89 3d bf 63 39 bd
       -0.018789109 0.013508599 0.06732896 -0.04526114
0000c0 a7 f8 80 bc b5 a3 f8 bd f8 61 3a 39 bd 9d 26 bd
       -0.015743567 -0.121406 0.00017774838 -0.040677775
0000d0 b4 6f a5 3d 86 f9 fb bc 35 df bd 3c c5 04 7e ba
       0.08077946 -0.03075863 0.023177722 -0.0009690042
0000e0 1d 00 03 bc 74 8a 70 3d e6 f5 fd ba 0c 1b 11 be
       -0.0079956325 0.05872579 -0.0019375652 -0.14170474
0000f0 66 bf eb 3d 4c 7a b8 bd 3e 3e 46 bc 70 5d ed 3b
       0.11511116 -0.09007701 -0.012099801 0.0072438046

a2c_network.mu.weight f4 [8, 64]
000000 c8 86 da 3c e1 5f 15 3d 9c f7 12 be a7 b9 65 3d
       0.026675597 0.03646839 -0.14352268 0.056085255
000010 51 0b 3e 3c 28 5e 57 3d 83 b1 98 bd 85 c8 11 3d
       0.011599378 0.05258003 -0.07455733 0.03559162
000020 3f e7 dd bc 50 f0 cb 3d 66 00 49 3d a3 66 6d 3d
       -0.027087806 0.09957945 0.049072646 0.05795921
000030 c2 95 81 bd 6a 45 20 be d1 5c 10 3e 10 70 e0 bd
       -0.06327392 -0.1565148 0.14097907 -0.10958874
000040 ac 94 93 3c ed 1d 8f 3c 04 fd e5 3c 07 9f 19 bd
       0.018015228 0.017470324 0.028074749 -0.037505176
000050 c8 8d 2a 3c 1b b0 b0 3d e1 47 2b 3d 08 8a 3d bd
       0.01040978 0.086273395 0.041816596 -0.046274215
000060 3c a0 94 bd ec 61 ef 3d 96 3e 77 3b 51 21 06 3e
       -0.07257125 0.11688599 0.0037726513 0.13098647
000070 c7 0d 06 be ca 6c dc 3d 25 46 52 bd 84 df df bd
       -0.13091193 0.10762937 -0.051336426 -0.10931304
000080 2a c3 a0 bd 1b 18 e7 3d 31 e1 d5 bd 56 0d 4b 3e
       -0.078497246 0.11283895 -0.104433425 0.19829306
000090 c2 28 4e 3d a3 e4 2e 3d 52 ea 8c bc 89 a1 c6 bd
       0.05033184 0.042698514 -0.017201576 -0.09698779
0000a0 bc 08 ad 3c 6b f9 3e 3e da 27 07 3e 21 8e 26 3d
       0.021122329 0.18649833 0.13198796 0.04066289
0000b0 41 c3 1e be 54 c8 ef 3c 9c 9d 29 bb e8 a0 c8 bd
       -0.15504171 0.029270329 -0.0025881296 -0.097963154
0000c0 27 fc 6f 3b ca d6 6a 3d 66 f4 4e bd 81 8d 58 3d
       0.00366188 0.057333745 -0.050526045 0.052869324
0000d0 e6 a0 87 3c 74 42 8a 3c 7c 0e 99 bd af 21 47 bd
       0.016556215 0.01687739 -0.07473466 -0.048616108
0000e0 5e 6b 9c bc 74 ac 16 be 48 1e a3 3d 63 70 07 be
       -0.019094165 -0.14714223 0.0796476 -0.13226466
0000f0 23 f6 fd ba b2 d5 e1 3d 99 de 5c 3d 50 e6 fd 3d
       -0.0019375723 0.11027087 0.053923223 0.12397444
000100 7b 57 fd 3c ac b5 c1 bd 80 f3 8f bd 38 e6 cf 3c
       0.030925503 -0.09458479 -0.07028866 0.025378332
000110 90 38 7f 3c eb 4d f8 bd 1a c0 98 bd 3d 06 85 3d
       0.01557745 -0.12124237 -0.074585155 0.064953305
000120 dd c5 3f ba bc bc 98 bd 78 88 02 3d 2c d1 89 bc
       -0.00073155557 -0.07457873 0.031868428 -0.016823374
000130 01 df ac bd d2 eb 71 bd 27 45 61 3d 3d f1 06 bd
       -0.08440972 -0.059062786 0.05499759 -0.032944907
000140 23 18 1e be 41 c0 20 3c 90 2e 72 bd 60 23 c7 3d
       -0.15438895 0.009811462 -0.059126437 0.09723544
000150 a7 41 05 3e 29 4b fe 3c 53 00 bc 3c a1 3b 42 3c
       0.13013326 0.031041699 0.022949373 0.011855037
000160 9d 10 a4 bb 22 42 b2 3d c0 22 b7 bd ba e1 81 bd
       -0.0050068633 0.0870402 -0.08942175 -0.06341882
000170 86 7c e9 3d 98 f7 2f 3d fc 19 02 3d 91 a3 33 bd
       0.11400704 0.042960733 0.031763062 -0.04385716
000180 81 0b 35 3d 42 15 92 3d 8c 3f 2b 3d 0e 7d 23 bc
       0.044200424 0.07132961 0.04180865 -0.009978546
000190 a7 19 ac bc 90 9c ea 3d e1 61 0b 3d 4c da 13 bd
       -0.021008326 0.11455643 0.03402889 -0.036096856
0001a0 fa 59 1d 3c 8c 91 f4 3c c2 0d 53 be d6 62 fd 3d
       0.009603972 0.029854558 -0.20610717 0.12372367
0001b0 18 1a 9e bb 7d 06 d1 3c cb 2b 12 be 99 59 a1 bd
       -0.004824888 0.02551579 -0.14274518 -0.078784175
0001c0 3f a0 29 bd a2 d4 0b 3e 15 1d f6 3d df 4a 41 3d
       -0.04141259 0.13655332 0.12017266 0.047190543
0001d0 e1 bd 09 be 69 9e be 3d cf 02 2e 3e 41 4c 55 3e
       -0.1345134 0.09307558 0.16993259 0.2082987
0001e0 d9 7f f4 39 f8 57 5c bd 37 c0 09 3e 4e 8b 54 bd
       0.0004663456 -0.05379483 0.1345223 -0.051890664
0001f0 02 f2 1b 3d 04 2e b0 bd 79 93 3d 3d f9 37 5c 3d
       0.038072594 -0.08602527 0.04628322 0.053764317
000200 b3 e9 10 3d 12 8d f2 3c a7 a5 30 bd f3 df ac bc
       0.035379123 0.029608283 -0.04312673 -0.021102881
000210 a9 6b b4 3c 82 8f 12 3e de ba 23 3e 94 38 66 3d
       0.022023993 0.14312556 0.15989253 0.0562063
000220 a3 9c 8e bd 9b d8 18 be 74 54 10 bb 74 e9 10 be
       -0.0696347 -0.14926378 -0.0022022994 -0.14151555
000230 43 e7 a9 3d 05 75 f8 3d 5c 26 2a bd 80 e2 ec 3c
       0.08296063 0.12131695 -0.04154049 0.028916597
000240 bc 6b 22 be 74 f5 a4 bd ef 45 9f bd 89 d6 bb bd
       -0.1586141 -0.08054629 -0.07777011 -0.09171779
000250 87 02 ad 3d 7c 20 82 3d df e8 b9 3d 17 8c c6 3c
       0.08447748 0.06353852 0.0907762 0.024236722
000260 cb b9 c5 bd 67 78 9f 3d 0d 8c fa 3b c9 c9 4d bb
       -0.09654578 0.07786637 0.00764609 -0.003140079
000270 82 8d eb bd b9 bb 07 3e e7 92 e5 3d aa c3 e9 3d
       -0.115016 0.13255204 0.1120966 0.11414273
000280 90 b0 98 bd 99 a1 4f bd 5d bd b0 3d 42 fa 27 3e
       -0.074555516 -0.05069122 0.08629868 0.1640406
000290 51 c4 94 bd 00 80 6b 3d 71 51 35 3d a3 ad 07 be
       -0.07264007 0.057495117 0.04426712 -0.13249831
0002a0 b6 c0 de bc df 1a 90 bd f6 d4 d6 bd 29 df 72 3d
       -0.027191501 -0.07036375 -0.10489838 0.059294853
0002b0 22 55 0a 3e d4 d8 3d 3e 37 a7 87 3d 0e ab 06 3a
       0.13509038 0.18539745 0.066236906 0.00051371835
0002c0 df a1 b1 3d d2 3e de bb e7 c2 9a bd a5 bf 10 bd
       0.086734526 -0.006782391 -0.07556706 -0.035339016
0002d0 4f 90 96 bd 09 96 36 3e a8 30 54 bd a2 60 0b bd
       -0.073517434 0.17830671 -0.051804215 -0.034027703
0002e0 8f 57 ac 3d 96 2f a3 3d 1e be cd bc f3 d9 d3 bd
       0.08415138 0.07968061 -0.025115069 -0.10344305
0002f0 64 10 66 3d 43 de 38 3d 96 bd fc 3d fa bf 1b bd
       0.056167975 0.04513384 0.12340848 -0.03802488
000300 28 a0 a8 bd 19 6f a3 bd b0 ce c1 bd 2c 19 00 bd
       -0.082336724 -0.079801746 -0.09463251 -0.031274006
000310 a5 62 90 3d d5 69 ba 3d 47 58 93 bd bc 5d d0 bb
       0.07050065 0.09102217 -0.07194572 -0.0063588303
000320 a6 48 a6 3c e3 27 81 bd 1b 8a 92 bc f6 2e 3a 3d
       0.020298313 -0.06306436 -0.01788812 0.04545494
000330 62 6a c0 3d bd 53 50 bd cb 3e c6 bd dc 89 57 3d
       0.09395291 -0.05086111 -0.096799456 0.052621707
000340 4e 17 89 bd ae e2 00 3e 6f aa b1 3d fd 90 54 3b
       -0.06693898 0.12586471 0.08675086 0.0032435053
000350 30 8c 59 3d cc 0e cf 3d 2c a7 f3 bc 58 06 f7 3d
       0.05311221 0.10110244 -0.0297428 0.12061757
000360 e9 fe 65 bd 7f 59 17 3d ed ef 63 3d 42 5e 2f 3d
       -0.056151304 0.036950585 0.055648733 0.0428145
000370 1a 19 d7 3d 5b 16 c5 3c cd b6 b4 bd f2 58 6b bd
       0.105028346 0.024058511 -0.08823929 -0.05745787
000380 ee 41 48 bd 1e fb 09 be 4a 31 bd bc 60 17 bc ba
       -0.048891 -0.134747 -0.023094792 -0.0014350228
000390 68 2f 97 bd 3a 9a 08 3d 65 4a 8e 3d ad 6b be bb
       -0.07382089 0.033350207 0.069477834 -0.005811176
0003a0 74 f4 3d 3c 4b 70 19 3d 85 dd 5c 3d c2 a7 e2 3d
       0.011593927 0.037460607 0.053922195 0.110671535
0003b0 c4 1e 03 bd 39 89 7b bc 17 48 9e 3c 70 c5 89 3d
       -0.032011762 -0.015352541 0.019321484 0.06727111
0003c0 09 08 16 bd aa c5 f1 3c f0 8b 2f 3d e7 11 90 3d
       -0.036628757 0.029513199 0.042858064 0.070346646
0003d0 fa e2 03 be f8 11 00 be 8b a1 8f bb 57 37 0b 3c
       -0.12879553 -0.12506855 -0.004383271 0.008497081
0003e0 a5 51 87 bc df 99 a6 3d 9e e1 a0 bd e0 e9 4e bc
       -0.016518423 0.08134817 -0.07855533 -0.012629002
0003f0 31 24 55 3d 51 e5 00 be de 18 21 bc 84 8c a3 bd
       0.052036468 -0.12587477 -0.009832589 -0.079857856

a2c_network.mu.bias f4 [8]
000000 ec a9 ef bd 8f 19 84 bd d3 35 9c ba 4f a5 09 3d
       -0.11702332 -0.064501874 -0.0011917896 0.033604916
000010 59 7b 5c bd 97 a1 f8 3c 2f 9d e8 bd f0 b3 ad bd
       -0.05382857 0.03035049 -0.113581054 -0.08481586

exp_avg f4 [8]
000000 75 e8 d2 3b c1 39 cb b9 fd ff 4e 3b bb 4d a6 3b
       0.0064364024 -0.00038762207 0.0031585686 0.005075184
000010 d3 d4 a1 b9 dd 92 f8 3b dc d1 9f 39 48 57 e5 3b
       -0.0003086688 0.007585867 0.000304832 0.00699893

exp_avg_sq f4 [8]
000000 98 06 4d 38 82 b9 9c 38 9c c5 72 38 23 bd 82 38
       4.888195e-05 7.473213e-05 5.7881334e-05 6.2341125e-05
000010 08 71 60 38 03 c6 95 38 8e 5a 45 38 bc cf 81 38
       5.351103e-05 7.141756e-05 4.7052796e-05 6.189893e-05
