IsaacGymEnvs/isaacgymenvs/runs/Ant_22-18-09-58/nn/last_Ant_ep_50_rew_434.79187.pth (torch, 706158 bytes, 36 tensors)

value_mean_std.running_mean f8 [1]
00000000: f0a0 3722 c5b7 e03f
0.5224328678423529

value_mean_std.running_var f8 [1]
00000000: c1d3 aff7 ec8f d43f
0.3212845248047494

value_mean_std.count f8 []
00000000: 0000 0040 0000 5941
6553601.0

running_mean_std.running_mean f8 [60]
00000000: e76d a289 461e e43f c1a9 2bd8 b893 de3f
00000010: b319 fefa de76 c0bf 9ebf e792 bce9 ae3f
00000020: 5aa4 bde6 f5aa b4bf 2442 d315 bdfc 82bf
00000030: 4370 af13 bcf7 7bbf 9a68 b991 c999 0640
00000040: 9233 83ec 5f0e 0a40 5554 9e87 139b 06c0
00000050: edc7 d6f3 0cc8 e73f 9bc8 d1d1 069d e13f
00000060: 167b 6ff5 7924 e1bf c6da 0445 ad8b d6bf
00000070: 99dc 21ea 6249 adbf f1c9 058f 1e6e d03f
00000080: bc99 eefb 6557 a9bf b7b8 66ec ef1f d63f
00000090: 698a 10f7 440a ddbf 2763 8aa2 98dc dfbf
000000a0: 26cb de52 7cba 913f 6f59 6f89 404a af3f
000000b0: a478 4370 d226 883f 656d 88a1 5a97 acbf
000000c0: a42d 3a15 a3b8 883f 57b3 68f8 8c43 aebf
000000d0: 61ba 1f99 cd85 953f 07ae dc02 e612 b23f
000000e0: ed74 7e29 3df2 d7bf 2eab 3591 849f bb3f
000000f0: 855e d189 1b0c bcbf a566 fef3 4fcc a0bf
00000100: 7b10 4ec8 0091 6dbf 9830 b982 d494 9d3f
00000110: 1fd6 6e2d 3aeb c23f 9c9b 339b ebb5 a83f
00000120: f39c ed57 97dd b8bf 57cd 07e5 7956 97bf
00000130: 62b6 1d61 325e 463f 4da5 64b6 57bc 5e3f
00000140: c080 90da 467b babf a741 3b2d edce a03f
00000150: f014 a233 58aa 383f dda8 b704 2158 a23f
00000160: c4de 6d7d 0ab5 34bf 3dc9 0fb2 2a58 7a3f
00000170: d0c3 f1c0 c751 cc3f c3c8 aac9 6476 a5bf
00000180: d8c0 cb55 340e bcbf 85e2 0fc2 2504 af3f
00000190: 6deb 7d04 289a 613f 7405 64ef f65d 973f
000001a0: 6ec9 70a8 b8c2 d6bf a3fc bda7 e45d b9bf
000001b0: b71d 0d32 709b 94bf 55d7 7bf1 cfa5 ac3f
000001c0: 09d2 0dfb 4ce3 9ebf 3068 56a6 1f6a bd3f
000001d0: 1bac f062 fe9b cebf b634 8eb4 3940 ccbf
0.6286957443402884 0.47776623831182624 -0.128627655558558 0.06037701886441414 -0.0807336510021214 -0.009271123150399303 -0.006828055072187369 2.8250914940554823
3.2570188977756027 -2.8257208438103967 0.7431702387314069 0.5504182909046621 -0.5357026857053337 -0.3522751974118531 -0.057200518684959074 0.25672115294506087
-0.04949492168752864 0.3456992920499817 -0.4537517941227294 -0.49783912537673064 0.01731294875907987 0.061113373543480225 0.011792797137271833 -0.05584223958814042
0.012070917210869343 -0.059109120677340136 0.021018230887359105 0.07060086793779173 -0.3741600899900977 0.10790279908330255 -0.10955974688237731 -0.03280877927245499
-0.003609181907849699 0.028888054350588804 0.14780356615453713 0.048262942023760774 -0.09713121315654742 -0.02279081783667655 0.0006826158516852305 0.0018759590689774897
-0.10344355426832674 0.03282872368947958 0.0003763642631685179 0.03582862074456881 -0.00031596666433795725 0.006431738643174531 0.22124573632348055 -0.04191889726406963
-0.10959174246432057 0.06057851785584937 0.002148702773351932 0.02281938396572998 -0.35563484620356334 -0.09908894629733082 -0.02012419991959088 0.055952547290799494
-0.030163958380812903 0.11490056811308658 -0.2391355498415074 -0.22071000400720714

running_mean_std.running_var f8 [60]
00000000: 0b85 471b ef21 9a3f 086b 24e1 1feb f13f
00000010: 429e abd5 b8f3 e93f d301 6a49 330f e43f
00000020: 24a5 fcfa 6512 1640 9686 6e40 2591 1640
00000030: 5644 9cbc 4324 2340 9167 73bf d6bb 1740
00000040: ad42 2708 0d21 1f40 9dda 844c d7bb 1740
00000050: bf13 c15b ca91 d03f 5ee4 f402 d224 d43f
00000060: 992a b6ca a2fc dd3f dcce 442b f1fe dc3f
00000070: 5956 a51f b44e e03f aaf5 5bd5 b84a e43f
00000080: 8348 98ab 22b1 e03f 31dd ed26 8370 e23f
00000090: 0f9a e481 00a9 df3f 8014 ecc3 0add db3f
000000a0: 7348 8d55 3678 ff3f ad79 20ac dd1d 0a40
000000b0: bc83 18fa a0d6 0d40 c1ef 4956 0778 0240
000000c0: d83b 25e9 3af9 0d40 b3eb f769 8a4e 0240
000000d0: f5e8 9828 49c5 0040 63cc 38aa 9287 0440
000000e0: a9a7 953c 54da f13f 598c 59a5 f379 c83f
000000f0: a5a8 2eb2 1efb f33f 3434 ce38 dd1e 9e3f
00000100: 10a2 15ce 7ea5 153f 30f2 6eae 7b0f 763f
00000110: 41ff 591f 3e8e f23f 1ff0 9fa5 7d32 c83f
00000120: 19b4 926c c861 f33f eac2 5176 a9a4 9c3f
00000130: 0a8c 58b1 1acf 193f adf9 6325 4a49 743f
00000140: 07ad b125 f11b f63f e172 772d be20 c73f
00000150: 4e74 9409 c490 f03f cb08 477e aad6 9a3f
00000160: 41ba 5781 be5b 173f f771 0673 e5da 783f
00000170: 5bf1 225b 7565 f13f 2139 f974 33fe c43f
00000180: 81c4 3ce0 6e84 f13f 44dc c660 6dc9 9c3f
00000190: f7c8 da35 dcc5 123f 1a60 83c2 dca9 753f
000001a0: dcc3 c265 1e1f dc3f 03ab b34b 617f dd3f
000001b0: fdc1 e06c f3d1 dd3f 9eaf 276d b450 de3f
000001c0: 7d5f a866 8490 de3f d2d6 b088 d1ae dd3f
000001d0: 5391 bd09 1aa2 dc3f 1fbe a184 22bd dc3f
0.025520072975159496 1.1199034494990787 0.8110012219667129 0.6268555101269676 5.517967149420006 5.6417436664065885 9.570829290462068 5.933436385554061
7.782276275059002 5.933438487633478 0.2588983436619933 0.3147473362801686 0.468544671974692 0.4530604288622564 0.5096073740084633 0.6341213385746205
0.5216229773962059 0.5762344131789289 0.4946900623785106 0.4353663361837974 1.9668486921186996 3.2645829627428697 3.7297992266398676 2.3086077443421975
3.7466943945396274 2.288349941137733 2.0963309451736856 2.5661977099021427 1.1158029905877618 0.19122167180748553 1.2488085708851397 0.029414612381106944
8.257471519857612e-05 0.005385859613792607 1.1597272133512464 0.18904085719248173 1.2113727799544505 0.027971885534898634 9.845352573072133e-05 0.0049527069406835435
1.3818217728065194 0.18068673343704858 1.035343205853923 0.02620951076256332 8.910513164271055e-05 0.006068130766291527 1.0872701225299213 0.1640075989875607
1.0948323020241164 0.028112134010111825 7.161289746696388e-05 0.005288946478877699 0.4393993371732543 0.4608996619487444 0.46593938477147373 0.47367582950277576
0.4775706293598814 0.4637950739737394 0.447393903267103 0.4490438742859357

running_mean_std.count f8 []
00000000: 0000 0080 0000 4941
3276801.0

a2c_network.sigma f4 [8]
00000000: 7330 c9be 3ffa e9be 33cc cebe 641d f6be
00000010: 18f0 c0be 1925 05bf 11ba e0be a590 dabe
-0.39294776 -0.45698735 -0.40390167 -0.48069298 -0.37683177 -0.5200973 -0.43891957 -0.4268848

a2c_network.actor_mlp.0.weight f4 [256, 60]
00000000: 47eb bb3d 6def 28be 0275 ec3c b362 5b3b
00000010: e2b2 233e d4b4 31bd d06d 453e 4542 babd
00000020: c109 e1bd b22c 80bd 34e2 a33d 6917 f1bc
00000030: 885c 733e 4c1e 3dbe fc37 08be dc56 cbbd
00000040: a63f 0cbe be12 16bb fb1e 8b3d df25 3c3e
00000050: 6cfb 5d3d 8214 06be 386e b63d 2c6d 37bd
00000060: 2304 6d3d 5bc2 47bd c16c 043e 181a 82bc
00000070: 1298 a6bd 8b03 a83c 45ab 403d 9dab acbc
00000080: 25f9 613d c9d9 3d3d ca85 91bd 5b09 76bd
00000090: bef6 ea3d 6b55 19bd 72a6 5fbc 56fd 0fbe
000000a0: 213e 57bd 21c6 183d 5f48 2f3c c602 a6bd
000000b0: 267a 8f3c 8c2d 2bbd db6c ffbd a7d7 0fbd
000000c0: 1e62 e8bd a396 8dbd 1324 f63d 2724 8a3c
000000d0: 551d c93d 38e0 b2bd 4bfb 1fbd 5716 52bd
000000e0: 46bf 54bc dc69 e3bd 0cdb d6bc ec24 05bd
000000f0: 0429 81bc 9600 03be 2551 953b d60a 8dbc
00000100: 351a 51bd 5667 28bd 5681 89bc dfaf 3abd
00000110: d4dc 2a3e 5fd3 a7bd 54f5 013e b967 953d
00000120: 059c bbbd aa56 dd3d a182 833d 51f4 febc
00000130: ba6c febd 29df e7bd 0b3f adbb ed3c bfbc
00000140: 8d4d b63d 4c36 6cbc f299 013e 10fa cbbd
00000150: bd41 66bd f0b9 d43c b4ce aa3d 3bea 043e
00000160: df9f a73d fd48 d4bd f23a 7f3c 6411 86bd
00000170: 3115 e2bc a587 98bd c205 a33d 2388 b8bd
00000180: 3b0d 2e3b 1ffa 00bd 5417 3e3d bf56 50bd
00000190: f1b2 3c3d 534e a43d fc36 fbbb f9bf d0bd
000001a0: faec a33c 4a91 7cbd c24d a6bd 7aba ad3d
000001b0: 9183 8c3c cf6f 6dbd 4271 bebd 2145 f73c
000001c0: e5fa 083d 487b f9bc 6cc6 3cbd c724 4bbc
000001d0: 1488 a0bd 655e a13d e377 bc3d ac09 f6bd
000001e0: a76a 033d 7738 b63d 3d10 b23c c6fb 41bd
000001f0: 9b01 833d ceb2 f93c 6c32 aebb e35d 39bc
00000200: 9ea8 ffbc df32 1f3b edec 073d efc7 1b3b
00000210: bbad 093e 88bc e73d 832c 3ebc 1ff6 1f3b
00000220: 0bef d5bc 3a07 0ebd 8323 223d f9fa 623d
00000230: 3a7b 26be 8d8c 76bd fa88 ca3d 3080 6f3d
00000240: d1fd cd3c 52e5 abbd 6c60 2bbd fbe8 00be
00000250: 4db1 2cbd bb4f 583d 0c36 b23c 491c 863c
00000260: d99b a9bd b2d6 81bd 0323 0ebd 866a ea3d
00000270: 790f 9bbb 3052 37bd 2a3e 8d3d 9ace ca39
00000280: 2e73 15bd 3820 cd3d b96c 31bd 73f5 ebbc
00000290: 3504 c0bd 4ff9 c73d 043a a23d 6515 883d
000002a0: d2cc 87bd 5c72 1abe 73cc f6bd 1424 423d
000002b0: 43ca 223d 79ac e23d c8c5 433d ac15 a03c
000002c0: 4cc2 e23b 81f3 70bd 41c8 12bd c735 a8bd
000002d0: 3d65 a03d 31f6 a7bb fcb4 1f3d 9824 9abd
000002e0: 4916 38bb 83ef 17be bca7 d2bd b19a a13c
000002f0: 6ed4 f1bd 1a81 d23d 0261 08bd 872a ddbd
00000300: a79a 59bd 3b40 08be a62d afbd d54c 16be
00000310: aada f93d 1b88 dabd 2305 b73d d3ab c63d
00000320: a3ee 823d ee2e 50be 5ee5 c13d 47f3 63bd
00000330: 45e0 8a3d cd31 063e 2898 efbc 9afa a83c
00000340: 7152 153c 1b68 13be ee41 863d ec03 e9bd
00000350: 6b0d e83d 9cee c23d 300a 073e bf07 8bbd
00000360: 8e86 cdbd cca9 283d 57f3 5c3d e661 d6bd
00000370: fde1 4ebc 63d8 86bd 9e3a babc 26a6 40bd
00000380: 9ec8 2abd 3c64 c1bd db0e 87bd a913 e33d
00000390: 9d3e f43d 92f3 4ebd 4bf7 9bbc a5c4 b1bc
000003a0: 29eb bcbd 47e5 2abe c1fc 6c3d 8c3c a3bd
000003b0: 91be 91bd 8e23 e3bc 967b 14bd 11bc 43bc
000003c0: 96af d3bb a3ec 133c 3f95 6d3d f645 37bd
000003d0: b225 d2bd 33d3 033e 49f1 1dbd b3c4 a93c
000003e0: c49f 80bd 416e c43c 3f26 793e d33d 2c3e
000003f0: ecf2 10be 1391 48bc a0c6 af3d 94b7 d23c
0.09175735 -0.16497584 0.028864387 0.0033475577 0.15986207 -0.04338534 0.19280171 -0.09094671
-0.109881885 -0.06258525 0.08002129 -0.029430108 0.23765767 -0.18468589 -0.13302606 -0.099286765
-0.13696155 -0.0022899355 0.067930184 0.18373822 0.054194853 -0.1309376 0.08907741 -0.04478185
0.057865273 -0.048769336 0.12932111 -0.015881583 -0.08134474 0.020509502 0.047038335 -0.021077925
0.055169243 0.046350274 -0.07105596 -0.060067516 0.114728436 -0.037434977 -0.0136505235 -0.14061484
-0.052549485 0.037298325 0.010698407 -0.08105998 0.0175143 -0.041791484 -0.124719344 -0.03511777
-0.11346839 -0.06913497 0.12018599 0.016862942 0.09820048 -0.087341726 -0.03905801 -0.051290836
-0.012985056 -0.111041754 -0.026227497 -0.032505915 -0.015766628 -0.12793192 0.0045567923 -0.017217081
-0.051050384 -0.041114174 -0.016785305 -0.04557788 0.16685802 -0.08194613 0.12691242 0.07295174
-0.09160618 0.108075455 0.064214 -0.031122359 -0.12423082 -0.11321861 -0.0052870563 -0.023344481
0.089015104 -0.014417242 0.12656382 -0.09959805 -0.056215037 0.025967568 0.08340207 0.12979977
0.0818479 -0.10365484 0.0155780185 -0.06546286 -0.027597995 -0.07447747 0.079600826 -0.09010341
0.002655818 -0.031488534 0.046408966 -0.050863978 0.04606909 0.08022752 -0.0076664668 -0.10192866
0.02001046 -0.061661996 -0.081203 0.08482833 0.01715258 -0.057967957 -0.09298946 0.03018433
0.033442397 -0.030454293 -0.046087667 -0.012398905 -0.07838455 0.078793325 0.09202554 -0.120135635
0.032084133 0.088974886 0.021736259 -0.04735925 0.063967906 0.030480769 -0.0053160693 -0.011313888
-0.031208333 0.0024291796 0.033184934 0.0023770293 0.13445179 0.11315256 -0.011607292 0.0024408174
-0.026114961 -0.03467486 0.039584648 0.055415127 -0.16257945 -0.060192633 0.098894075 0.05847186
0.025145443 -0.08393349 -0.041840002 -0.12588875 -0.042161275 0.052810412 0.021754287 0.01637091
-0.08281679 -0.06339778 -0.03470136 0.11446099 -0.004732069 -0.044756114 0.068966225 0.00038682373
-0.036486797 0.10015911 -0.043316577 -0.028803563 -0.093758024 0.09764349 0.07921222 0.06644706
-0.06630863 -0.15082687 -0.12050714 0.047397688 0.039743673 0.11068053 0.04779604 0.019541584
0.0069201346 -0.058825973 -0.03583551 -0.08213382 0.0783181 -0.005125784 0.03899096 -0.07526511
-0.0028089455 -0.1483746 -0.10285899 0.019727083 -0.11808096 0.102785304 -0.03329564 -0.10799127
-0.053126004 -0.13305752 -0.085536286 -0.14677747 0.1219991 -0.10670491 0.089365266 0.097007416
0.063931726 -0.20330402 0.094675764 -0.05565193 0.06781057 0.13104935 -0.029247358 0.020627309
0.009113894 -0.14395182 0.06555544 -0.11377701 0.11330684 0.095181674 0.1318748 -0.06788587
-0.1003543 0.041177556 0.053943004 -0.104678914 -0.012627122 -0.06584241 -0.022733029 -0.04703345
-0.04169523 -0.09442946 -0.0659463 0.11087734 0.11926005 -0.050525256 -0.019038817 -0.021700213
-0.09224541 -0.16689025 0.057858232 -0.07970533 -0.07116426 -0.027726915 -0.036250673 -0.011946694
-0.0064601405 0.009028587 0.05800366 -0.044744454 -0.10261096 0.12873535 -0.038560186 0.020723676
-0.06280473 0.023978354 0.24330996 0.16820459 -0.14155167 -0.01224162 0.085828066 0.025722302

a2c_network.actor_mlp.0.bias f4 [256]
00000000: 324c 09bd 4c02 a6bc 0c74 dabc 07de d43c
00000010: 9146 f3bb c210 17bd 6e38 edbb f150 45bd
00000020: 409f cdbc b831 f5bc c017 61bb f768 ddbc
00000030: a752 173d 5e08 08bc 6161 4bbd fa52 b4bc
00000040: 0e7a 8bbd 5623 993d 0e04 08bd 579d 723c
00000050: 71e1 7ebd 4ee1 a2bc 1ad1 023d bb90 0f3d
00000060: 86b3 27bd bc48 f4bc fcdb b83c 2454 8b3d
00000070: 6243 5ebd 9a08 983d 7d65 14bd 0e9d 1f3d
00000080: 657c 89bc 7ee4 9dbb 52a5 413b ae84 393d
00000090: 1ee6 19bc 0ef1 87bc 2a86 08bd 7efb 8d3d
000000a0: 7ed6 143d e336 843d 9c8c a03b aea1 4b3d
000000b0: 0df1 f5bb e2ff 1abd 78da a53c 247d 473c
000000c0: 1c1e 75bd 9ec7 12bd 339e 11bc e64c 30bd
000000d0: e607 a83c 4a34 eb3c 7653 353d 769e 7e3d
000000e0: 8ab5 2bbd 72a9 0a3d 511b ed3c 8c1b 433d
000000f0: 2eec 373d 44ec 6d3a aed7 c1bc be8f 4dbd
00000100: b6ba 34bd 1b16 ad3b b7f9 98bd ea38 8e3c
00000110: 5fd4 363d c136 193c bbf4 81bd 5ee9 e7bc
00000120: 41b0 293d d778 b23c 112b a83a 2bf4 42bd
00000130: 095d 12bd 53f8 e33d 8b4a debb f4e3 8abc
00000140: b7ac 96bc f5f1 2dbc 26ac 24bd d8b5 9bbc
00000150: d19a 85bc 87d6 a5bd 3951 a4bc 3854 1639
00000160: 2c44 983c 75d3 06bd d9ef c63d 660a 523d
00000170: fa8c 99bd 5001 133d b8ff a3bb 4aae 7e3c
00000180: daa1 9abd 76d0 3fbd 96ab aa3d 5406 46bc
00000190: 4bad 8abd f987 883d 5aee 15bd 2c21 04bb
000001a0: 9313 a0bc b3e9 e53c 54da 0abc b88b b7bd
000001b0: f249 fb39 77a8 e6bc 7e79 dfbc 978e 9abc
000001c0: 2307 dabb b01e 953c 7a81 f23c 82e2 70bd
000001d0: 3625 d6bc 2bef 94bd 5f0e 2a3c e9dd 3fbd
000001e0: 340b 183c 0699 863d 99f8 ae3c 92b2 59ba
000001f0: 6fb8 a9bc 14b5 a23c cfbd 043d 6ccb e03c
00000200: b36e 0b3b 9f60 35bd 73cc 85bc 59ec 7f3c
00000210: 7280 bbbc a356 abbb 89a9 37bc d5ac 733d
00000220: b175 3abd 5da4 443c 95f5 fdbc fb8a f3bd
00000230: 29a1 fa3b c1e4 783b 977a 67bb b59c b4ba
00000240: 5326 4b3c 4d1c 003c 4af5 633d 7991 ac3d
00000250: 4a68 1a3c e02b 893c f9d8 6fbd 6f8a e0bb
00000260: 6e02 923b 1e73 e1bc 8624 cb3c bdf4 29bc
00000270: bd01 813c 4379 093d 37d5 7fbb e17c 0b3c
00000280: 27a3 443d 99e1 cd3c 57e5 86bd 6987 37bd
00000290: d8ca f1bc 5a7a ba3c cd90 0b3d 1ed2 2ebc
000002a0: 99d3 0339 13f9 4a3b e840 46bc b0aa 44bc
000002b0: 9678 a53d 85dd 663d 027a 1dbc 081c 5ebd
000002c0: 3aad 2fbc 4411 4a3c 6d0f 463c 534e 66bd
000002d0: a4a5 2e3d 7661 14bd 5079 8cbd da8a a2bd
000002e0: b217 0d3d 4769 833d 99d1 e13c cddf 81bc
000002f0: d155 6e3c 8501 bdbc b5b6 1cbc 8eab 82bd
00000300: 1aa4 65bd df7d 93bc bbe0 7cbd a8f6 b83d
00000310: 05f4 8d3b 4f53 1ebd 03b0 23bd 835c cbbb
00000320: 3e80 ff39 1631 20bc 5ecf d23c e1b1 44bd
00000330: ed97 02bd 801f 26bd 997b 03bd 5c3b 263c
00000340: 5662 9dbc e26d 8a3d 31eb 233c befd fa3c
00000350: 0fc3 213d 92cc b73c f293 cabc 9a67 efbc
00000360: c5dc 8dbd 2b1d 8a3c 3c4a 90bd c603 e4bc
00000370: dbec 83bc 61a6 31bd 0fd6 cdbc 49cd d0b9
00000380: 6289 b13d 6482 8c39 7cd6 943d 9113 dcbc
00000390: 2bae 77bc 77b2 8fbd d91c e13c a4f7 2fbc
000003a0: 1f87 5e3d 3e8b 1cbb cd6a 213d 36a6 e6bc
000003b0: 3141 6e3d 8939 c3bc 1588 eabc dcc9 edbb
000003c0: 8c94 6d3c 33a7 023c afd3 863d 49d0 1d3d
000003d0: 71be c9bc a2e5 443d 3c9e a83d 2792 d5bb
000003e0: 48dc f03b ba07 e6bc 6af7 423d 194a ee3c
000003f0: ea82 63ba 2290 8c3d c99c 9e3c 32c9 ce3b
-0.03351993 -0.020264767 -0.026666664 0.025984777 -0.0074241837 -0.036881216 -0.007239393 -0.048172895
-0.02510035 -0.029930934 -0.0034346431 -0.02702759 0.036944058 -0.008302776 -0.049653415 -0.022012223
-0.068103895 0.07477443 -0.03320699 0.014808021 -0.062226716 -0.019882824 0.031937696 0.035050135
-0.04094269 -0.029819839 0.022565834 0.06803158 -0.05426348 0.074235156 -0.0362296 0.03896814
-0.016782949 -0.004818498 0.0029548001 0.04529255 -0.009393243 -0.016594436 -0.033331074 0.06932734
0.03633737 0.06455781 0.0048995744 0.049714737 -0.007505542 -0.037841685 0.020245776 0.012175832
-0.059843168 -0.0358349 -0.008887815 -0.043042086 0.020511579 0.028711457 0.044269048 0.06216284
-0.041921176 0.033853002 0.02894369 0.047633693 0.044902973 0.0009076039 -0.023662414 -0.05018591
-0.044123374 0.005282176 -0.07469504 0.017361123 0.044636127 0.009351433 -0.06345507 -0.02830952
0.041427854 0.021786137 0.0012830218 -0.047596138 -0.035733256 0.111313485 -0.0067837886 -0.0169544
-0.018392904 -0.010616769 -0.040203236 -0.019007608 -0.016309174 -0.080975585 -0.020058261 0.00014336489
0.018587194 -0.032916505 0.09713716 0.051279448 -0.07497592 0.035889924 -0.0050048493 0.015544483
-0.07550402 -0.046829663 0.08333509 -0.01208647 -0.06771334 0.0666656 -0.036604263 -0.0020161374
-0.019540584 0.028065538 -0.008474905 -0.08962196 0.00047929544 -0.028156502 -0.027279612 -0.01886682
-0.006653683 0.01820311 0.029602755 -0.058809765 -0.02614079 -0.0727218 0.010379403 -0.04684249
0.009280015 0.06572156 0.021358775 -0.0008304502 -0.020717828 0.019861735 0.032407578 0.02744075
0.0021275699 -0.0442816 -0.01633284 0.0156203145 -0.022888396 -0.0052288338 -0.011209854 0.059490997
-0.045522396 0.012002078 -0.031000892 -0.11891743 0.0076486063 0.0037978145 -0.0035320872 -0.0013779612
0.012399274 0.007819247 0.055653848 0.08426184 0.0094242785 0.016744554 -0.05855653 -0.00685244
0.004455856 -0.027520712 0.02479769 -0.010373292 0.0157479 0.03356291 -0.0039036998 0.00851366
0.048007157 0.025131987 -0.06586712 -0.04480687 -0.029515669 0.02276342 0.03407364 -0.010670213
0.0001257196 0.0030971214 -0.012100436 -0.012003586 0.080796406 0.0563636 -0.009611608 -0.05422595
-0.010722453 0.012333218 0.012088639 -0.05622704 0.042638436 -0.03622576 -0.06859076 -0.0793664
0.034446426 0.064165644 0.027565764 -0.015853787 0.014546827 -0.023072014 -0.009565045 -0.06380378
-0.056064703 -0.018004356 -0.061737757 0.09031421 0.004332068 -0.038653668 -0.03996278 -0.0062060966
0.00048732938 -0.009777328 0.025733646 -0.0480212 -0.03188317 -0.040557384 -0.032100294 0.010145988
-0.01921193 0.0675924 0.0100048045 0.030638572 0.039492663 0.022436414 -0.024728749 -0.029224206
-0.06926874 0.016859611 -0.07045409 -0.02783383 -0.016104152 -0.043371562 -0.025126485 -0.000398258
0.08668782 0.0002680003 0.07267472 -0.026864799 -0.0151172085 -0.07016461 0.027479576 -0.0107401945
0.05432808 -0.0023886706 0.039408494 -0.028155427 0.05816764 -0.023831146 -0.028629342 -0.0072567295
0.014500748 0.007974434 0.06583344 0.038528714 -0.024626942 0.048070557 0.08233306 -0.006517667
0.0073504783 -0.028079856 0.047599234 0.029088067 -0.00086788705 0.06863429 0.01936187 0.0063106054

a2c_network.actor_mlp.2.weight f4 [128, 256]
00000000: 8e3b 78bd 3776 4b3d 78eb 43bd 90cd 46bd
00000010: 08c6 b73c 7c2a 3b3d 9fb1 0cbd 2e7c 813d
00000020: 2951 1cbc 114b 9d3d c7ef ca3d 8cfc 84bd
00000030: d3b5 69bd 82a1 6d3c 4e64 ebbb fa83 9e3c
00000040: a895 f0bc b3cf 703d 5e42 3cbc f108 233c
00000050: b5a8 afba 20f2 da3a 7447 6ebd 689a 90bc
00000060: 4e26 f5bb 39bd a03c 806e 333c 56ff b6bd
00000070: 3f74 3a3d 082b cebd ecaf 9c3c 2f17 39bd
00000080: 5dfd 333d 10e0 36bc 60da 433d 0672 7abc
00000090: b312 82bd e33d ddbb 9a53 0dbd 87d4 7cbd
000000a0: 5d40 0a3c 99c6 c23c 6e74 bbbc b8d6 e83c
000000b0: bede 8fbd fde6 b9bc 5970 253d 02a0 343d
000000c0: 3af7 b1ba 0220 c0bc c182 b73d b87c 653d
000000d0: fa88 973c 6655 1c3d 8336 6abd 05c7 c23c
000000e0: 016c a23c f42d acbd 4215 12bd e66c 23be
000000f0: 5392 0dbd 384a 23bd a38d d5bc f3ac 313d
00000100: 9ad6 373c 6de7 893d 8863 7ebc 5b5a 6dbd
00000110: 250f db3c f4bf aebd 842c 033d 0f19 85bd
00000120: 7e53 8bbd f424 f2bc 24f4 4fbd 12c3 c83d
00000130: fb02 073d 7722 463c 7e9e 67bd 0177 9b3b
00000140: ab46 a93d 51a7 4abd 7af6 2e3d 366b 933d
00000150: 682e 5e3d 0a3b 0dbc 1f0e 6b3c 2195 96bc
00000160: a960 80bc 94dd 81bd 76fb 02bd 9158 a6bc
00000170: 914b 8a3d 907a 883c ed7b a53d 1f00 21bd
00000180: 38cb 1f3d 13e4 8eba bbe9 063d fac2 373c
00000190: a542 db3b 6c50 a4bc c4a5 2f3d 455e 3e3b
000001a0: 95bc eb3c d3e3 5dbc df95 773d 56c3 e23c
000001b0: d3fd 52bc 49d0 5dbd 0118 3ebc e631 66bc
000001c0: 0b81 a73c 8e95 fd3c 26c8 2bbd 2656 a5bc
000001d0: af3e 8e3c bf47 e33c cd9f 25bd c883 40bd
000001e0: 6846 813d cb2e 24bd cc26 8ebb c03a d1b9
000001f0: 414b c33d ace0 bdbd 40ec 02ba 8766 8fbd
00000200: cd51 cc3d e382 fbbc 939e e53c 1558 40bc
00000210: 9e3b 09bd 0078 273c f079 f13c 2e8c f3bc
00000220: e1db 41bc c5c0 b93d 750f 703d 1b57 bb3c
00000230: 4429 6abd 6d85 21bd 4633 a7bc 634c 99bd
00000240: a169 0cbd 1e0d 3abd 460b 033d 6b96 8dbc
00000250: ce72 2b3d 618e f7bc 3572 493d 12da 85bd
00000260: 7a69 e7bb d01b 573d a1b8 09bd ebf8 a63d
00000270: f6e7 71bd 2ba7 37bd d747 82bd dfef c1bd
00000280: fb8a 9ebd 657d 3c3d 97d9 cabc 6c74 6a3d
00000290: c84d 883d 1ded fa3c 7bac f3bc 750b aa3d
000002a0: 494d 853d 06ff 253b e828 21bc 76bd 253d
000002b0: e93d 3f3d 370c aabc b38a 613c 9d68 07bd
000002c0: 2f91 f5bc 554c 49bd 5c32 8ebd 6530 5e3d
000002d0: 3038 9a3a 3865 02bc e2c4 5b3c bb99 703c
000002e0: 92d5 fcbc a68d b53b 3d26 913d f7c2 853c
000002f0: e158 9dbb d80c 2bbd 7ac8 82bd 4f01 f73c
00000300: b532 43bc bf05 963d 2777 1cbd 655e eb3d
00000310: 8f1c 86bb a90e 593d 8f9d bc3d 5bb0 f13a
00000320: 8476 b43d 58f5 e23c 214c d53c edb5 7a39
00000330: e878 81bd efdb 65bd a7dc 913c a6ba 333d
00000340: fd0d 803d 83da 03bc ad02 8c3d e792 b4bd
00000350: 52fa a73c ce90 3fbc b60e 9e3b 50b5 b03c
00000360: 9a52 be3d d23b be3c dc42 453d 9d87 0ebd
00000370: dd80 1e3c 7cad 873d 683c 8e3c 7500 9d3b
00000380: 9c92 18bd 0385 253d f63f 3fbd eda9 c8bc
00000390: b160 4abd 1016 0ebd 8cbf ef3c 9923 e33d
000003a0: 2dc7 4f3d 440c 903c 5dc6 b63c 7597 793d
000003b0: 3882 74bd 5bc9 b03c 9e95 483d 3e73 cd3d
000003c0: 69ec 99bb 5154 3bbd 8fb8 123c 2f56 4fbd
000003d0: 727f 1c3e 6547 8abd 60f1 43bc af06 523d
000003e0: 6b26 e2bd b30c 29bd e278 3b3d 116d 8f3d
000003f0: 445e 28bd d234 8f3d 8c9b 8b3d 3210 d13c
-0.06060367 0.049673285 -0.047831982 -0.048535883 0.022433296 0.045694813 -0.03434908 0.063225135
-0.009540834 0.076803334 0.09909015 -0.06493482 -0.057058167 0.0145038385 -0.007183588 0.01935004
-0.029368237 0.058791827 -0.011490433 0.009950862 -0.0013401719 0.0016704239 -0.05817361 -0.017651752
-0.007481373 0.019621478 0.010951638 -0.0893542 0.045521017 -0.10066801 0.019126855 -0.045188125
0.043942798 -0.011161819 0.04781568 -0.015285974 -0.06351223 -0.0067517622 -0.034503557 -0.06172612
0.008438197 0.02377634 -0.022882666 0.028422698 -0.070249066 -0.022693152 0.040390346 0.044097908
-0.0013577708 -0.023452763 0.08960486 0.056027144 0.018497933 0.03816738 -0.057180893 0.02377654
0.01982689 -0.08407202 -0.035664804 -0.1595951 -0.034563374 -0.039865702 -0.026068514 0.043377828
0.011220599 0.06733594 -0.01552666 -0.057947498 0.02674062 -0.08532706 0.032024875 -0.0649892
-0.06803034 -0.029558636 -0.05076994 0.09802832 0.032961827 0.012093178 -0.056547634 0.004744411
0.08265432 -0.04947597 0.042715527 0.07198183 0.054243475 -0.008620033 0.014346628 -0.018381657
-0.015671091 -0.06341091 -0.031978093 -0.020305904 0.067526944 0.016660005 0.080802776 -0.039306756
0.039012164 -0.0010901712 0.032937746 0.01121592 0.0066912943 -0.02005788 0.042882696 0.0029047888
0.028776446 -0.013543087 0.060445663 0.027681034 -0.012877899 -0.054153714 -0.011602403 -0.014049983
0.020447275 0.030955102 -0.041938923 -0.02018268 0.017363874 0.027744172 -0.0404356 -0.047000676
0.06312257 -0.040083688 -0.004338121 -0.0003990736 0.09535838 -0.092713684 -0.00049943104 -0.070019774
0.0997654 -0.03070206 0.028029716 -0.01173975 -0.03350412 0.010221481 0.02947709 -0.029729929
-0.011832208 0.09069971 0.05860849 0.022868684 -0.05716826 -0.039433885 -0.020410191 -0.07485273
-0.034280423 -0.045422666 0.031993173 -0.017283639 0.041857533 -0.030219259 0.049181182 -0.06535734
-0.0070621343 0.05251676 -0.03362334 0.08152946 -0.059059106 -0.04483716 -0.063613586 -0.0946958
-0.07741352 0.046018023 -0.024761958 0.057239935 0.066554606 0.030630643 -0.029745331 0.083029665
0.065088816 0.0025329008 -0.009836413 0.040463887 0.0466899 -0.020757778 0.013765979 -0.03305875
-0.029976455 -0.04914506 -0.06943199 0.05424537 0.0011766013 -0.007958703 0.01341364 0.01468509
-0.030863557 0.0055405675 0.070873715 0.016328318 -0.004801855 -0.041760296 -0.06385894 0.030151991
-0.011913945 0.07325315 -0.03819957 0.11492614 -0.00409276 0.052992497 0.092097394 0.0018439399
0.088116676 0.02770488 0.026037278 0.0002390963 -0.06321889 -0.05611795 0.01780541 0.043879174
0.06252668 -0.008047703 0.06836448 -0.08817082 0.020505104 -0.011692239 0.004823531 0.021570832
0.09293099 0.023221884 0.048159465 -0.0347973 0.009674278 0.066248864 0.017362788 0.0047913142
-0.037249193 0.040410053 -0.046691857 -0.02449509 -0.04940862 -0.03468901 0.029266141 0.11090774
0.05072706 0.017583974 0.022311384 0.060935456 -0.0596945 0.021580389 0.04897081 0.10031746
-0.0046973717 -0.045734707 0.008955135 -0.0506193 0.15282992 -0.06751899 -0.011959404 0.051275905
-0.11042484 -0.041271877 0.04576958 0.07003225 -0.041105524 0.069924966 0.068167776 0.025520418

a2c_network.actor_mlp.2.bias f4 [128]
00000000: df90 6f3c 22c4 17bc 3030 203d b92d a1bc
00000010: 763a 80bd cb36 6c3c 4291 9e3c 8148 9b3c
00000020: 4e8c af3b 0ca2 a3bc 42fd 043c 4595 f63c
00000030: 352b b4bc 3ffa 40bd bcd4 af3d 6f42 55bd
00000040: 7153 a4bb 7a47 10bc 5c36 afbb 9f23 3fbc
00000050: 5d95 92bc 22a1 bc3a 7e76 a0bc b407 173c
00000060: f72f 77bd 1842 4bbd 52f7 013c f160 1d3c
00000070: 8ca6 17bc 45e7 7a3c 212c 8bbd 3338 a0bb
00000080: ee08 173d 3d56 3b3c 7e87 b2bc 32f0 ecbc
00000090: b4bc 88bd 8433 cebb 1618 4fbd 5d37 1fbd
000000a0: 8bb6 49bd 6997 cc3c 8038 a33d 0379 8a3c
000000b0: 9be3 39bd 8560 61bc 66ec aebc 5c1e 63bd
000000c0: 653a 293c 9548 3abd 7abc 403d caf0 7f3c
000000d0: e0d0 ebbd bf4c 013c eb63 203b 8709 963c
000000e0: 8f5c b83c 6a6d c13c 7ce4 a4bb 707c 9bbc
000000f0: f671 e23c 6adf 403d 739e a0bd f090 093d
00000100: 1a2d 6d3d 8eed 4b3c c9f1 c2bc 7514 68bb
00000110: e913 673b 8959 ce3c 1c60 393d ea1d 3f3d
00000120: 2921 26bc 9ade cf3c 6805 19bd 4464 ce3c
00000130: f9b7 493c cb85 0a3c cf56 6c3c 5522 8bbc
00000140: 635b 263c 4873 06bd 62b5 c63c 3ab8 c43c
00000150: 7e4c d63b 8f5f 323d de41 6dbd e976 c6bd
00000160: 7f0b 95bc 3918 433c 48de 1f3d 624a 643d
00000170: c933 7abc 52e7 e73c 3878 9abc e550 9c3c
00000180: 5c7f 763d 8a00 d3bc db2c 29bc ebb3 06bd
00000190: e25b ca3b 0d67 0c3c 183e 8fba 61f0 e33b
000001a0: 067e 34bc 4749 aabc 4635 a8bb 603e 19bc
000001b0: ed0d 0f3d ee84 0bbe d8d7 51bc a0f2 a03c
000001c0: 3ea9 76bd ed18 0c3c f1bf 8b3c cc25 77bc
000001d0: 3dc6 01bc 82ff a23c d093 c13c b11a f3bc
000001e0: 7bbc b23c 1098 3e3d 9601 a03b 38da 25ba
000001f0: 71c5 12bd db1c 5d3b 659e 463c c19d 49bd
0.014621942 -0.00926307 0.039108455 -0.019675123 -0.062611505 0.014417361 0.019356374 0.018955471
0.005357302 -0.01997473 0.008117022 0.030100474 -0.021993259 -0.047113653 0.08585498 -0.05206531
-0.00501483 -0.008806104 -0.0053470563 -0.011666208 -0.017893488 0.0014391283 -0.019587751 0.009218145
-0.060348477 -0.04962358 0.007932501 0.009605632 -0.009256016 0.015313928 -0.06795526 -0.004889512
0.03687375 0.011434135 -0.021793123 -0.028923128 -0.06676617 -0.0062927622 -0.05056008 -0.038871158
-0.049246352 0.024974542 0.07969761 0.016903406 -0.045383077 -0.013755922 -0.021352958 -0.055448875
0.010328864 -0.045479376 0.047054745 0.015621373 -0.11514449 0.007891833 0.0024473618 0.01831509
0.022505073 0.023611743 -0.0050321203 -0.018980235 0.027642231 0.047088064 -0.07842722 0.03358549
0.05790434 0.012446774 -0.023796933 -0.0035412584 0.003525967 0.025189178 0.045257673 0.046659388
-0.010139742 0.0253747 -0.03735867 0.025194295 0.012311929 0.00845475 0.014424994 -0.016984144
0.010153624 -0.032824785 0.024256412 0.024013627 0.0065398803 0.043548163 -0.057924144 -0.09690649
-0.018193958 0.011907631 0.039030343 0.055735 -0.015271136 0.028308544 -0.018856153 0.019081542
0.060180053 -0.025757093 -0.010325636 -0.032886427 0.006175504 0.008569491 -0.001092854 0.0069561456
-0.011016374 -0.020786894 -0.005133304 -0.00935325 0.03492539 -0.13624927 -0.012807809 0.019646943
-0.060219996 0.008550865 0.017059298 -0.015084695 -0.007920799 0.019897226 0.023630053 -0.029675813
0.02181839 0.046531737 0.0048830016 -0.00063267676 -0.035832826 0.0033739123 0.012122725 -0.04922271

a2c_network.actor_mlp.4.weight f4 [64, 128]
00000000: 1e00 353c 5406 ae3c 25ea 273d ed67 6ebd
00000010: 2251 8bba e8fc d23d 79b0 0c3d 2af8 6a3d
00000020: 3a62 89bd 43b6 5d3c c7e0 48bc 1e89 68bd
00000030: 2111 ba3b b241 88bd 3365 8bbd a1e9 75bc
00000040: 7f94 dabd 5f78 90bd ba9c ddbd a174 8c3d
00000050: fce2 9fbd 0b95 55bd 9b59 0cbd 3faa 02bd
00000060: 7e43 023e 2635 c93c 1ea2 55bc 8a3b a3bc
00000070: be6a 43bd 3986 ba3b 8b82 80bc 26d3 abbd
00000080: b8de 9c3d aeda c83d 5aea 82bd a423 5f3d
00000090: 1cb6 8f3d d2c2 15bd 36a5 cd3d 65a5 b3bd
000000a0: 45b6 25bd 4f3f 0bbb 87c5 c6bd 3c45 37bd
000000b0: 7e80 3abd 1349 193d 8581 cd3c 2364 6f3d
000000c0: dcb6 d63c 6b36 b43d 8b26 6cbc 9e37 7f3c
000000d0: 9f3f b03d 1ae1 553d 8c1b 77bd 2b53 8b3d
000000e0: fc47 c43d 74ab 5fbc 754f 213d 4bdd 54bd
000000f0: 0256 bfbc 6085 373c 6857 c23c 60da c5bc
00000100: 2a5d 993b 8114 cbbc 74ef f23d a3d9 3c3c
00000110: 9bee c33d 6d07 9a3d e55e a2bd 5673 733d
00000120: ba4b afbd 50d9 dabc 2f3c 79bd 7e69 d13d
00000130: b388 75bd 6223 0c3d 6e72 733d 70c4 a9bd
00000140: 4816 a83d ab96 68bd 576b 9fbd c188 1bbd
00000150: 4918 803d ceed 9ebd 4b09 943d 7da1 85bc
00000160: 998b 513d e677 363d fbc2 4cbd f4ba 763d
00000170: df42 3b3d f299 e2bd 4c44 ebbd daf6 723c
00000180: 1f20 873c da55 2fbd 60a7 67bd 0dbf 23bd
00000190: 78b1 0c3d 791b 463d 704a b83d 481f c7bd
000001a0: ec76 a6bd d6ea 1a3e 0df6 d23d 59a2 ea3c
000001b0: fb3b 3cbc c860 173c 20d7 f9bb 6afd 7c3d
000001c0: b935 58bd 5312 a43d d958 213d 573b 423d
000001d0: 3749 503b 640e 61bc 9ee6 2aba 5277 7dbd
000001e0: 47c2 a63d 5852 e9bd 1fa0 c23d 71ea 27bd
000001f0: 8434 ae3d d531 9b3d 470c 043d ed0a dabc
00000200: fa78 94bd c665 973d e1a4 fb3c 554f fdbd
00000210: 3f34 343d 345b 2bbd ff1c 6abd 9390 173d
00000220: 6def 5ebc b196 4bbd 7c35 a1bb b9b8 12bd
00000230: 9bf2 9a3c 8227 223c a5c0 b2bd ef37 8dbd
00000240: 4a37 c0bd 1580 363d 7051 95bc af30 373d
00000250: 25df 44bd ee74 1d3b 8058 323d 023d 2e3d
00000260: fdb4 f33d 162b afbd 2e4d a8bd e52d bbbd
00000270: d540 903d d3d8 2ebd 3f49 70bd 1db2 383d
00000280: 9853 823c 7267 473d 25f4 5f3d bc0b eebc
00000290: 6c9f 69bd 958b 1d3d c679 c0bc e657 913c
000002a0: 9aeb e0bb eb9b 6d3c 530e 50bd 1252 21bd
000002b0: 9159 e43c 61e1 63bd 2304 933c 5efd a23d
000002c0: 083e 813d a0b6 cf3d a459 3f3d ebdd d3bd
000002d0: fa64 c1bc c063 3dbd b8df 783d 7ba3 9d3c
000002e0: a58f 563d c9da 2ebd 3caa 593d 4573 923d
000002f0: 4eac 81bd 3c60 98bd dab2 193d 6940 b1bd
00000300: 7e98 febc 673f 6fbd b94f 3d3d 6414 a0bd
00000310: 86c6 a5bd 81b8 bbbd 76d0 9bbc c942 c2bd
00000320: 4f72 81bb 30b9 e0ba 3e89 03be c48b 523d
00000330: 8f8d 3f3c f6d1 87bd 06f8 09bc 763e fdbd
00000340: a070 bd3d 3186 0f3d 0a0e bebc 0e39 07bd
00000350: 62b3 8e3d 05be 923c db99 86bc ed35 de3a
00000360: a734 d93b eb1b 483d b177 bcbc b40b 90bd
00000370: 5682 4cbc 87af 15bd 7086 aebc 3c76 08be
00000380: 646c 64bd b3ee 2cbb d08b 7f3d aa96 5fbc
00000390: 3b79 84bd ddf2 dcbc daae 8f3c 8483 59bd
000003a0: 00ea 353d 35e7 053d b6b8 193d a771 353d
000003b0: 01b9 47bb bfd8 55bd 4a1d ebbd 4691 053e
000003c0: ef2a f23a 05e5 9d3c ddea 3a3d 04c4 233c
000003d0: c5c9 943d 92a4 bc3c 719c 83bd e7a6 dcbd
000003e0: d7a7 96bd 4bd2 6b3c 864f f83b de14 033c
000003f0: 8c62 f7bb 4aa8 a43d 4a29 553c 9169 a83d
0.011047391 0.021243252 0.040994782 -0.05820458 -0.0010629038 0.10302144 0.034347985 0.057365574
-0.06708188 0.013532224 -0.012260622 -0.05677139 0.0056783115 -0.066531554 -0.068064116 -0.015009315
-0.10672855 -0.07054209 -0.10820909 0.06858183 -0.07806966 -0.05214409 -0.034265142 -0.03190064
0.12721059 0.024561476 -0.01303914 -0.019925851 -0.04770922 0.00569227 -0.015687248 -0.08389883
0.07659668 0.09807335 -0.06392355 0.05447735 0.070171565 -0.03656275 0.10041277 -0.08771781
-0.04045703 -0.0021247452 -0.09705644 -0.04474376 -0.045532696 0.037423205 0.025086174 0.058445107
0.026210241 0.08799442 -0.014413486 0.015577225 0.08605885 0.052216627 -0.060329005 0.068029724
0.095840424 -0.013651717 0.039382417 -0.051968854 -0.023356441 0.011201233 0.02372332 -0.02415198
0.0046802955 -0.02479005 0.11862078 0.011526498 0.09566995 0.075209476 -0.07928256 0.059436165
-0.085593656 -0.02671495 -0.06084841 0.10225199 -0.05994482 0.03421343 0.0594353 -0.082894206
0.08207375 -0.056784313 -0.07784145 -0.037972216 0.06254632 -0.077602014 0.07228335 -0.016312355
0.05115852 0.044547938 -0.049990635 0.060236886 0.04571807 -0.11064519 -0.11487636 0.014829362
0.016494809 -0.042806484 -0.056556106 -0.039977122 0.034348935 0.048366044 0.08998573 -0.09722763
-0.08128151 0.15128645 0.10300837 0.028641867 -0.01148891 0.009239383 -0.007624522 0.061765112
-0.05278561 0.080113076 0.039391372 0.047419872 0.003178192 -0.013736341 -0.000651935 -0.06188137
0.08142524 -0.11392659 0.09503197 -0.040995065 0.0850611 0.07577864 0.03223827 -0.026616538
-0.07249637 0.073924586 0.030718269 -0.12368647 0.04399514 -0.041835025 -0.05715656 0.03700311
-0.013606888 -0.049704257 -0.004919706 -0.035820697 0.018914511 0.009897115 -0.0872815 -0.06895434
-0.093855456 0.044555742 -0.018227309 0.044724163 -0.04806437 0.0024025994 0.04354143 0.04253865
0.11899755 -0.0855314 -0.08217846 -0.09139613 0.07043616 -0.04268725 -0.058663603 0.045091737
0.015909001 0.048682638 0.054676194 -0.02905833 -0.057036802 0.038463194 -0.023495566 0.017742109
-0.0068640234 0.014502506 -0.05079491 -0.03938491 0.02787474 -0.05563486 0.017946308 0.07958482
0.0631066 0.10142255 0.046716347 -0.10345062 -0.02360772 -0.046237707 0.06076023 0.019242993
0.052383084 -0.04268912 0.053140864 0.07150892 -0.06331693 -0.0744023 0.03752408 -0.086548634
-0.031078573 -0.058410075 0.046218608 -0.07816389 -0.08094506 -0.09166051 -0.0190203 -0.094853945
-0.003950394 -0.0017145034 -0.12845322 0.051402822 0.011691465 -0.06631844 -0.00842095 -0.12365429
0.09249997 0.035040084 -0.023200054 -0.033013396 0.06967808 0.017912874 -0.016430786 0.0016953327
0.006628591 0.04885475 -0.023006292 -0.07033482 -0.012482246 -0.03654435 -0.02130434 -0.13326353
-0.05576743 -0.0026387393 0.062389195 -0.013646761 -0.064684354 -0.026971275 0.01753943 -0.05310394
0.044412613 0.0326912 0.03752967 0.04429784 -0.003047526 -0.05220866 -0.11480196 0.13043699
0.001847593 0.019274244 0.04563414 0.009995464 0.07265047 0.023027692 -0.06426323 -0.107740216
-0.07356232 0.0143933995 0.0075778393 0.008000581 -0.0075495895 0.08039911 0.013010332 0.0822326

a2c_network.actor_mlp.4.bias f4 [64]
00000000: b340 bfbb 6845 8bbd 876f 333d 6284 d2ba
00000010: 8f88 c2bc eb34 a7bc 37bd c3bc b34e 60bd
00000020: a6ad 37bd 0e48 15bd a5bc cfbd 278f 933c
00000030: 239f 8c3d 9a13 cc3b e5bc 60bd e336 18bc
00000040: 3a71 1cbd 72dd 38bd d754 1a3d 0e4f 36bd
00000050: 619b 28bd 838e 12bd f2d0 80bd 21b7 d4bc
00000060: 0bee f83c 0feb 8dbc 5783 0abd 5708 f33c
00000070: 4488 593d d2f9 7cbd 9b9b babd fda7 12bc
00000080: c20d 48bd 6212 1f3c a631 023d 7a81 8abd
00000090: e674 77bd 3952 6b3c 1788 b6bc 253f 1fbb
000000a0: db1c 193c 20f1 af3c 7948 44bd b37d 10bc
000000b0: 44d8 c9bd 02b0 f3bd c211 593d d849 ea3c
000000c0: 0105 5bbd ebda 82bd 14a4 283d 0696 90bd
000000d0: 6904 963c 4c8f 0ebd f4c0 f03c 1f8a 41bd
000000e0: 2a62 efbc 69ab 1c3d 2090 6fbd 953a 36bd
000000f0: e94d 963c 6ecd 54bd 0aca 92bd 0631 66bd
-0.00583657 -0.068003476 0.043807533 -0.0016061182 -0.023746757 -0.020410975 -0.023893936 -0.054762553
-0.04484334 -0.03644567 -0.10143403 0.018012596 0.068662904 0.0062279226 -0.054867644 -0.00929043
-0.03819392 -0.04513306 0.037678566 -0.044508986 -0.041163806 -0.03578044 -0.06289853 -0.025966229
0.030386945 -0.017323999 -0.03381666 0.029667063 0.05310847 -0.061761685 -0.09111711 -0.008951184
-0.048841245 0.009708973 0.03178563 -0.06762977 -0.060414217 0.014362865 -0.02228169 -0.0024299112
0.009345259 0.021477282 -0.047920678 -0.0088190315 -0.098557025 -0.11898805 0.05299545 0.028599665
-0.05347157 -0.063894115 0.041172102 -0.07059865 0.01831265 -0.034804627 0.029388882 -0.047250863
-0.029221613 0.038249407 -0.058487058 -0.044489462 0.018347697 -0.051953726 -0.07167442 -0.056199096

a2c_network.value.weight f4 [1, 64]
00000000: 6302 af3d 621a a73c 88cc 523d 2889 083e
00000010: 5391 22bd 0593 f33b 2b90 76bc 18f1 263b
00000020: 8847 e5bc 5a0f 00bd bf0c 5f3c 0ac0 293d
00000030: 14ed a53b 1f7c 1c3a 6d5e adbd 505c a1bc
00000040: c947 f5bd 6b44 b3bd d0bf c13d 1536 30bd
00000050: 8d44 16be 49a1 ae3c a8c0 443c 212e 243b
00000060: 2e55 23bd beb5 4f3d dc14 e6bd 8a13 2e3d
00000070: 219d 0b3d 1895 bbbd f6c6 48bd 93cc 03bd
00000080: b000 c6bd 358c 97bb 1182 05bb d649 c7bc
00000090: 431a 14be c5de 893d c2e4 da3c 643b 5fbd
000000a0: bff9 813d 8a61 5cba 780e 7cbd 4053 873d
000000b0: 0646 68bc 8e36 9b3c 5ecb a33d 54fc 8cbc
000000c0: 7dbd 0fbd 887a fdbd 9579 813c bf5b 87bd
000000d0: d4ec db3d 9aca 21bd d1cf 053c ce8c 86bc
000000e0: f7b1 e83b c232 813d 51df 05bd 2039 1dbe
000000f0: c088 fc3d 5afe d2bd 1a8c 93bc 68ec 68bc
0.08545377 0.020398322 0.051464587 0.13333571 -0.039689373 0.0074332976 -0.015049021 0.0025473293
-0.02798821 -0.03126464 0.013613879 0.04144291 0.0050636623 0.0005969423 -0.08465276 -0.019697338
-0.119765826 -0.08753284 0.094604135 -0.043020327 -0.14674588 0.021317141 0.012008823 0.002505191
-0.039876156 0.050710432 -0.11234447 0.042499103 0.034085397 -0.09159297 -0.04901787 -0.03217752
-0.096681 -0.0046248683 -0.0020371715 -0.0243272 -0.14463143 0.06731943 0.026720408 -0.0545
0.063464634 -0.00084068684 -0.061537236 0.066076756 -0.014176851 0.018946912 0.079977736 -0.017210163
-0.03509282 -0.123768866 0.015805045 -0.06609296 0.10738531 -0.039499857 0.008167223 -0.016424563
0.007101293 0.063085094 -0.032683674 -0.15353823 0.123307705 -0.1030242 -0.018011142 -0.01421652

a2c_network.mu.weight f4 [8, 64]
00000000: fad8 bc3c 78af 033d d068 1cbe a20a 283d
00000010: 1ed7 0ebc 0adf 3d3d d0df 61bd f52a 863b
00000020: d06a d8bc bb72 103d 35ec 493d 6858 d83c
00000030: e9d8 2cbd d148 afbd 5776 033e 9c87 bcbd
00000040: c627 1ebb 13b1 01bc 3eef ca3c 5ee1 73bd
00000050: 8412 243c e21c 6b3d 1b8f 0c3d 6c24 acbb
00000060: 3c55 b5bd a184 9f3d 54ee dd3b 181f c93d
00000070: 782f f3bd b91a af3d 6150 8dbc 32c8 79bd
00000080: 4a95 cfbd 9844 613d 0584 22bd 4ab1 253e
00000090: c021 ee3b 5662 103d 833e 2c3c 1bcd a7bd
000000a0: 2c9e 233c 3892 bd3d 9d28 b53d dcea 173c
000000b0: 6576 81bd 057e 473d 831c 0bbc 1560 58bd
000000c0: 0932 5d3b 56d9 733d 4a85 44bd 7ce5 6f3d
000000d0: 8796 8c3c eaca c73c 9d80 afbd 83d4 aebd
000000e0: 753c f73b bb7e 10be b5bb 733d 5991 06be
000000f0: f4b6 aebb 6d32 a23d 728f 2f3d 3678 bd3d
00000100: 58fc cc3c 98fd 41bd 3685 87bd e895 913c
00000110: b608 02bd dc0a 87bd 0530 f6bc 70cc 843d
00000120: 4eb6 b7bc 226e 41bd 1ce0 a33c 5e49 28bd
00000130: 3016 95bd 3fad 07bd 37de a53c 1750 d0bc
00000140: 823f 2ebe 9b99 2e3c 7c04 8ebd 66bf 423d
00000150: 3f07 f53d 5d91 0f3d 1fe2 ed3c d6c5 b33b
00000160: 02e6 e9bb fcf3 c53d 8e7a d2bd d0ef 18bd
00000170: 6a27 e53d 5468 543d 2421 f23c 8396 07bd
00000180: d790 1f3d 956a 493d dc86 4a3d 5ef6 32bc
00000190: 3ca5 e9bc 1222 f03d 90b0 2c3d 9270 7fbd
000001a0: 2edb 293c 2249 9e3c c6ed 08be 35d3 ca3d
000001b0: 40ed e93b 9775 fc3c 80d6 0dbe b9ea b2bd
000001c0: 0e51 33bd 6492 023e 0a9f e23d 9e26 f93c
000001d0: 806e fcbd c047 743d 2f9c f73d a467 033e
000001e0: 203c 0b3d ca4b 33bd f8fe b93d ea7b 89bd
000001f0: 2949 0c3d 0491 9ebd 55d3 a83d 9ad8 373d
00000200: b25f 053d 2f50 093d b293 2ebd a968 40bc
00000210: b68b 263d d516 cd3d d340 f63d 5f90 3e3d
00000220: 212f 19bd 92e1 99bd afc3 cbbb 39ae 98bd
00000230: cde0 773d 8f58 c43d 15f1 15bd 489d da3c
00000240: 2c65 10be 1e81 8abd 96db 80bd e1f4 8ebd
00000250: af95 673d 8ecc 7a3d bd60 893d 4de8 b63c
00000260: 4aed b7bd c121 243d 7851 753a bb55 a3bb
00000270: c4ba dfbd 73cc f43d 2653 9f3d c462 b53d
00000280: 6428 98bd a74c 27bd 748d 5a3d 9575 0e3e
00000290: 1abd 8ebd 29c6 103d 947a b53c ff2d c9bd
000002a0: 55ef 82bc a2c3 27bd bf19 98bd dff0 643d
000002b0: 6f5a fd3d e8f4 f03d 8052 903d 4dd4 8e3c
000002c0: df96 c43d dd20 07bd 49e0 9bbd bdb5 07bd
000002d0: 5c28 7ebd ba95 fe3d 9c50 23bd 9cfb c3bc
000002e0: d2a5 963d dfd1 ac3d 1979 edbc dc0e c2bd
000002f0: e2cd 8f3d 013b 1f3d bfd1 e03d 71d1 f1bc
00000300: 8563 9ebd c7d7 79bd d8db bcbd 3d36 18bd
00000310: 003c 113d 2f53 e63d 51e3 5ebd b8db b33b
00000320: 5676 6b3c 2520 f4bc d2d2 ccbc c32e 613c
00000330: ee63 be3d bb48 6cbd 226f bcbd 19ff 913d
00000340: e2a9 31bd f037 003e 0a07 ba3d 6225 10bc
00000350: 1903 aa3d 7ad3 c93d cc1c 0abd fc2e dc3d
00000360: f9f8 22bd 36ab 213d a731 5b3d 4e8c 943d
00000370: b8cf d73d fe0c 4f3d 09d8 97bd 7fb0 77bd
00000380: f7c4 72bd b0a1 a4bd da94 1b3c 5195 bc3b
00000390: c970 37bd 8a71 1a3d 5e01 9a3d 9a30 4c38
000003a0: efca 04b9 ff81 053d 3926 c13d 47aa 9a3d
000003b0: 326e e4bc ad99 b13c 1f18 813c dabb 913d
000003c0: 9870 99bc 94db 323d e94f 543d db74 863d
000003d0: c984 f7bd 9daa c3bd 907f dc3b e852 593d
000003e0: 5f5e edbc feab 983d 92f1 4abd 607e 82bc
000003f0: ba59 693d e50d c1bd 5996 10bc 7433 77bd
0.023052681 0.032149762 -0.15274358 0.041025765 -0.00871828 0.046355285 -0.055145085 0.0040944763
-0.02641812 0.035265666 0.04929753 0.026409343 -0.04219905 -0.085588105 0.12838112 -0.09205553
-0.0024132594 -0.007915753 0.024772283 -0.0595411 0.01001418 0.05740059 0.034316164 -0.0052533653
-0.08854148 0.07788969 0.0067727957 0.09820384 -0.11874288 0.08550019 -0.017250242 -0.060981937
-0.101358965 0.054997057 -0.039676685 0.16180912 0.007267207 0.03525003 0.010512951 -0.08193418
0.009986442 0.09256405 0.08845637 0.009272303 -0.0632141 0.048704166 -0.008490684 -0.052826006
0.0033751747 0.05953344 -0.047978677 0.058568463 0.01716162 0.02438875 -0.08569453 -0.08536627
0.007545049 -0.14110844 0.059505183 -0.13141383 -0.0053318683 0.07919774 0.04286141 0.09251444
0.02502267 -0.047360986 -0.06617205 0.017771676 -0.03174659 -0.06593868 -0.030052194 0.06484306
-0.022425797 -0.04722417 0.020004325 -0.041085593 -0.072796226 -0.033124205 0.020247562 -0.025428815
-0.17016414 0.01065674 -0.06934449 0.047545813 0.11964273 0.03505074 0.029038487 0.0054862304
-0.007138015 0.09665677 -0.10277282 -0.037338078 0.11189158 0.051857308 0.029556818 -0.033102524
0.03895649 0.04917391 0.04944502 -0.010922996 -0.028521173 0.117252484 0.04216057 -0.062363215
0.010367198 0.019321982 -0.13371953 0.09903566 0.007138878 0.03081779 -0.13851357 -0.08736176
-0.04377847 0.12751156 0.110654905 0.030413922 -0.12325764 0.05963874 0.120903365 0.12832505
0.033992887 -0.04377345 0.090818346 -0.06713088 0.03424946 -0.07742503 0.082434334 0.0448843
0.032561965 0.033523735 -0.042621322 -0.011743703 0.040660582 0.100141205 0.12024083 0.0465244
-0.03739846 -0.07513727 -0.0062183957 -0.07455105 0.06051712 0.09587204 -0.036606867 0.026686326
-0.14101094 -0.067629084 -0.06291883 -0.06980301 0.056539234 0.061230235 0.067079045 0.022327567
-0.08980806 0.040071253 0.0009358148 -0.004984585 -0.109242946 0.11953058 0.07779531 0.08856729
-0.07429579 -0.040844586 0.053357556 0.13912041 -0.06969662 0.03534523 0.022153176 -0.09823226
-0.015983263 -0.040958054 -0.07426786 0.055893775 0.123707645 0.11765462 0.070469856 0.017435217
0.09599089 -0.032990325 -0.076111384 -0.033132304 -0.06205021 0.12430902 -0.039871797 -0.023923688
0.073558465 0.08438467 -0.028988408 -0.094754905 0.07021691 0.03887463 0.10977506 -0.029518815
-0.077338256 -0.060996797 -0.09221619 -0.0371611 0.03545761 0.11246335 -0.054416005 0.005488839
0.014371475 -0.029800484 -0.02500287 0.013744059 0.09296404 -0.05768655 -0.092008844 0.07128734
-0.043374904 0.12521338 0.09083374 -0.008797975 0.08301372 0.09854789 -0.03371887 0.10751149
-0.03978822 0.03946992 0.05351415 0.072533235 0.10537666 0.0505495 -0.07414252 -0.060471054
-0.05926987 -0.08038652 0.009495938 0.0057551046 -0.044785295 0.037705936 0.07519792 4.8682654e-05
-0.000126641 0.032594677 0.094311185 0.07552009 -0.027884576 0.021679724 0.015758572 0.07115908
-0.018730447 0.043666437 0.05183402 0.06565257 -0.12085874 -0.09554026 0.006729074 0.05305758
-0.028975664 0.0745468 -0.049546786 -0.0159294 0.056970336 -0.09426478 -0.008824908 -0.060351804

a2c_network.mu.bias f4 [8]
00000000: 6f1c e1bd b9d7 94bd f862 d13b f5cd 5d3c
00000010: 9f05 98bd 15bb bf3c 168f 08be bc01 babd
-0.109917514 -0.07267708 0.006389972 0.0135378735 -0.07422947 0.023404637 -0.13335833 -0.09082362

exp_avg f4 [8]
00000000: 5af3 e13a eebe 243c 3692 353b ff32 bc3b
00000010: cae4 c73b 1d2a 8e3b f6de 0c3a d7dc 9b3b
0.0017238662 0.010055287 0.0027705557 0.005743384 0.006100272 0.0043385164 0.00053738 0.004756551

exp_avg_sq f4 [8]
00000000: 982e ec37 7c5d 1538 5c7f f637 2d17 f437
00000010: 3474 c837 bbd5 2838 d225 0738 fc7d fc37
2.815509e-05 3.5611432e-05 2.9384792e-05 2.9097859e-05 2.389597e-05 4.0253373e-05 3.222173e-05 3.0099407e-05
