IsaacGymEnvs/isaacgymenvs/runs/Ant_22-18-09-58/nn/last_Ant_ep_200_rew_4189.637.pth (torch, 706158 bytes, 36 tensors)

value_mean_std.running_mean f8 [1]
00000000: fb64 923c a2e0 0640
2.859684441773991

value_mean_std.running_var f8 [1]
00000000: 53f0 e6ba 4b61 0640
2.7975077249266547

value_mean_std.count f8 []
00000000: 0000 0010 0000 7941
26214401.0

running_mean_std.running_mean f8 [60]
00000000: 3e66 581e f03a e33f b734 93cf 8666 0440
00000010: 7d7b 0186 17dd d3bf 8d85 72aa 27b7 d4bf
00000020: db3c cd76 a8a5 98bf e41f f522 7ff0 333f
00000030: 4a63 966a 8290 abbf 4c53 77e9 c6ca 0340
00000040: 5e4c 6b59 2cd4 0d40 4348 388b 07cc 03c0
00000050: bc7f 2e34 ac63 ec3f ed9d 3fa3 4c6e e93f
00000060: e883 eff2 20a9 e6bf c5b2 a154 4c68 dfbf
00000070: 8376 026c 93ee d4bf d66b d6c4 1b17 e73f
00000080: 167a a69d f012 c23f 13cc 1593 f80c e73f
00000090: 99eb 37f3 0fd2 e2bf 80fe 052b 21f1 e6bf
000000a0: dbe8 5311 72b4 993f 0746 bd4c 216d b03f
000000b0: 890d 316c ad74 a23f e52b e2b7 4d91 b1bf
000000c0: ef9d b699 5403 8cbf 577d 9f12 665b acbf
000000d0: 5f87 c03a 967b 9a3f b5c4 7552 fef5 b13f
000000e0: c02c 7708 5d09 e1bf 82ee 16aa 15dc c33f
000000f0: 2199 635d b045 cabf 4c20 f1c5 9e6f a9bf
00000100: ebd6 b81b b80f 73bf 54ef 1409 25f6 a63f
00000110: 4bd0 6e34 6d1a 9f3f e9b7 ea52 a096 a63f
00000120: c66b d5cd c313 d8bf 12d3 8e19 6b31 aebf
00000130: 41bb 9ccf 8dbd 0f3f eb59 1bbe 21d6 8e3f
00000140: 37d0 9b52 25b1 d5bf acec f61a 5791 b13f
00000150: 6569 76ad 1de2 c8bf bcf7 0075 3edb ae3f
00000160: 8a9e 9924 3cf2 4ebf f0e2 c3b2 b6a7 7bbf
00000170: 0dc8 71b3 9b67 d23f 4cac 7460 b9c1 b7bf
00000180: 3f5e 6365 5e62 cdbf 0c83 3a9f e99f b53f
00000190: 584d fc91 a3bd 633f 46f1 6580 1b98 a03f
000001a0: 8a18 41d7 e4bd dfbf 1f26 7133 1a70 c5bf
000001b0: d644 3138 c245 c1bf 2ee4 d0ba cd80 cb3f
000001c0: ecf4 26aa 90f6 b23f ec50 dac6 f038 ce3f
000001d0: 759f e46c e344 d4bf 2ce6 1f2f 1451 d4bf
0.6009445755655134 2.5500618187712365 -0.3103693779611872 -0.3236788906598001 -0.024069435359078333 0.0003042517082190151 -0.05383689452282299 2.4740122069874015
3.7286002145643087 -2.4746237637091624 0.8871670741245832 0.7947142780730566 -0.7081455941043915 -0.49074085488136304 -0.3270615153104261 0.7215708584293405
0.141203000047384 0.7203333733326666 -0.5881423712120181 -0.7169347610760752 0.025102407748797666 0.06416519282836229 0.03604642816255949 -0.06862340678541974
-0.01367822736831578 -0.055384816907230565 0.025862071357671264 0.07015981209930795 -0.5323929944364849 0.15515394978671188 -0.20525173721325365 -0.04967971960337589
-0.004653662846569632 0.04484668479787382 0.030374246907470853 0.04411793720406349 -0.37620635128922364 -0.05897078215585884 6.054009459287866e-05 0.015056861509418836
-0.3389371210789735 0.06862396629633122 -0.1944005105004393 0.060266448767364506 -0.0009444039980736768 -0.006751741090049931 0.2875737430941861 -0.09279974560620124
-0.2295644755420074 0.08447132241645877 0.002409762833744427 0.03241048757897373 -0.49596520443845604 -0.16748359214607064 -0.13494136565944953 0.21486827489732846
0.07407478479486301 0.23611268720254175 -0.3167046130570193 -0.3174486599160413

running_mean_std.running_var f8 [60]
00000000: 4f0c 1ba4 6b77 8e3f 3bea 9783 ba7d 0d40
00000010: 5543 7985 415f f23f 474d 4a4b 297d e63f
00000020: 44ca 2e16 305e 0d40 6bae 516d 6864 1640
00000030: 0066 a288 3e0d 1e40 07fd 365e a17d 1c40
00000040: 44f9 804f c8e7 2040 2cd2 870c a97d 1c40
00000050: bbab 8973 7612 bc3f a9b2 0706 41f3 c23f
00000060: 2505 e72f fdd3 d33f 4d00 1dec fda0 d23f
00000070: 1285 38a0 2ca5 d93f f913 9f4b 7f86 d43f
00000080: c1a8 08b4 c580 df3f 996f 181e 3338 d23f
00000090: a845 f4b4 6e15 da3f 77ef e7b9 f258 cc3f
000000a0: 987c 0d10 3957 fb3f d856 32b6 c474 0b40
000000b0: 020e 9869 bff1 0c40 1f26 368c 12e7 f03f
000000c0: 9928 b3b8 4658 1640 be70 4e1c afbf f33f
000000d0: 0a5f 5e93 efb5 f43f 5b12 e2f4 60a1 fd3f
000000e0: f68d d6cb f800 f33f 9b40 9f95 c3e5 ca3f
000000f0: c1bd 7223 176c f23f 08fe b90b 4631 9a3f
00000100: 625a 6853 de5f 103f ac3f 8ecd 2016 773f
00000110: ee69 1384 0eef fa3f 4afb b074 d2fd c23f
00000120: e588 b050 3c1f f03f 7ac9 f890 d05b 953f
00000130: 5121 07e2 ee07 113f 9a73 aee1 7347 813f
00000140: 786d a343 3614 0740 1623 0d0a c160 c33f
00000150: b7ea d38e 3613 f13f c59e c2ad 9fe2 973f
00000160: c423 2d52 cf46 143f 3c30 e2b6 ab03 8f3f
00000170: cb10 0890 3947 f03f cf88 7a45 9d1c c43f
00000180: 153b 65cc bf98 ee3f 8e54 bf96 3248 963f
00000190: 67a7 e009 edf5 063f be7f 36b6 1a19 743f
000001a0: 5fe4 b612 1389 d73f 8caf 4a64 fb4c db3f
000001b0: af1c 92f3 5c07 e03f 05e5 1fa5 bc5e d63f
000001c0: 854c c671 0e91 e13f 80c7 bedd c3bb d83f
000001d0: 3718 3d5b 6786 d93f b711 a466 83c1 d83f
0.014876213975531764 3.6863909035430686 1.1482558454337852 0.7027784796249897 3.6709901555089193 5.598054607496674 7.512933859741224 7.122685882669663
8.452700123304233 7.122715183057647 0.1096567184519434 0.1480485228961659 0.3098137824818699 0.29107616479814596 0.40070644041596026 0.32070906052496145
0.4922346361296484 0.2846801561261088 0.4075581328516713 0.2214644820922975 1.7087946536119372 3.4320158228027644 3.6180408715752046 1.0564141728413075
5.586207281050656 1.2342978578299575 1.2944179302775773 1.851899105619984 1.1877372705865787 0.21013684087529758 1.1513892540641424 0.02557858892987322
6.246370762883751e-05 0.005636337410479014 1.6833634528362569 0.14837103555506764 1.0076258804261269 0.020858057831170985 6.496806646006283e-05 0.008437066387893034
2.8848691257714414 0.15139019957339234 1.0671907023631044 0.02332543848083792 7.734909426661193e-05 0.0151437201677923 1.017388880370208 0.1571232403994771
0.9561461441133782 0.0217597870358373 4.37939608988875e-05 0.004906753867004397 0.36774136378841676 0.42657360834231706 0.500898814891931 0.3495322811646278
0.5489570829544311 0.38646027235801483 0.39882835302376257 0.3868111135818952

running_mean_std.count f8 []
00000000: 0000 0020 0000 6941
13107201.0

a2c_network.sigma f4 [8]
00000000: a6a2 48bf e639 94bf 4a0c 82bf a9b3 89bf
00000010: da4f 5fbf 365b 98bf 6e94 40bf 046f 71bf
-0.7837318 -1.1580169 -1.016 -1.0757953 -0.8723122 -1.1902835 -0.75226486 -0.9431002

a2c_network.actor_mlp.0.weight f4 [256, 60]
00000000: 945d 643d 530b 38be a101 cbbb fe67 65bd
00000010: 277e 613e f235 b8bd 700c 473e b69d afbd
00000020: b20e febd 97ce 8abd 80ae 663d da03 08bd
00000030: 7496 803e 727f 87be 5605 02be cd58 c3bd
00000040: d054 d3bd c202 b7ba ef50 5b3d d89d 5e3e
00000050: 68d0 d53c 9d65 19be da49 a73d 91df b3bc
00000060: 511e e23d 0834 11be 393a 0c3e 04a7 c1bb
00000070: 675c 95bd 59f2 2b3d 2c78 df3c 17b6 38bd
00000080: ce5e 8e3d 2e53 503d bb8d b9bd 8929 e8bc
00000090: 3eeb cc3d 1bd3 0ebd 02e8 4abd f229 07be
000000a0: 64fa bebd cd19 083d b0a5 453c e04d 9fbd
000000b0: f493 02bd cf26 b1bd 824b f1bd aa79 a6bc
000000c0: 208c bfbd 8e91 9abd 7f97 d43d 1eb7 b63c
000000d0: e4e3 823d 4701 3dbd 9d10 e0bb 08a4 5fbd
000000e0: 0485 89bc f7d4 d3bd 8b0c 4bbc cb8a 38bd
000000f0: 545a 2c3d be76 07be 43d8 33bd 7305 8abd
00000100: 909a 92bd 5c55 b3bd 0434 2d3d 9a49 24bd
00000110: 6f32 563e 3f0a b3bd 05d0 053e b4d2 5c3d
00000120: ff88 f3bc 6905 b73d 607a 1d3e 00eb 4abd
00000130: d8ad 68be cf3f 01be c239 723d dc53 bdbc
00000140: d695 953d 98fd c7bd 0819 ff3d d793 c7bd
00000150: 2085 14be c605 dc3d fc3e e93d f2cc b13d
00000160: 94dd b13d 4f3e cebd 7c66 06bd 34c1 aabd
00000170: 437c a7bc e4e9 f9bd 3cf9 8a3d 5af7 b6bd
00000180: 783a 7d3d e8b4 883c c6d1 443d 7319 9ebd
00000190: 728a 623d cd5f 073d 675d 5d3c 68e0 eebd
000001a0: 2935 bc3b 3e22 5fbd 8c38 a5bd 1cf8 0f3e
000001b0: f036 59bb 4f01 01bd 677f cbbd d609 093d
000001c0: 1801 5d3d 2428 61bd a104 75bb b3e8 69bd
000001d0: 8298 7cbd 1f10 9a3d 6ed7 033e bbb3 21be
000001e0: 5beb 9a3d 75d8 cc3d 07ba db3c c9c5 a0bd
000001f0: 06c6 dd3d d318 2c3d 1754 3d3d d80b 99bb
00000200: dca9 44bd b1ea 89bb 80d7 943c 0e52 8ebc
00000210: 52a4 093e e3ac 243e e2ea f2bc 1d39 923c
00000220: 38ff d7bc 8e20 8ebd a92a c73c 49dc 803d
00000230: a569 0dbe 3b66 03bd f11c b63d 9d69 5a3d
00000240: 083e ec3c 9a69 05be f754 713c 5532 d3bd
00000250: d277 c0bc e6e6 843d bbcf d73c 43f8 0d3c
00000260: 91b2 aabd 041c 45bd 25c0 9bbd 04f3 a03d
00000270: 501b 37bc 90ba 58bd e43d e43c f2f9 f43c
00000280: dfc9 29bd 1f3e f43d ddcc 29bc 1cb2 c9bc
00000290: 4cec d1bd ef35 d23d cf57 923d a3e9 233d
000002a0: 8234 87bd f656 16be aac9 f3bd 0682 693d
000002b0: aae7 0d3d 9cfe 013e f098 1b3d 7f22 1e3c
000002c0: 2a46 453c 90d6 39bd 6d18 3bbd 6ad4 37bd
000002d0: 213d 843d dad1 11bc 6c83 03bc 2945 dfbd
000002e0: 3a11 733d 95dc 86be f628 dbbd 32f4 f43c
000002f0: ed00 04be 62a8 bd3d c9e2 89bd 4e01 13be
00000300: 4d4e 06bd 77fd 4fbe 406e a2bd d707 10be
00000310: 1ab2 023e 3e26 c9bd 8299 a83d ca03 b03d
00000320: c9c1 6e3d 81ab 90be d8cb 8d3d 4f7a 15bb
00000330: b2f3 6f3d a039 9a3d e98f cdbc 5b32 203c
00000340: ede3 163d e0e5 07be 1194 963d 1f84 f1bd
00000350: 66db ea3d 5b04 5f3d de5f 3a3e 496a 11bd
00000360: b479 c9bd 06cc 403d c2d0 6d3d 71b2 21be
00000370: 145d a13c 4cee 45bd 0416 38bd fcb5 6bbd
00000380: 690e 33bd 2eee abbd 607b 38bd e1e1 c93d
00000390: 8481 7b3d e465 0f3b 993c d8bc 4cf0 563c
000003a0: 4197 cebd d958 32be e181 f03d 26af d6bd
000003b0: d750 f0bd 5ffd 15bd 7869 6bbc 9642 7cbd
000003c0: 1e29 e9bc 5efc 8c3c 74e7 173d 3c4b 9fbb
000003d0: cd9f b0bd 988a 0c3e c1be 3fbd 3cd1 1c3c
000003e0: 819a 9dbd e3ea 0f3d 241f 8a3e c1d5 2f3e
000003f0: b2df 05be 0892 1fbc 7be2 973d 355e fd3c
0.055753306 -0.1797307 -0.0061952625 -0.056007378 0.2202078 -0.08994664 0.19438338 -0.08575003
-0.12405147 -0.06777685 0.05631876 -0.033206798 0.25114787 -0.2646442 -0.12697348 -0.09538422
-0.10318911 -0.0013962614 0.05354398 0.217399 0.026100352 -0.14980169 0.08168383 -0.02195719
0.11040939 -0.14180005 0.13694085 -0.0059098024 -0.07293015 0.041979168 0.027278982 -0.04509553
0.06951676 0.050860576 -0.09060236 -0.028340118 0.100058064 -0.034869295 -0.049537666 -0.13199595
-0.09325102 0.03322773 0.012063429 -0.07778525 -0.03187938 -0.0864998 -0.1178198 -0.020321686
-0.093528986 -0.075472936 0.10380458 0.022304114 0.06391123 -0.046143796 -0.006837918 -0.05459979
-0.01678706 -0.10343354 -0.012393127 -0.04505424 0.04207833 -0.1322889 -0.043907415 -0.067393206
-0.07158387 -0.087565154 0.042285934 -0.040109254 0.20917676 -0.08742189 0.13067634 0.05391188
-0.02972841 0.08936579 0.15378714 -0.04954052 -0.22722566 -0.12621997 0.059137113 -0.023111276
0.073039696 -0.09765166 0.12455946 -0.09744995 -0.14503908 0.10743289 0.113889664 0.08681668
0.08684841 -0.10070478 -0.03281258 -0.08337632 -0.020444995 -0.12202814 0.06785819 -0.08933897
0.06182334 0.016687825 0.048051618 -0.07719698 0.055307813 0.033050347 0.013511038 -0.11663896
0.005743642 -0.054476015 -0.08067426 0.1405949 -0.0033144318 -0.03149539 -0.099364094 0.033456646
0.05395612 -0.05496992 -0.0037386792 -0.057106685 -0.06166888 0.07522606 0.12875149 -0.15791218
0.07564422 0.100022234 0.026822103 -0.078502245 0.108287856 0.04201586 0.046222772 -0.0046706013
-0.048013553 -0.0042088856 0.018169165 -0.017373111 0.1344159 0.16081576 -0.029653016 0.0178495
-0.026366815 -0.06939803 0.024312334 0.06292016 -0.13809831 -0.032079916 0.08892239 0.053323377
0.028838173 -0.13028565 0.01472973 -0.103123344 -0.023494635 0.06489353 0.02634417 0.008665147
-0.0833484 -0.04812242 -0.07605008 0.078588516 -0.011175945 -0.052912295 0.027861543 0.02990434
-0.041452285 0.11925911 -0.010363785 -0.024621062 -0.10250148 0.10264193 0.071456544 0.040017735
-0.06601812 -0.1468161 -0.11903699 0.057008766 0.03464476 0.12694782 0.03798765 0.009651779
0.012040654 -0.04537064 -0.04567759 -0.04488031 0.06456972 -0.00890013 -0.008026939 -0.10901863
0.0593426 -0.26340166 -0.10701172 0.029901598 -0.12890978 0.09260632 -0.06732709 -0.14355966
-0.032789517 -0.20311533 -0.07931185 -0.1406549 0.12763253 -0.09821747 0.08232404 0.08594473
0.058290277 -0.28255847 0.06923646 -0.0022808497 0.058582015 0.07530522 -0.025093036 0.009777631
0.03683846 -0.13271284 0.0735246 -0.11792778 0.11467628 0.054447513 0.18200633 -0.035501752
-0.09837666 0.047069572 0.058060415 -0.15790726 0.019697703 -0.04832296 -0.04494287 -0.0575466
-0.043714914 -0.083950385 -0.045039535 0.09857536 0.061402813 0.00218808 -0.026396083 0.013118815
-0.10087443 -0.17416705 0.117435224 -0.10482626 -0.11734169 -0.036618587 -0.014368407 -0.06158694
-0.028461989 0.017210182 0.037085965 -0.0048612636 -0.086242296 0.13724744 -0.046812776 0.00957137
-0.07695485 0.035136115 0.26976883 0.17171384 -0.13073614 -0.009739406 0.074162446 0.03092871

a2c_network.actor_mlp.0.bias f4 [256]
00000000: 82ab 62bd 582c bc3b 2887 1fbd b6e8 e43c
00000010: 97fc 873c 122c b9bb 82c6 d1bb 8425 61bd
00000020: 3290 51bd a6f6 11bc f4f1 643c 4957 21bc
00000030: 7145 19ba 492f a2bc c684 5abd 136e 243c
00000040: a763 26bd 325c a83d bba7 90bd 2721 9a3c
00000050: f4ad 47bd 8d81 1cbd 4cf2 b13c 7d26 f73c
00000060: 636f 86bd 1a71 7fbc c84f 943c c2cc 3e3d
00000070: ee9c 31bd add7 6f3d b692 90bd 1619 423c
00000080: 837e 83bc 1621 19bd 28ce 2d3d d8fa c73d
00000090: 2cc7 a9bb 39ba 24bc 7d09 92bc ac13 343d
000000a0: cafa f53c 90d0 833d f5c2 1dbc 7258 7a3d
000000b0: 4cdb 4cbc 3465 a6bc b48c a13c 06d8 8e3c
000000c0: be83 f6bc e8b3 0bbd 9810 5ebb d221 3ebd
000000d0: 8cda 0abd 8037 cf3c c127 4c3d 463b 953d
000000e0: 8b92 cfbc 4c42 103c b627 803d 16a0 b03c
000000f0: 824e 023d db90 373c 4340 d2bc 3763 e4bc
00000100: 5a9c 05bd 1838 8fbc 7170 82bd ed8e c1bc
00000110: 85f8 5d3d bac5 2cbc 3a77 2bbd 0d95 cabc
00000120: 284e 473d 4492 6b3c ff33 e4bc 15f3 52bc
00000130: a9fb 89bc a69f a93d f335 3fbc f4ad 9dbc
00000140: a795 093a a470 17bd 701c 5dbd b8e8 d6bb
00000150: db4d 9fbb 303c 9dbd 39ac 9bbb 8d4b f53b
00000160: cf67 f23b 3882 00bd f3f8 2d3d 500c ca3c
00000170: 0f05 12bd 5f4b 4cbc 600e 1b3c 4883 11bb
00000180: 66dc 12bd 1b2b 1bbd 98a1 8c3d 100d 02bd
00000190: 95ba 4bbd 44b9 aa3d 1b12 0ebd 836b a23c
000001a0: ce9f 51bc 13d6 133c 300a debc 08ea 4ebd
000001b0: 7c26 463b 5452 0ebc a78c d03b 1929 3e3c
000001c0: b643 0cbd e145 1c3c c8b5 c33c a48e e5bc
000001d0: 8e6a eebc 7b35 02bd ed6d b4bc 19fc bd3c
000001e0: 42e2 b6bc a720 453d 9f5c 2c3d 42cb 8b3c
000001f0: e691 26bb a92a ef3c 4fd1 293d 86d7 113b
00000200: c21f 803b 56fb 99bc 4126 933b 6b56 bf3c
00000210: c391 30bd b4d6 34bc 08d6 e6bb 86cd 073d
00000220: 6361 f9bd dde9 033d e76a 6abb c00d cdbd
00000230: 51f9 1dbc f0f2 3bbb 4c61 463c 6671 863c
00000240: 9ac9 43bb d6db 733c 831a 483d ac66 8b3d
00000250: 9521 df3c 0f77 6ebb 6cad 7cbd dc0e 273c
00000260: aa04 6abc 3a80 05bc 67ab 273c 50c5 193c
00000270: 2f7b fdbb c1c6 a33c c109 b53c a85b 0f3b
00000280: bca3 513d b2cb 8a3d 6ee1 25bd 83fd 36bd
00000290: 19ea f1bb ed23 d13c 8a5a eebc 6643 413c
000002a0: 168e 283c 9b01 b2bc a8be 18bd dab8 16bd
000002b0: d939 7a3d 081a ec3c a4d6 48bc 93d2 7abc
000002c0: d6b1 c53c 3f36 9dbb d886 38bc 8e48 76bd
000002d0: 502a 3e3d 28a5 6bbd cbab cdbd b3c2 98bd
000002e0: 6351 373c 15f5 18b9 42f5 853d 99ad f5bc
000002f0: f430 89bc ef2e c6bc 73c0 c4bc d101 45bd
00000300: 5646 80bd 6127 203b 96cb d2bd 65e3 bb3d
00000310: 7d97 033d bbb1 e7bc 0c9a c0bc 03e6 abba
00000320: a61a 073c 5dad 8cbc d0d7 5a3d 3c3d 3cbd
00000330: f9fb 87bd d5ce 79bb 2f06 07bc cd45 61ba
00000340: a692 0abd b39e 8a3d b8d0 063d cde2 b2b9
00000350: 6b5f 543c da3c e2ba 6cda e839 4383 3fbd
00000360: 2034 44bd 759a 073c a560 fcbc c2b2 323b
00000370: 3b64 d9bc 400b 86bc db49 393c 20ff dfbb
00000380: 4b54 753d 67f5 e73c cb1d e43d 66f5 813c
00000390: 3d26 38bd ca20 61bd a48d 123d 8876 243b
000003a0: 36b2 493d 74a3 bcbc 733b fe3c 18f2 863c
000003b0: 7580 2c3d cc4e 61bc 5f32 a3bc abea 913c
000003c0: 7bdd 6e3c e59d 9cbc 560e b53d 6878 a43c
000003d0: deb0 a6b9 eea2 973c c709 8c3d 19bd 71bd
000003e0: db67 d8bc e9c9 a2bd 8f36 1c3d 514d 0c3d
000003f0: cc35 8c3c 3795 793d 2b47 753b b5fa ccbc
-0.055339344 0.005742591 -0.038947254 0.027942996 0.016599936 -0.0056510055 -0.006401838 -0.05496742
-0.051162906 -0.008908903 0.013973702 -0.009847471 -0.00058468344 -0.019797938 -0.05334928 0.010036009
-0.04062238 0.0822071 -0.07063242 0.018814636 -0.04874988 -0.038209487 0.021721981 0.03016972
-0.06564214 -0.01559093 0.018104449 0.04658199 -0.04336255 0.058555294 -0.07059233 0.011846801
-0.016051536 -0.03738507 0.042432934 0.097646415 -0.005181214 -0.010054165 -0.01782679 0.043964073
0.030026812 0.064362645 -0.009629001 0.061119504 -0.012503456 -0.02031193 0.019720413 0.017436992
-0.030092116 -0.03410712 -0.0033884402 -0.046418972 -0.03389983 0.02529502 0.0498426 0.07286696
-0.025338432 0.008804869 0.06257574 0.02156071 0.031813152 0.01120397 -0.025665408 -0.02787934
-0.03261981 -0.017482802 -0.06369103 -0.023627723 0.054192085 -0.010545189 -0.04186175 -0.024729276
0.04865852 0.014378134 -0.027856825 -0.012875338 -0.016843634 0.08282404 -0.011670577 -0.019247986
0.0005248435 -0.036972657 -0.0539822 -0.006558504 -0.004861576 -0.076774955 -0.004750755 0.007485813
0.007397629 -0.031374186 0.042473745 0.024664074 -0.035649356 -0.012469142 0.0094638765 -0.0022203494
-0.03585472 -0.037882905 0.06866759 -0.03175074 -0.049738485 0.08336118 -0.034685235 0.019826656
-0.012794448 0.009023207 -0.027104467 -0.05051616 0.003023534 -0.008686621 0.0063644233 0.011606478
-0.03424426 0.009538145 0.023890391 -0.028022118 -0.029103544 -0.031789284 -0.022025073 0.023191499
-0.022324685 0.048126843 0.042080518 0.017064694 -0.0025416552 0.029195147 0.041459378 0.0022253706
0.003910036 -0.018796604 0.004490644 0.023356637 -0.04310776 -0.011037517 -0.0070445575 0.033154987
-0.12176778 0.03220545 -0.0035769285 -0.10012388 -0.009641961 -0.0028678738 0.012108158 0.016411494
-0.0029874803 0.014883956 0.04885341 0.068066925 0.027237693 -0.0036386882 -0.061688825 0.010196414
-0.014283339 -0.008148247 0.010233737 0.009385422 -0.007735632 0.019992234 0.022099378 0.00218747
0.05118154 0.06777133 -0.04049819 -0.04467536 -0.007382643 0.025529826 -0.029095907 0.011795854
0.010287782 -0.021729281 -0.0372912 -0.036797382 0.061090324 0.028821006 -0.012258206 -0.015308994
0.02413265 -0.0047977264 -0.011262618 -0.060127787 0.04642707 -0.057530552 -0.100425325 -0.07459011
0.011188838 -0.0001458715 0.0654092 -0.029990004 -0.016746975 -0.024192302 -0.024017548 -0.048097435
-0.062634155 0.0024437534 -0.10292737 0.091742314 0.032126892 -0.02828299 -0.023510955 -0.0013114813
0.0082461 -0.01717251 0.05342847 -0.045956835 -0.06639857 -0.0038117666 -0.00824122 -0.000859347
-0.03383126 0.06768551 0.032913893 -0.00034119785 0.012962203 -0.0017260567 0.00044413225 -0.04675604
-0.047901273 0.0082765715 -0.030807802 0.0027267192 -0.026537051 -0.016362786 0.011309112 -0.006835833
0.05989484 0.02831526 0.11138495 0.015864085 -0.044958342 -0.05496291 0.03577961 0.0025095064
0.04924222 -0.02302716 0.031034207 0.016472861 0.042114694 -0.013751697 -0.01992148 0.017812094
0.014579172 -0.019118259 0.08840625 0.020076945 -0.00031793764 0.018510308 0.068378024 -0.05901823
-0.02641671 -0.079486676 0.03813797 0.034253422 0.017115496 0.060933318 0.0037426453 -0.02502189

a2c_network.actor_mlp.2.weight f4 [128, 256]
00000000: a160 5cbd f162 803d a011 a3bd 743e a1bc
00000010: fb23 363c 0482 423d ab97 82bc 7313 8b3d
00000020: 0e7d d9bb 749c 913d 5a4d cb3d cb13 a2bd
00000030: 2987 21bd 9683 7b3c 0d46 97bc 5b20 243c
00000040: 8091 4fbd 4e96 4f3d e49f cabc 53bb 2ebc
00000050: d1d7 16bc cc0e 81bc 07e7 43bd 4f1f 1cbd
00000060: d0dc cfbc a5a6 bf3c c01c 823c 09c7 b9bd
00000070: 5c1d dd3c cc70 d0bd 686b 2fbb e5ce b6bb
00000080: 3109 b33d fe85 d0bb 8523 363d 3f3e 543b
00000090: d468 94bd fb8a a8bc 671f fcbc 8fdd 38bd
000000a0: d643 523c 636e fe3c 4d84 04bd 3dc8 0f3d
000000b0: cbf8 a9bd 7d7f 72bc 764c 303d bcc6 383d
000000c0: f867 6cbc 62df e2bc e565 cb3d e8ce be3d
000000d0: c85e e03b 0259 723c 84bc 90bd 0dde 2d3d
000000e0: 6409 243d 7c52 cbbd 966c 1abc e674 1abe
000000f0: 62d0 dcbc 369f f3bc 4eb9 1dbd bd34 0f3d
00000100: 511e db3b 7b8d 4a3d 244b 3ebc ea15 1bbc
00000110: 717e d23c a2cf c4bd d3c5 aa3c 8740 80bd
00000120: 9ea0 5bbd 95f0 2bbd 282c 6abc 5841 873d
00000130: ba8d 153d d298 09bd 7034 29bd 55f1 82bc
00000140: f6e0 b63d d730 5ebd 6bde e63c d91b 893d
00000150: 5513 7b3d bd93 50bc f93f 123c 0d3a c0bc
00000160: 3c43 09bd e2f6 97bd a3e3 a8bb d030 7fbd
00000170: 8747 713d e78a 19bc b93f b93d 4bf9 b5bc
00000180: 1656 113d 2e23 9f3c e9ea 353d ef6d ce3b
00000190: 326e ac39 ee36 893c 7ef5 3c3d 59e1 6a3c
000001a0: 821d 2e3d a90b d2bc 0dfd 303d d0d8 a4bb
000001b0: 801d c0bc 7f16 5fbd 2c55 19bc 6da8 e2bb
000001c0: 247d 7e3b b0e2 2e3d 221e bfbc d80c c9bc
000001d0: e656 c13c 24d2 203d a5a8 71bd 5f70 3fbd
000001e0: eb66 6b3d cd43 edbb 49b5 893c e70c 293c
000001f0: d4de c83d 4455 99bd 4432 bd3c 65bc 9bbd
00000200: 92aa 9e3d ca6d d0bc f48f 153d 6698 c7bc
00000210: 71a4 0bbd ebd5 1abb 4ebd c13c d21c aebc
00000220: 86ab 51bc af5c 943d a37d 3d3d 4b74 2f3d
00000230: b5f3 1bbd 69fb 12bd 1aab 16bd 9c1d 93bd
00000240: f608 18bd 53d6 f83a 7c26 d53c 742a 453c
00000250: 5e3f 9d3c dc84 dabc c6c1 dc3c 87b3 93bd
00000260: fde7 08bd 28c1 193d f049 8cbc a84b a13d
00000270: 276d 9dbd 5996 37bd 3a3c 7cbd b2df bcbd
00000280: befa a9bd 6116 8f3d e0b1 57bc 2399 753d
00000290: 807d 553d 2cc1 4b3d 8f01 e4bc 8d5a a53d
000002a0: c27f 8e3d c25c b93c ffb7 7cbc 2215 773d
000002b0: 7101 be3d 22d9 10bd e08f 023d d629 2ebd
000002c0: 0355 d5bc 89c1 55bd 2b8e 4bbd 6874 533d
000002d0: 7338 82bb 05a0 cbbc e56a 00bd 9097 84bc
000002e0: 9cf2 c9bc 066d 43ba f68c 963d efb2 1f3c
000002f0: 64af c6bb 68d4 13bd d297 9abd 7527 3c3c
00000300: 0c05 c9bc 9220 3a3d d826 0cbd ec2e e83d
00000310: 2441 b6ba 47ab 6f3d b9ff 8f3d 0fa5 4bbc
00000320: 8e9a a43d 0868 c73c f669 ac3c b549 5c3b
00000330: 0217 99bd 1528 41bd a162 f13c b4d8 813d
00000340: ece4 363d 315c 97ba 9e41 b53d 455a b9bd
00000350: b6d6 643c d25a 90bc 5f47 433b 32fc c23c
00000360: 0ca7 b33d 6ebd 3b3a 977c 563d b477 9dbc
00000370: 2bb6 3fbc ed39 8b3d 079f 9e3c 9243 0c3d
00000380: 10d6 39bd 1acd 9d3d 4513 1fbd 629f 28bc
00000390: ddac 12bd 3608 74bc 6cb2 ac3c 5280 cd3d
000003a0: 9efa 483d 9064 f63c 58eb 4f3d c00b b63d
000003b0: b030 0ebd faea 483c bc2c 7e3d a481 e53d
000003c0: e958 17bb 6062 40bd 2053 353c 543a c5bc
000003d0: 27a4 143e 5fcc 90bd d56d 1dbd a736 493d
000003e0: d02d c0bd 23f5 2cbd 4439 ee3c a796 993d
000003f0: 852e 5fbd 509f 7d3d 7d5f a43d d51b 0d3d
-0.05380309 0.062688716 -0.07962346 -0.0196831 0.011116977 0.047487274 -0.015941462 0.06790819
-0.006637222 0.07109919 0.09926863 -0.079139315 -0.03943554 0.015351197 -0.01846602 0.01001748
-0.05067587 0.05068045 -0.024734445 -0.010664779 -0.009206728 -0.015754126 -0.047827747 -0.038115796
-0.025373846 0.023394892 0.01588285 -0.09071166 0.026991539 -0.10177764 -0.00267669 -0.005578863
0.087419875 -0.0063636294 0.044467468 0.0032385734 -0.07246557 -0.020574084 -0.030776693 -0.04513317
0.012833556 0.031058496 -0.032352734 0.03510307 -0.082994066 -0.014800903 0.04304167 0.045111403
-0.014429085 -0.027694408 0.09931544 0.09316808 0.0068472363 0.014791729 -0.070672065 0.042448092
0.040048018 -0.09927842 -0.009425303 -0.15083656 -0.026954833 -0.029739004 -0.0385068 0.034962405
0.0066869636 0.049451333 -0.011614595 -0.009465674 0.025695058 -0.09609915 0.020846283 -0.062623076
-0.053619973 -0.041977484 -0.014292754 0.0660426 0.036512114 -0.033593006 -0.041309774 -0.015984217
0.08929627 -0.054245796 0.028182229 0.06694765 0.061297733 -0.012730536 0.008926385 -0.02346518
-0.033511385 -0.07420136 -0.0051540895 -0.06230241 0.058906104 -0.009371496 0.09045357 -0.022213599
0.03548249 0.019425955 0.04441348 0.006299726 0.00032888498 0.016749825 0.046132557 0.014335954
0.04250861 -0.025640326 0.043210078 -0.005030729 -0.023451567 -0.054464813 -0.009358685 -0.0069170506
0.0038831914 0.042696655 -0.023329798 -0.024542257 0.023601007 0.039262906 -0.058998723 -0.046738025
0.057471197 -0.0072407485 0.016810076 0.010318018 0.09808126 -0.07486966 0.023095258 -0.07604293
0.077473775 -0.025442977 0.036514238 -0.024364661 -0.03409237 -0.002362604 0.023649838 -0.021253977
-0.012797242 0.072442405 0.046262395 0.042835515 -0.038074214 -0.035884295 -0.03678427 -0.07183382
-0.03711792 0.0018984772 0.026019327 0.012034047 0.019195255 -0.02667468 0.026947867 -0.072119765
-0.033424366 0.037537724 -0.0171251 0.078757584 -0.07686835 -0.044821117 -0.061580874 -0.09222354
-0.082997784 0.0698669 -0.013164967 0.059960496 0.05212164 0.04974477 -0.027832774 0.08073912
0.069579616 0.022627238 -0.015424727 0.06032289 0.09277619 -0.035363324 0.03187549 -0.042520367
-0.026041513 -0.052186523 -0.04969613 0.051624686 -0.0039740144 -0.024856577 -0.031351943 -0.016185552
-0.024651818 -0.00074549054 0.07351105 0.009747251 -0.0060633887 -0.03609124 -0.07548489 0.011484017
-0.02453854 0.045441218 -0.03421673 0.11337075 -0.0013904911 0.058512952 0.07031197 -0.01242949
0.080372915 0.024341598 0.02104662 0.0033613269 -0.074750915 -0.047157366 0.029465975 0.06340161
0.04465191 -0.0011547861 0.08850406 -0.09050421 0.013967207 -0.017621431 0.002979718 0.023801897
0.08772096 0.0007161711 0.052364912 -0.019222118 -0.011701147 0.06798158 0.01936294 0.034244128
-0.04537016 0.07705136 -0.038836736 -0.010291906 -0.035809387 -0.014894536 0.021081172 0.10034241
0.049067132 0.030077249 0.05076155 0.0888896 -0.0347144 0.012263054 0.06205438 0.112063676
-0.0023093766 -0.046968818 0.011067182 -0.024075665 0.14515744 -0.07070231 -0.038434822 0.049124386
-0.09383738 -0.042225968 0.02908004 0.07499438 -0.054487724 0.06191951 0.080260254 0.03445037

a2c_network.actor_mlp.2.bias f4 [128]
00000000: b427 033d c206 7dbc 3bf6 2d3d 678d 67bd
00000010: a882 83bd 9765 ef3c 8239 86bc d4fe 74bc
00000020: 276a 85bc 4a28 3ebc 652a db3b 312d f73c
00000030: f845 3abb 6594 4cbd 361a b93d c5c9 aebd
00000040: 7e57 0cbd a3f6 4abc fe03 82bd 7014 1d3b
00000050: 4d80 f7bc 44fc 98bc f055 f7bc a916 febb
00000060: 6efa 22bd 174d 76bd d4f0 973b 58c5 7bbc
00000070: ccac 2bbc 80b3 b93c 75b3 9ebd 8270 04bd
00000080: e77c 4b3d db28 d83c dedb b0bc 444e 4abd
00000090: c91c cebd 52a4 18bc 51df 5abd d397 3fbd
000000a0: 3675 debc 7951 0d3c 4499 8b3d ec1f d1bd
000000b0: 0ac7 76bd 2c81 67bc ab7d 0cbd ac74 ecbc
000000c0: 82bc 013d c2f2 09bd 9dcf 073d 4c46 4e3c
000000d0: d171 ddbd 6c6e 3f3b 89a2 b43a cf09 8d3c
000000e0: 65b4 3b3d afeb cc3c 5892 3f3c fca9 80bd
000000f0: fadc d33c 463f 7e3d 065f cabd 4099 eb3c
00000100: a318 b13d b8f2 1fbb a4ea 54bd 40bf 753c
00000110: 15c3 b93c faf5 b53c e9e0 f63c c91f 673d
00000120: b332 d1bc 15bc fa3c 5b4a 7cbd 5b7f 133d
00000130: 786b 843c 5ac8 483c 2559 813c 2fc0 debc
00000140: 4516 c03c 75b6 41bd 040b a13c c2ca 983c
00000150: a802 013d 519d 783c 1af6 3bbd ef47 c5bd
00000160: d91f 99bc 77d4 d33c 3ca0 553d 8682 b73c
00000170: 8691 8bba 3a4a 83bb b9f6 3bbd 3b69 803c
00000180: 32b6 243d 7a5f 5abd 385a a13b 301f eabc
00000190: a561 883c b7c4 983c 6591 3e3c e7fd f23b
000001a0: 76c0 6f3b 816e f5ba 1c2a aa3b 1500 30bc
000001b0: 3fcc cb3c 17a2 00be 6eae c5bc 8466 e13c
000001c0: 44c9 a1bd e3f0 eb3c 7808 bd3c b1c3 653c
000001d0: e3b3 ae39 ab93 943b b408 b83b 2667 4abd
000001e0: a486 183d 27bf 093d e57f b63c 0d93 123b
000001f0: dc31 cbbc c938 a43c 7192 e93c c7cd 93bd
0.032020286 -0.015443506 0.04247115 -0.056531336 -0.06421405 0.029223246 -0.016384844 -0.014953334
-0.016285969 -0.011606285 0.0066884034 0.030172916 -0.0028423052 -0.049946208 0.090382025 -0.08534578
-0.034263127 -0.012387904 -0.06348418 0.002396848 -0.030212546 -0.018674977 -0.030192345 -0.007754166
-0.03978961 -0.060132112 0.0046368632 -0.015366875 -0.01047821 0.0226686 -0.077490725 -0.03233386
0.049679663 0.026386669 -0.021589216 -0.049391046 -0.10064084 -0.009316521 -0.053435627 -0.04677565
-0.0271555 0.008625382 0.068163425 -0.10211167 -0.060248412 -0.014129918 -0.034299534 -0.028864227
0.031673916 -0.033678778 0.03315698 0.012590002 -0.108127244 0.0029210104 0.0013781349 0.017216591
0.045826335 0.025014726 0.011692606 -0.06282422 0.025862206 0.06207206 -0.098814055 0.028759599
0.08647277 -0.0024406146 -0.051981583 0.014999211 0.02267603 0.022212017 0.030136542 0.056426797
-0.02553687 0.030607263 -0.06159435 0.036010128 0.016164526 0.012254799 0.015789578 -0.02719125
0.023448119 -0.047293145 0.019658573 0.01865137 0.031496674 0.015174226 -0.045888998 -0.09632861
-0.018691944 0.025858147 0.052154765 0.022401106 -0.0010648228 -0.004006651 -0.04588959 0.015675178
0.040212817 -0.05331371 0.004924085 -0.028579324 0.016648123 0.018648488 0.011631344 0.0074155214
0.0036583222 -0.0018724949 0.005193008 -0.010742207 0.024877666 -0.12561832 -0.024131026 0.027514704
-0.078997165 0.028801387 0.023075327 0.014023707 0.00033321892 0.004534205 0.005616272 -0.049414776
0.03723778 0.033629563 0.022277782 0.002236548 -0.024804048 0.020046609 0.028512212 -0.07216983

a2c_network.actor_mlp.4.weight f4 [64, 128]
00000000: c1ab babb c5aa a63c 1085 0a3d f9ab 5cbd
00000010: fd02 193c 7e7d da3d 897c 0a3d 2842 bc3d
00000020: 7408 8ebd 0a33 0d3c e575 1d3b 7c4a 40bd
00000030: 0839 c03c aa69 33b9 f8e1 febc cd0b e2bc
00000040: 18b5 cdbd b811 83bd e60a c3bd db94 4a3d
00000050: bb36 56bd 4f07 b4bc 8a5c 18bd 9b4a 38bd
00000060: a385 ee3d f921 3d3d c257 60bd abf0 9fbd
00000070: 662d 98bd 15cc 2e3c 2064 edbc 4801 c0bd
00000080: ea90 a83d 012d aa3d 4020 87bd 1eba 8b3d
00000090: 3793 693d 48b6 cabc fbef d53d 3b5b cdbd
000000a0: 769b 82bd c1b3 69ba 17ed b9bd 0822 32bd
000000b0: f19f 67bd 4203 123c 6363 e93c f043 c73d
000000c0: a482 2339 49f6 813d df75 d8bc 7d31 1e3d
000000d0: 4a5c c03d cbd6 643d b30f 76bd 91b5 603d
000000e0: 8b08 be3d d442 34bc 91a8 173d 2a82 30bd
000000f0: 9e86 a13b 693d c63b 5d95 d4ba 6ef0 e5bc
00000100: d7c1 4e3c df9d c3bc 88d3 033e 7c0d dd3b
00000110: b090 ba3d cfdc 8f3d 7ebc 9bbd 835c 303d
00000120: f54a c4bd 7470 d5bc 425c 91bd 9bb6 c03d
00000130: 3322 d4bd 5b2d 813c 82d8 5b3d e98b bcbd
00000140: 0368 8d3d 0069 62bd 05e5 9bbd c1d3 a3bc
00000150: b0a5 833d fc4c edbc 943d 8d3d aff9 e5bc
00000160: a52e 3e3d 945c d63c 3a0b a8bd d4c6 813d
00000170: 500d df3c f3d4 04be c76d dbbd a2a1 f73c
00000180: 8b83 f73c b0c2 fcbc 2278 93bd bc58 00bd
00000190: 734c 4b3d 4d4d 133d fe0e f23d d692 b1bd
000001a0: f0cd 4ebd 41e8 113e 0ee7 a13d 3df2 813c
000001b0: 9f00 d5bb 3d4e 353c 12ce 80bc 5737 bd3d
000001c0: 6c63 3ebd e4e4 8d3d 7a5d fe3c 07b6 7b3c
000001d0: 0820 833c d495 2bbc 653c 2b3d b352 f2bc
000001e0: 87e8 9f3d 8c1f 95bd 5281 a93d 7874 c9bb
000001f0: cc94 5d3d d3f8 603d d061 ba3c 33c5 94bc
00000200: cb2a 32bd b0ec 843d 8b07 863c 9c0a 24be
00000210: 47ff 303d 86f7 3fbd 41ac 9cbd 3ad6 7d3d
00000220: 968c 25bb 8735 75bd 592e 2ebc f434 94bd
00000230: 05a6 1cbd 3ae8 ec3c 613e abbd dbb4 70bd
00000240: c18f d5bd 0a2e 343d e084 26bd 3eee 663d
00000250: fa93 63bd d2c2 78bb 7a79 6a3d 76df 103d
00000260: fa46 0c3e a650 61bd 7c4c bfbd 7449 aebd
00000270: 561b 743d 124e 55bd 7dda a7bd d208 9c3d
00000280: 0a83 413c 7bfe 1b3d 99f7 0b3d 37fd 61bd
00000290: 4105 50bd cf59 173d 6f9f 11bd f4c1 733c
000002a0: 947a 0dbd 87be 0c3b 8a55 b3bd dc8e afbd
000002b0: 7779 533d d364 85bd ca53 c23c 6ffc 043e
000002c0: af4b 9b3d 6505 383e 2ff2 893d be5e aabd
000002d0: 049e 01bc 2f9d 98bd 3f08 1c3d 98bd b13c
000002e0: 6d9d 763d 7e80 b5bc 78da 373d d4cc 283d
000002f0: 0d68 b1bd ea13 95bd 80f3 623d b169 a4bd
00000300: cbc1 e1bc 0484 a9bd dff9 403d 193e bebd
00000310: b217 abbd c072 cfbd c49a 3abd 8dff f9bd
00000320: 45ce dcbc ffc6 373c 82c2 4cbe 6b22 3c3d
00000330: 8c22 2a3c 2d68 99bd 90ae a8bb 6626 9fbd
00000340: f873 b43d 3b73 9e3d bee5 40bd 71e9 0fbd
00000350: 7231 a03d f2fa 203d 77e0 113a 5872 463c
00000360: bf91 e23a 47bb 583d 063c bbbc 3536 66bd
00000370: 64bc 8e3d 5d39 50bd ee7b 4abd 35ee 0cbe
00000380: e75e 97bd 23d5 5dbc f731 3a3d 110b e03b
00000390: a225 a0bd 2896 32bd d822 9cbc 086a 96bd
000003a0: 0b39 233d 29f8 a63c 262f 5a3d 0eda 873d
000003b0: 69bf d8bc 5df7 9abc cd2e a0bd 72b3 e63d
000003c0: 13f1 233b 0f50 5b3c e955 093d 5fba 773d
000003d0: 4fc3 133e 35fd 813b b503 aabc 4fbd fabd
000003e0: 4a3b a1bd 8b2b b13b c559 5f39 e72e 62bc
000003f0: dc29 753c cf9c b23d 1ae3 253c 09eb 8f3d
-0.005696744 0.020345101 0.033818305 -0.053874943 0.009339091 0.10668467 0.033810172 0.09192306
-0.06935206 0.008618126 0.002402657 -0.046946034 0.023464695 -0.00017110133 -0.03111361 -0.027593518
-0.100443065 -0.06399864 -0.09523563 0.049458366 -0.05229829 -0.021976141 -0.037197627 -0.044993024
0.11646583 0.046174977 -0.054771192 -0.07809576 -0.07430534 0.010668774 -0.028978407 -0.093752444
0.08230765 0.08309365 -0.06597948 0.068226084 0.05702516 -0.024745122 0.10446163 -0.100271665
-0.06377308 -0.000891503 -0.090784244 -0.043489486 -0.056549016 0.00891191 0.028489774 0.09729755
0.00015593559 0.06345803 -0.026423393 0.038621414 0.09392603 0.055868905 -0.060073566 0.054860655
0.09278973 -0.011002261 0.03702599 -0.043092884 0.0049293777 0.006049801 -0.001621883 -0.028068747
0.012619457 -0.02387899 0.12873662 0.006745992 0.09109628 0.07024538 -0.076043114 0.043056976
-0.095846094 -0.026054598 -0.07097675 0.09409829 -0.103580855 0.015768697 0.053673275 -0.09206373
0.06904604 -0.055275917 -0.076120414 -0.019998433 0.06428087 -0.028967373 0.06896511 -0.02807316
0.046431202 0.026167192 -0.08205266 0.063367516 0.027228028 -0.12971859 -0.10714298 0.03022844
0.030214092 -0.030854553 -0.07200648 -0.031334624 0.049633455 0.03596239 0.11819266 -0.08670585
-0.050489366 0.14248754 0.07905398 0.015862579 -0.006500318 0.011066017 -0.015723262 0.09239071
-0.046481535 0.06928423 0.031050432 0.015363223 0.016006485 -0.0104727335 0.041805644 -0.02958045
0.07808023 -0.07281408 0.08276619 -0.0061479174 0.054096982 0.054924797 0.022751719 -0.018160438
-0.04349784 0.06490457 0.016361019 -0.16019672 0.0432122 -0.046866916 -0.07650042 0.06197188
-0.0025260798 -0.0598655 -0.010631167 -0.072366625 -0.038244266 0.028919328 -0.08361507 -0.058766227
-0.104278095 0.04398922 -0.040654063 0.05637955 -0.055561043 -0.0037957919 0.057244755 0.03536936
0.1369895 -0.055008553 -0.0934076 -0.08510104 0.059596382 -0.052076407 -0.0819597 0.0761887
0.011811027 0.03808449 0.034171674 -0.055173125 -0.05078626 0.036950883 -0.03555244 0.014877785
-0.034540728 0.0021475868 -0.0875655 -0.0857217 0.05162951 -0.06513371 0.023721594 0.12986921
0.07582795 0.17970808 0.06735646 -0.08318852 -0.007911209 -0.074518554 0.0380938 0.02169685
0.060208727 -0.022155996 0.044886082 0.041210964 -0.08662424 -0.07279189 0.055408 -0.080279715
-0.027558228 -0.08277133 0.047113296 -0.09289188 -0.08354129 -0.10129309 -0.045557752 -0.122069456
-0.026953826 0.011216878 -0.19996074 0.04593126 0.010384213 -0.07490573 -0.0051477626 -0.07770996
0.08811182 0.07736822 -0.0470941 -0.035134736 0.07821931 0.03930182 0.0005564759 0.012112223
0.0017285867 0.052912977 -0.02285577 -0.05620404 0.069695264 -0.050835956 -0.049434595 -0.13762744
-0.07391148 -0.013539585 0.045457806 0.0068372567 -0.07819678 -0.04360023 -0.019059584 -0.073444426
0.039849322 0.020382004 0.05326762 0.066333875 -0.026458459 -0.01891678 -0.078214265 0.11264695
0.0025015518 0.013385787 0.033529196 0.06048047 0.14429973 0.003966952 -0.02075372 -0.12243139
-0.078726366 0.005406802 0.00021300379 -0.013805128 0.014963593 0.08721315 0.010124946 0.07027251

a2c_network.actor_mlp.4.bias f4 [64]
00000000: 1146 883c 2d35 6abd 0ed3 443d 65ca aa3c
00000010: 5368 0abd 968d febc 0e9e 45bd a33e 7fbd
00000020: 709e 7bbd d23c 04bd 704e d8bd 00bf 2a3d
00000030: 8000 8f3d 0347 cebb e4f4 8dbd 174e e0bb
00000040: f377 49bd 40fe 2abd c47c 593d 5dff 2abd
00000050: a94b 82bd 5321 2abd a345 5bbd 73e9 7fbc
00000060: 36c0 8e3c c44f fabc fc2c 1cbd 6d57 2f3d
00000070: 51d4 643d 5316 9fbd aa5d c5bd 8691 a3bc
00000080: 78b7 67bd ff88 873a 9352 c83c 6702 9cbd
00000090: d888 91bd 0933 bd3c e95b 69bb f659 c0bb
000000a0: f4f6 ca3c 72d4 cd3c a0b4 3ebd fe46 e63b
000000b0: 63ff c3bd 0eef 21be d90c 723d b5fe ee3c
000000c0: 85b7 6abd b779 a7bd dc34 363d 808a 72bd
000000d0: dace 0d3d b95e 5abd 293b c03c 1efc 66bd
000000e0: 6d2e 1cbd d19d 443d a964 4bbd 93fa 6dbd
000000f0: eec7 173d 6c32 92bd cff0 82bd 81a9 78bd
0.016634973 -0.05717962 0.04805284 0.020848462 -0.033790898 -0.031073373 -0.048246436 -0.062315594
-0.061430395 -0.032284565 -0.10561836 0.041686058 0.06982517 -0.0062950864 -0.06931475 -0.0068452465
-0.049186658 -0.041746378 0.0530975 -0.04174744 -0.06362087 -0.041535687 -0.053533208 -0.0156196235
0.017425638 -0.030555613 -0.038128838 0.042807985 0.055866543 -0.0776793 -0.096370056 -0.019966852
-0.056571454 0.0010340511 0.024453437 -0.07617646 -0.07106179 0.023095625 -0.0035607761 -0.005870099
0.02477596 0.025125716 -0.046558976 0.007027506 -0.095701955 -0.15813848 0.059094284 0.029174188
-0.057303924 -0.08177512 0.044484004 -0.059214115 0.034621097 -0.05331299 0.02346571 -0.05639278
-0.038130213 0.048002068 -0.049656544 -0.058100294 0.037055902 -0.071385235 -0.06393587 -0.060708527

a2c_network.value.weight f4 [1, 64]
00000000: 0216 953d 5488 6a3c d8b2 ee3c 43ea fa3d
00000010: e96b 55bd 987b b13c 26ce 733c 1d35 3f3c
00000020: 1fe5 a3bc a132 afbc 6e73 293d cdab d73c
00000030: fa22 313c 0454 3c3c b629 8cbd 12a3 bcbc
00000040: 034b c4bd 5ea1 9dbd 2d7c a13d 71e4 2dbc
00000050: 3244 05be 831b 033d 1d8b 2e3c 7aa4 dcbc
00000060: 6194 91bd b44a d93c b687 ccbd 3f51 413d
00000070: d20f 8d3c 4ccd 96bd a161 3abc 20ed 92ba
00000080: cd4b f9bd 829f bebc ac3f bdbc b7e5 dcba
00000090: e3b3 e6bd ab68 783d 54ac aa3c 5df5 25bd
000000a0: 11a5 793d d6af c7bb fa19 2cbc a2bb 103d
000000b0: 8b0b 82bc 8f69 933c a320 8c3d fa34 0bbd
000000c0: 12b8 b9bc 84f6 f3bd 715f 6f3b 4bd1 33bd
000000d0: 3ba7 bc3d ea6f 1abd 4b90 883c 81fa f9ba
000000e0: 7167 6fbc b83e 633d 68ed 77bb 19e6 11be
000000f0: f0e4 e93d 8988 b1bd a106 01bc fb32 fa3a
0.07279588 0.01431473 0.029138014 0.12251713 -0.052104864 0.02166538 0.014880693 0.011670378
-0.020006714 -0.021386446 0.041369848 0.026327038 0.010811562 0.01149464 -0.06843893 -0.023026977
-0.0958462 -0.07696794 0.07885013 -0.010613547 -0.13014296 0.03200866 0.010653284 -0.026933897
-0.07108379 0.026524879 -0.09986822 0.047196623 0.017219458 -0.07363376 -0.011375816 -0.0011209585
-0.12172661 -0.023269419 -0.02310165 -0.0016853128 -0.112647794 0.060646694 0.020834126 -0.0405172
0.060948435 -0.0060939593 -0.01050424 0.03533519 -0.015874645 0.01799467 0.068421625 -0.03398607
-0.02267078 -0.119122535 0.0036525393 -0.04390077 0.09211584 -0.037704386 0.016670367 -0.0019071848
-0.014612065 0.055479735 -0.0037830714 -0.14247932 0.114206195 -0.0866862 -0.007875116 0.001908868

a2c_network.mu.weight f4 [8, 64]
00000000: e0aa cf3c 5fef 103d 284a 1abe dee2 4f3d
00000010: 1f08 553b 0782 363d b1fc 9dbd 67ff f83c
00000020: 1722 f1bc f244 b63d 8d0c 593d bf21 2c3d
00000030: d475 86bd ff85 1ebe 0d96 0f3e 9003 dbbd
00000040: cb00 643c 26fc 6d3b b277 f13c 21c3 27bd
00000050: dc93 813c 9c52 993d fee1 0f3d 0bad 0abd
00000060: b27b 80bd 8dc2 f33d e7f6 443c 76e0 053e
00000070: de84 fdbd bf56 d23d f0d4 36bd fc99 b9bd
00000080: e8bd b2bd a74c cf3d da93 b9bd 32d7 403e
00000090: cc76 1c3d a54c 143d 530b 99bc e8ff d1bd
000000a0: fe37 cb3c 7d55 303e 17a9 0a3e 8e67 f83c
000000b0: 438d 15be 9f92 7b3c c141 0abc 85eb b1bd
000000c0: fc51 b1bb ba12 9c3d 67d1 40bd 7fc1 5f3d
000000d0: 1d23 8a3c 4e65 583c c71d a0bd 47ff 62bd
000000e0: 6407 9abc 7a7b 12be 3f5a 993d c71f 0dbe
000000f0: 7e79 7ebb 234a d63d 1d01 733d 6b1d 033e
00000100: 2b69 013d bee7 abbd 5bab 8cbd b676 bc3c
00000110: b351 063c 4aa7 debd 8d29 a3bd 23cd 903d
00000120: cda1 bcba d218 a2bd 57a7 bc3c c74c 88bc
00000130: 86c4 b2bd e53f 43bd 1aab 183d 4594 d3bc
00000140: bb87 22be 59db ac3b 557a 74bd 2523 c83d
00000150: 922f 043e 6a71 213d 6916 aa3c 44a4 7a3c
00000160: 2aec 3dbc 75b1 b63d a054 c8bd 02e0 60bd
00000170: d297 f03d b588 3f3d d084 023d c3cf 2abd
00000180: 6943 473d d75d 8c3d b940 1f3d 74b6 b0bb
00000190: be8f bbbc 4efa f03d 0507 113d f32f 1bbd
000001a0: 5d6a f43b e31b f93c 44fc 49be 509b e23d
000001b0: efa7 dbbb 07e9 cd3c c5c7 0bbe 100f 99bd
000001c0: 4dda 1ebd 632a 063e 9492 fb3d 8b66 2e3d
000001d0: 6e44 05be 4f96 ac3d 6876 293e 9a0b 4c3e
000001e0: 5375 5cb8 e0e0 50bd c9d5 083e 561a 5cbd
000001f0: 15a5 1f3d bec7 a9bd e755 583d 4e8a 5a3d
00000200: 6934 013d 40d2 e63c 05aa 37bd f1a8 99bc
00000210: 2b41 dd3c a409 133e 672c 223e 04dd 763d
00000220: 1eb8 85bd 038f 0dbe 98ae 1ebb 20db 10be
00000230: 360e 9b3d 62ac e73d 0e18 2dbd 8016 053d
00000240: 1fb3 21be 73ac a0bd 1cb4 9abd 5075 b2bd
00000250: e982 ab3d ff34 833d b00c b03d 2f9a ec3c
00000260: 7a36 ccbd 805f a53d 1758 9c3b c726 27bc
00000270: e81e ecbd 7527 073e 6f04 e33d 0e63 e23d
00000280: 1f90 92bd bbb5 5fbd 11a1 bb3d 8d07 253e
00000290: 8db6 85bd 55b5 563d 030a 383d b93b 08be
000002a0: d143 cfbc fe4a 9abd 0bbe bcbd 05a7 733d
000002b0: 5431 063e 382d 423e 1584 843d 0f08 3fbc
000002c0: 1cd7 c83d 92e6 a7bb a1f1 9fbd eef7 fdbc
000002d0: 9a98 96bd 5a2f 2d3e 46f7 3ebd 138d d1bc
000002e0: feb4 b03d fb27 a33d fcad f1bc 91ed cbbd
000002f0: f62d 753d ec7a 3f3d 12e9 033e da73 18bd
00000300: a482 a8bd b0aa a7bd 2470 bfbd 601b 00bd
00000310: db37 863d 87c6 a13d a5ad a3bd 9e7c 20bc
00000320: 9800 e93c 7952 8bbd 097c c6bc 07ae 643d
00000330: 9734 be3d b324 64bd da27 d8bd 94e5 673d
00000340: 7da9 97bd 09b7 ff3d 5bca b83d 9bff b3bb
00000350: 9108 733d b5c0 dc3d 1c6c 07bd 5f39 fa3d
00000360: 34a8 2fbd 3ffd 3c3d ff17 813d 6464 663d
00000370: 46ea dd3d cb73 cf3c 9846 bcbd d146 80bd
00000380: 38e4 55bd bdf0 08be 5704 bdbc afc1 88bb
00000390: a5cf abbd 5fc2 093d ecd3 993d 25e4 8abb
000003a0: 9a01 653c 9c2d 393d 1188 823d 6054 e83d
000003b0: b26f 08bd e921 61bc 8eb9 943c c864 9a3d
000003c0: 4a43 5bbc 0efc c53c 7e32 353d 6bed 813d
000003d0: 8b5a 01be ecc9 07be 3821 6cbc 0658 9e3c
000003e0: 75e9 45bc b83d a33d dbb6 96bd eb6d 94bc
000003f0: 76be 653d 2fb4 f4bd 6c86 efbb 6eca a8bd
0.025350034 0.035384532 -0.15067351 0.050753467 0.0032506061 0.044557597 -0.07714213 0.030395223
-0.0294352 0.08899869 0.052990485 0.04202437 -0.06565443 -0.15480803 0.14022084 -0.10694039
0.013916205 0.0036313622 0.02947602 -0.040957574 0.015817575 0.074864596 0.035127632 -0.033856433
-0.06273593 0.11902342 0.012021757 0.13073906 -0.12378858 0.10270452 -0.044636667 -0.09062573
-0.08727628 0.10122042 -0.090614036 0.1883209 0.03819923 0.036205906 -0.018682158 -0.10253888
0.024806973 0.17220111 0.13541065 0.030322816 -0.14604668 0.015354781 -0.0084385285 -0.086875
-0.0054113846 0.07620759 -0.0470747 0.05462789 0.016862446 0.013207747 -0.078181796 -0.055419233
-0.018802352 -0.14304915 0.07487916 -0.13781653 -0.003882974 0.10463359 0.059327234 0.12804191
0.031594437 -0.08393811 -0.06868621 0.023005825 0.00819819 -0.108717516 -0.079669096 0.07070377
-0.0014391482 -0.0791489 0.023029013 -0.016638173 -0.0872889 -0.047668356 0.03727255 -0.025827536
-0.1587209 0.0052751717 -0.059686977 0.09772328 0.12908772 0.0394148 0.02076264 0.015297953
-0.01159195 0.08920566 -0.09781766 -0.05490113 0.117477074 0.046761233 0.03186494 -0.041702043
0.04864827 0.06853836 0.038880084 -0.005392844 -0.02289569 0.11766492 0.035407085 -0.037887525
0.0074589686 0.030408805 -0.19725138 0.1106478 -0.006703369 0.02513553 -0.13650425 -0.07473576
-0.038782407 0.13102107 0.12283817 0.04257826 -0.13014385 0.084271066 0.16549075 0.199263
-5.2561354e-05 -0.050995708 0.13362803 -0.053736053 0.038975794 -0.08290051 0.052816298 0.053354554
0.031544123 0.028176427 -0.044839878 -0.018757315 0.027008614 0.14359146 0.1583725 0.06026937
-0.06529258 -0.13824086 -0.0024212953 -0.1414609 0.0757107 0.11312176 -0.04225927 0.03249216
-0.15790986 -0.07845392 -0.075538844 -0.08713782 0.083745785 0.064065926 0.0859617 0.028882114
-0.09971328 0.08074856 0.0047712433 -0.010202116 -0.115293324 0.13198645 0.1108483 0.110540494
-0.07156395 -0.05461667 0.0916158 0.16116162 -0.065289594 0.052419025 0.044931423 -0.13304032
-0.025300892 -0.07533835 -0.09215935 0.059485454 0.13104755 0.18962562 0.06470505 -0.011659636
0.09806654 -0.0051239217 -0.07809759 -0.031002011 -0.07353325 0.16912594 -0.046622537 -0.025579965
0.086282715 0.0796661 -0.029501908 -0.099574216 0.059858285 0.046748087 0.12881878 -0.03721986
-0.08228043 -0.08186853 -0.09347561 -0.031276107 0.06553622 0.07899194 -0.079921044 -0.009795336
0.028442666 -0.0680284 -0.024229066 0.055830028 0.092873745 -0.05569906 -0.10554476 0.056615427
-0.07405374 0.12486083 0.09022971 -0.005493117 0.05933434 0.107789434 -0.033062086 0.12217974
-0.04288502 0.04613995 0.06303405 0.056248084 0.108357 0.02532377 -0.09193152 -0.06263507
-0.0522196 -0.13373084 -0.023073358 -0.0041734795 -0.083892144 0.033632632 0.07511124 -0.0042386227
0.013977433 0.045209512 0.06373609 0.11344218 -0.033309646 -0.013740995 0.018154886 0.07538754
-0.013382742 0.02416804 0.044237606 0.06344112 -0.12632196 -0.13260621 -0.014412217 0.019329082
-0.012079586 0.07970756 -0.07359096 -0.01811882 0.05608984 -0.1194843 -0.0073097255 -0.082417354

a2c_network.mu.bias f4 [8]
00000000: 08dc ebbd 9fae 8dbd 586f b738 cf7d 043d
00000010: 6f76 7abd 206f 073d 8231 f5bd 9e16 b3bd
-0.11516577 -0.06918072 8.7468594e-05 0.032346543 -0.061148103 0.03306496 -0.119723335 -0.08744548

exp_avg f4 [8]
00000000: 5a6a 963b 1323 b33b 99b5 823b 4c90 693b
00000010: fc8a 5a3a 2acb 8c3b 011b 383b b518 923b
0.004590315 0.0054668277 0.0039889333 0.0035638986 0.00083367503 0.00429668 0.0028092267 0.0044585117

exp_avg_sq f4 [8]
00000000: 1825 4b38 4f85 9338 a5ae 7238 344e 7538
00000010: 6604 4a38 7aee 9d38 df09 3b38 1f0d 7d38
4.8433518e-05 7.034337e-05 5.7859947e-05 5.8485384e-05 4.816465e-05 7.530763e-05 4.4593467e-05 6.033212e-05
