IsaacGymEnvs/isaacgymenvs/runs/Ant_22-18-09-58/nn/last_Ant_ep_150_rew_3442.7344.pth (torch, 706212 bytes, 36 tensors)

value_mean_std.running_mean f8 [1]
000000 b7 d2 c0 0f 69 8f 02 40
       2.320024607727045

value_mean_std.running_var f8 [1]
000000 a0 64 76 4c 89 08 03 40
       2.3791681264525124

value_mean_std.count f8 []
000000 00 00 00 10 00 c0 72 41
       19660801.0

running_mean_std.running_mean f8 [60]
000000 b2 5d ad 18 6b 3a e3 3f ee b3 47 91 84 b1 00 40
       0.600881145665815 2.0866786336905454
000010 3d a7 f1 02 a8 54 d1 bf 31 89 47 9d 55 d9 cc bf
       -0.2707920101880637 -0.22538252048168197
000020 35 e1 31 0d c6 59 a1 bf 29 93 94 c5 f1 62 6f 3f
       -0.033888043509195866 0.003831360064071272
000030 b6 8b d4 22 76 ad a9 bf 44 e8 b8 e5 a7 35 04 40
       -0.050151530982723555 2.5261991450361467
000040 2a 2f 11 5f ee bb 0c 40 05 dc 64 15 e7 36 04 c0
       3.591763251029893 -2.5268079444317686
000050 e3 09 7b 34 e8 c7 eb 3f d9 81 47 ec 19 66 e8 3f
       0.8681527161609747 0.7624635329084938
000060 a2 a0 56 e1 7d 5b e6 bf 55 14 20 15 d4 65 de bf
       -0.6986684228077318 -0.47496511519449786
000070 30 a7 37 09 e4 99 d2 bf a4 9f 83 77 80 f7 e4 3f
       -0.29064274692665304 0.6552126249562105
000080 f9 e2 0e ff 46 a7 bf 3f a1 5e 79 8f e2 94 e5 3f
       0.1236461994839252 0.6744244386890906
000090 de d0 2b 9f 13 02 e3 bf 87 7e 2c da bd 47 e6 bf
       -0.5940034970103871 -0.6962575207907812
0000a0 12 70 c1 52 a8 f8 98 3f fe df aa c3 e0 3a b0 3f
       0.02438605313396642 0.06339840676344008
0000b0 ce d4 e0 4f 43 75 a0 3f 1b 6b 16 3e dd a0 b1 bf
       0.032144645214808074 -0.06886084333238467
0000c0 85 8d eb 13 fb 09 83 bf 9c 8a 3f c9 c4 5c ad bf
       -0.009296380563177173 -0.05734839398043798
0000d0 f6 9e 5b db 50 9a 9a 3f 8d 0b 77 3a 3f 70 b2 3f
       0.025979293240111688 0.07202525308006909
0000e0 e5 b4 cf 00 c4 9c e0 bf ab ad fe 3c c6 00 c4 3f
       -0.5191364303442724 0.1562736318422656
0000f0 0f f2 d8 2b 62 ba c8 bf fa a7 e3 93 9b 9c a8 bf
       -0.19318797245968297 -0.048069822123423436
000100 26 8b 84 7b 76 08 73 bf 0a f8 49 ab 28 31 a6 3f
       -0.00464674265120627 0.04334380236558395
000110 23 55 ea 15 32 fe a8 3f 19 44 58 17 48 e8 a8 3f
       0.048814358878340756 0.04864716801615305
000120 fd 27 db 8f 16 18 d6 bf 2e 8e e5 af 7e f8 ab bf
       -0.34522022293515403 -0.054630240413441875
000130 a2 ad db 48 48 13 27 3f 4f a4 99 b9 79 9b 8b 3f
       0.00017605073337932398 0.013480139710013854
000140 b7 99 d8 ee f5 47 d4 bf e2 4b 2a 8a 77 4d b1 3f
       -0.3168921310883905 0.06758830187963796
000150 08 40 d4 7a 42 fe c5 bf a0 8f be d7 57 3a ae 3f
       -0.17182188985361813 0.05903887280081155
000160 9d 08 06 f5 b6 a8 4d bf fc db 6b 19 8d 8b 73 bf
       -0.0009051221223190968 -0.004771758240841525
000170 de 6c 2a 35 a4 21 d3 3f b6 6c 61 49 ca 7d b6 bf
       0.2989283103176613 -0.08785690585630132
000180 8f 08 ef 00 f1 6b cb bf 4b 71 ee 9d e9 4b b5 3f
       -0.21423161073295602 0.08318958383319346
000190 cf 15 17 38 39 5d 64 3f 0d e4 72 5f 6e da a0 3f
       0.0024858586845961437 0.03291649737497702
0001a0 36 50 60 03 51 2e df bf a7 d3 55 f8 35 7e c4 bf
       -0.4872019322367608 -0.16010164857621342
0001b0 99 85 e5 b6 03 2e bf bf 93 5d 03 2c 07 da c8 3f
       -0.12179587569473539 0.19415368699149535
0001c0 30 b7 7b a9 82 bb ae 3f 74 de 3c a8 d5 1f cd 3f
       0.06002434080970287 0.22753401484236557
0001d0 be 54 cc 58 c6 af d4 bf d0 d6 27 24 a8 f2 d3 bf
       -0.3232284419221506 -0.3116855958063356

running_mean_std.running_var f8 [60]
000000 d1 58 49 7a 8f af 90 3f e2 b3 65 23 7f ba 09 40
       0.01629471000554689 3.2160628095066253
000010 13 24 50 41 94 a0 f0 3f 48 7b fc fa 98 2e e5 3f
       1.0392038871089013 0.6619381811213794
000020 06 82 5e 05 5a 4e 0f 40 66 4e af 32 08 42 16 40
       3.913257638880398 5.564484397840351
000030 92 e2 4c 8f 8f ce 1e 40 6a 60 f2 8b 96 ea 1b 40
       7.7017195120503334 6.979089914959426
000040 38 91 a9 c2 e7 ec 20 40 12 40 5b 0c 9e ea 1b 40
       8.46270569152749 6.979118531293368
000050 36 ea 92 5f f5 04 c1 3f 6b e3 f4 f3 a7 ab c6 3f
       0.13296382109349886 0.1771135274118721
000060 a0 19 2e 0b a6 db d4 3f ae 2c 39 ac 11 f5 d3 3f
       0.32590628711514036 0.3118328267925773
000070 11 25 3c 2f f1 33 db 3f 91 22 b9 84 bf ec d8 3f
       0.42504529583727996 0.38944995843170555
000080 34 cb b6 9b 35 e9 df 3f 72 f8 6d af 2e e6 d5 3f
       0.4986089726109413 0.34217421657365954
000090 73 4c 59 9b 61 65 da 3f 80 81 47 20 68 16 d0 3f
       0.41243782206328844 0.25136759903218575
0000a0 6e 79 06 1a cf 9e f9 3f fe 12 b9 fb 04 4c 0b 40
       1.6012717262852578 3.412118879876629
0000b0 ca b7 af 9e 40 e8 0c 40 55 61 57 46 37 d4 f3 3f
       3.613404502618299 1.2393105266292725
0000c0 3a 12 8e 35 35 c8 14 40 8c 91 f0 36 d1 56 f5 3f
       5.1955154769862535 1.333695616348538
0000d0 f0 9c 9a b0 54 cb f4 3f 2e f4 c6 e2 9d 79 fe 3f
       1.2996413134185865 1.9046915873034425
0000e0 1a 07 d5 0a 02 54 f2 3f 0a 83 9c dd 29 f9 c9 3f
       1.1455097602014974 0.2029163677298345
0000f0 4e d4 db c4 72 e0 f2 3f 0d e1 b1 e9 2f 14 9b 3f
       1.1797969522279064 0.02644419540271863
000100 d8 d8 16 1c 96 b9 10 3f 27 48 93 9d b4 a0 76 3f
       6.3800608606754e-05 0.005524354485901418
000110 e4 2c 6e 71 89 83 f9 3f b3 f5 0d 22 44 bc c3 3f
       1.5946134978174138 0.15418292677706588
000120 53 19 c7 0d 67 c7 f0 3f 50 64 0d 47 b8 be 96 3f
       1.0486822641556344 0.022211913429917296
000130 24 8d 56 5d a9 4b 12 3f a8 42 b4 13 b6 2f 80 3f
       6.979199618810779e-05 0.007903501964876838
000140 7d 8c 58 1a b1 e2 04 40 3b 17 b0 d3 62 bd c3 3f
       2.610689359500212 0.1542171033508398
000150 60 9e 07 2f bb b2 f0 3f 6e d0 bf d3 86 1b 98 3f
       1.043635543546678 0.023542505907201798
000160 fd 5d 7a fb db 3d 14 3f c4 05 01 81 db b2 8b 3f
       7.721572080254115e-05 0.013524737238301728
000170 73 67 5b 3c 13 87 f0 3f a1 d5 91 19 73 f0 c3 3f
       1.0329773290345343 0.1557754397251019
000180 f6 b3 19 71 a5 98 ef 3f 0a 41 d3 cb 19 98 97 3f
       0.9873835762970191 0.023041155877593623
000190 61 9d f8 aa 0c d8 08 3f 83 4e aa e5 93 8a 74 3f
       4.738606127957057e-05 0.005014970515407338
0001a0 ec a9 d0 f6 18 9e d7 3f c6 f0 b8 7f ca 18 dc 3f
       0.3690245065978661 0.4390131232537552
0001b0 42 0e 71 11 d1 cd df 3f 56 4d c7 41 49 1d d8 3f
       0.4969370527580602 0.37678748534854856
0001c0 a9 58 44 3e 3d f6 e0 3f ba a9 96 51 7b a6 d9 3f
       0.5300584999229346 0.4007862374079668
0001d0 79 bb fa 7e b9 81 d9 3f 27 d8 e9 75 94 62 d9 3f
       0.39854276085218704 0.39664184107766903

running_mean_std.count f8 []
000000 00 00 00 20 00 c0 62 41
       9830401.0

a2c_network.sigma f4 [8]
000000 ec 70 31 bf 5c 40 7d bf a8 21 5a bf 12 c7 6a bf
       -0.6931293 -0.9892633 -0.85207605 -0.9171001
000010 50 f2 45 bf c8 6c 82 bf 7e da 2f bf de f3 51 bf
       -0.77322865 -1.0189447 -0.6869277 -0.82012737

a2c_network.actor_mlp.0.weight f4 [256, 60]
000000 eb e9 8a 3d cf 31 2f be 20 60 4e bb 3c a3 50 bd
       0.067828976 -0.17108844 -0.00314904 -0.050936922
000010 e7 96 4e 3e 87 f9 9a bd 6a 66 45 3e 0d 60 b4 bd
       0.20174752 -0.07567125 0.19277349 -0.08807383
000020 97 45 f1 bd 77 0d 86 bd 55 bc 7b 3d 39 a5 fd bc
       -0.11780851 -0.06545537 0.061458904 -0.030962573
000030 23 a7 7e 3e 74 e5 7a be 7e 81 fa bd d8 f9 bb bd
       0.24868445 -0.24501592 -0.1223173 -0.09178513
000040 43 58 da bd 44 60 e4 3b ec 3c 6a 3d 89 32 56 3e
       -0.10661366 0.0069694836 0.057187006 0.20917715
000050 0c 0c f7 3c 72 ac 11 be 82 2d ae 3d 2c 70 b1 bc
       0.030157112 -0.14225939 0.08504774 -0.021659933
000060 6d b0 cd 3d 8c 8c da bd cf 55 11 3e c5 6c 22 bb
       0.10043416 -0.106713384 0.1419289 -0.002478407
000070 56 bb 93 bd 8a 63 21 3d 60 8c e3 3c c5 1f 35 bd
       -0.07213466 0.03940157 0.027776897 -0.04421975
000080 f5 ce 8b 3d 1b 0a 41 3d 95 b6 b3 bd 56 c7 21 bd
       0.06826583 0.047128778 -0.08775059 -0.039496742
000090 83 e0 e2 3d a6 45 fa bc 98 bb 3e bd c0 f0 0d be
       0.110779785 -0.03055079 -0.046565622 -0.1386137
0000a0 ee 9c ae bd 12 6a 01 3d be 31 08 3d ab 2e b6 bd
       -0.08526026 0.031595297 0.033250563 -0.0889562
0000b0 34 0f 88 bc 72 38 ad bd 69 7c f0 bd de 3f 7c bc
       -0.016608812 -0.08458032 -0.11742479 -0.0153960865
0000c0 23 9e bd bd 91 87 a9 bd d8 e9 e0 3d cd 71 b9 3c
       -0.09258678 -0.0827781 0.10982102 0.022637272
0000d0 74 4c 8e 3d 4c 9d 4a bd e1 4a 6a bc fc 61 84 bd
       0.06948176 -0.049466416 -0.014300079 -0.064640015
0000e0 61 0b 84 bc 6f 1a ed bd 13 d5 ab bb f4 39 00 bd
       -0.016118707 -0.115773074 -0.0052439063 -0.03130527
0000f0 03 5d c2 3c 3b db 07 be e9 35 2b bd 00 47 72 bd
       0.023725992 -0.13267224 -0.04179946 -0.059149742
000100 94 92 8e bd c4 eb 93 bd 82 6e 72 3c d6 bd 1a bd
       -0.06961551 -0.07222703 0.014796855 -0.037778698
000110 52 83 58 3e 75 ce b7 bd fd 5e 0c 3e c5 4c 56 3d
       0.21143845 -0.089749254 0.1370811 0.052319307
000120 7a 52 11 bd 2d 05 b2 3d 2b dc 07 3e 2e cd 21 bd
       -0.035479046 0.086923935 0.13267581 -0.039502315
000130 f9 59 6a be a2 df 07 be 52 b3 4c 3d f0 06 9f bc
       -0.22885884 -0.13268903 0.0499757 -0.019412488
000140 51 3a ab 3d 50 12 aa bd 7d 60 f1 3d 98 d6 b7 bd
       0.08360732 -0.08304274 0.11785982 -0.089764774
000150 1a f2 f4 bd 23 67 d7 3d fe 0c d9 3d 70 7e b8 3d
       -0.1196024 0.10517719 0.10598181 0.09008491
000160 09 86 aa 3d 5d cb d7 bd 19 17 a8 bc c1 b5 8f bd
       0.083263464 -0.10536835 -0.020518826 -0.07017089
000170 19 df 3f bc 36 b8 db bd 6f 1b 8b 3d d5 86 d5 bd
       -0.0117109055 -0.10728495 0.06792342 -0.10426108
000180 5b 30 4e 3d 72 82 b6 3b 67 3d 3f 3d bc e0 9d bd
       0.050339084 0.0055697495 0.046689417 -0.0770888
000190 a0 13 84 3d 70 d2 0d 3d ec 5b 5a 3b 41 6b e0 bd
       0.06449056 0.034624517 0.003331895 -0.10957957
0001a0 9f 28 8f 3c f3 95 51 bd 92 a2 ba bd 2e 4d f9 3d
       0.017475424 -0.051168393 -0.09113039 0.12172924
0001b0 18 6b 06 bb 01 1f 1d bd 88 ce f4 bd c8 5f f4 3c
       -0.002051061 -0.038359646 -0.11953455 0.029830828
0001c0 06 70 42 3d 52 0f 40 bd 26 bc 4a bc 7e f6 57 bd
       0.047470115 -0.04688961 -0.01237396 -0.052725308
0001d0 30 19 63 bd 3b 5e ba 3d 44 ed 04 3e 1b 5b 0e be
       -0.055443943 0.09100004 0.12981135 -0.13901941
0001e0 0c 57 80 3d ea 4e ce 3d 9e 0c da 3c 17 3a 79 bd
       0.06266603 0.100736454 0.026617344 -0.060846414
0001f0 6b 8d ae 3d fe d7 2d 3d 52 aa f4 3c 99 42 35 bc
       0.08523067 0.042442314 0.029866371 -0.011063241
000200 73 c1 14 bd 39 2a 0f 3b 7d 5a 9b 3c 0c de 3e bc
       -0.0363173 0.0021845235 0.018964047 -0.01164962
000210 68 8a 14 3e 05 bc 2e 3e a2 2b ac bc 5c 51 3e 3c
       0.14505923 0.17063911 -0.0210169 0.011616077
000220 c3 53 0c bd 19 b4 7a bd c6 99 f4 3c 17 94 6a 3d
       -0.03425957 -0.06120691 0.029858481 0.057270136
000230 0d b1 0f be 30 a9 0f bd 65 7c db 3d 66 6e 8f 3d
       -0.14032383 -0.03507346 0.10717086 0.07003479
000240 3f 91 02 3d 7b ba e8 bd 1f e5 94 bb 49 05 e2 bd
       0.0318768 -0.11363693 -0.004543915 -0.11036164
000250 2e 61 8b bc 50 c5 a8 3d f1 6b 10 3d 10 9c 2f 3c
       -0.017014112 0.082407594 0.03525919 0.010718361
000260 1a 7d a4 bd 61 44 6d bd 24 1e 8a bd da 0c b1 3d
       -0.08031674 -0.05792654 -0.0674403 0.08645029
000270 b0 a0 61 3a 33 98 45 bd a9 cc 23 3d 73 e6 c3 3c
       0.0008607013 -0.04824085 0.0399901 0.023913598
000280 1a 95 11 bd b6 6e 02 3e 1b 35 f2 bc 1d e2 aa bb
       -0.035542585 0.12737545 -0.029566338 -0.005214943
000290 99 0c c6 bd 2c 16 de 3d ba eb 86 3d 51 0e 3a 3d
       -0.096703716 0.10844073 0.0658793 0.04542381
0002a0 19 e8 9e bd 96 20 11 be 04 e4 df bd 7b 65 5c 3d
       -0.07759113 -0.14172587 -0.109321624 0.053807717
0002b0 b0 f5 0e 3d b3 93 fe 3d ce 00 34 3d 7d 22 65 3c
       0.034902275 0.12430515 0.04394608 0.013985273
0002c0 e3 87 8b 3c c1 2c 50 bd 6f 4a f6 bc a3 40 66 bd
       0.01703257 -0.05082393 -0.03006479 -0.056213986
0002d0 b8 29 92 3d 2d 46 52 ba d0 6c ae 3b 7c ba db bd
       0.071368635 -0.0008021321 0.00532303 -0.107289284
0002e0 08 6f 71 3d 56 b1 80 be 86 09 ae bd 17 0f ef 3c
       0.05894378 -0.25135297 -0.0849791 0.029182
0002f0 5f 79 02 be 81 1f bf 3d ca 12 52 bd 71 18 0b be
       -0.12741612 0.09332181 -0.05128745 -0.13583542
000300 20 f9 3c bd 49 c1 3a be 6e 2e a5 bd 8f 9b 0b be
       -0.04613602 -0.18237795 -0.080654964 -0.1363356
000310 39 36 02 3e 06 22 c4 bd 93 7e a0 3d 47 a7 ca 3d
       0.12715997 -0.09576802 0.07836642 0.09895187
000320 aa 19 88 3d cf bd 83 be 0e d1 9e 3d 4c c2 12 bc
       0.0664552 -0.2573075 0.07754718 -0.008957457
000330 8e bc 40 3d 8f 7f b5 3d 31 d0 28 bd 39 1a 66 3c
       0.04705482 0.088622205 -0.04121417 0.014044338
000340 4a 68 fe 3c 08 15 15 be 17 46 8a 3d 39 7a ef bd
       0.031055588 -0.14558804 0.0675165 -0.11693234
000350 e1 14 e7 3d ec 24 85 3d e0 29 38 3e 92 51 dc bc
       0.11283279 0.06501183 0.17984724 -0.026894365
000360 27 49 b5 bd f0 a3 6e 3d a9 59 48 3d e4 9c 2a be
       -0.08851843 0.05826181 0.04891363 -0.16661412
000370 b6 0b 0b 3c 5a 4e 5f bd 74 58 11 bd a5 9c 71 bd
       0.008486679 -0.05451808 -0.035484746 -0.05898728
000380 3d b5 27 bd 81 76 c1 bd 96 a9 44 bd b6 ac c5 3d
       -0.040944327 -0.09446431 -0.048013292 0.096520826
000390 2b 65 99 3d 75 97 68 bc 92 f2 00 bd 94 69 5c 3c
       0.074899994 -0.014196266 -0.031481333 0.013452906
0003a0 ef 20 c4 bd 15 67 31 be 14 c2 f2 3d ff 9d dc bd
       -0.09576594 -0.17324479 0.11853424 -0.10772323
0003b0 5b e3 da bd d7 d8 2f bd 22 57 28 bc c8 38 38 bd
       -0.10687896 -0.042931404 -0.01027468 -0.044976026
0003c0 4d ea e5 bc fd ea 38 3c 2b d1 24 3d 44 16 92 bb
       -0.028065825 0.011286494 0.04023854 -0.0044582207
0003d0 ea 6b b6 bd cd 72 06 3e fc 77 18 bd df e7 53 3c
       -0.08907302 0.1312973 -0.0372238 0.0129337
0003e0 71 52 8b bd c8 22 02 3d 54 77 85 3e 52 c0 25 3e
       -0.06802834 0.03177145 0.26067603 0.16186646
0003f0 e0 cb 06 be c7 9b ab bc b1 20 a0 3d 73 1b e0 3c
       -0.1316371 -0.020948304 0.078187354 0.027356839

a2c_network.actor_mlp.0.bias f4 [256]
000000 41 18 4c bd 82 57 0d ba e3 78 01 bd 47 21 c2 3c
       -0.049827818 -0.0005391763 -0.031609427 0.023697508
000010 92 09 13 3c 1a 0a 85 bc 82 72 c0 bb a3 60 66 bd
       0.00897445 -0.016240168 -0.0058730254 -0.056244504
000020 41 2e 4a bd 61 17 70 bc 48 25 a0 3b ca 8c 37 bc
       -0.049360517 -0.014654011 0.004887257 -0.011203
000030 99 fb c9 3b 62 8d 82 bc c7 d7 4d bd 52 00 a4 3b
       0.006164026 -0.015936557 -0.05025461 0.005004921
000040 0c 70 44 bd f6 3c a6 3d bc 94 88 bd a7 3f 9e 3c
       -0.04795842 0.08117096 -0.06668994 0.019317461
000050 f4 cb 5b bd 49 d7 23 bd 30 1a fe 3c 04 2c ed 3c
       -0.0536613 -0.040000234 0.031018347 0.028951652
000060 2b 76 7f bd 45 b2 a7 bc 72 83 ac 3c 57 5c 5c 3d
       -0.062368553 -0.020470748 0.021058772 0.053799
000070 ad 3b 37 bd e1 66 82 3d 47 e8 74 bd 3d d3 47 3c
       -0.044734646 0.06367279 -0.05979183 0.012196359
000080 a4 f0 65 bc 73 29 14 bd a5 5b 0d 3d 80 11 bc 3d
       -0.014034424 -0.03617234 0.034511227 0.09183025
000090 d9 72 b6 bb 84 f2 1c bc 70 02 67 bc db 8b 4b 3d
       -0.00556789 -0.009579305 -0.014099702 0.049693923
0000a0 90 13 f6 3c 3e e7 93 3d 89 2c 3e bc b3 8d 6e 3d
       0.030038625 0.0722184 -0.011607298 0.058240604
0000b0 79 3c df bb 08 ac c0 bc 86 2f d0 3c 4c fa 8c 3c
       -0.006812629 -0.02351953 0.025413286 0.017209195
0000c0 64 17 1a bd 6c 7d ff bc 40 59 6f bb ae 9c 4b bd
       -0.037619963 -0.031187735 -0.0036521703 -0.04970997
0000d0 21 1b ea bc a8 31 bf 3c 45 65 62 3d 7a 1e a2 3d
       -0.02857739 0.023339108 0.05527236 0.07915969
0000e0 e2 26 bb bc ee 03 84 3c fd b0 7c 3d a7 08 f5 3c
       -0.02284569 0.016115155 0.061692227 0.029911352
0000f0 86 fd 1f 3d b3 6e 69 3c 0a bb f5 bc 49 10 17 bd
       0.03906014 0.014247584 -0.029996414 -0.036880765
000100 c3 00 fe bc 73 c4 2e bc 66 30 86 bd 02 f4 3c bc
       -0.031006223 -0.010666954 -0.065522 -0.011532785
000110 fc 6a 69 3d 34 11 30 bc 97 ee 3e bd cc 6b 69 bc
       0.056986794 -0.010746289 -0.046614256 -0.014246892
000120 d5 99 3b 3d f8 95 5d 3c b3 b2 7a bc 0c ed 8d bc
       0.045801003 0.013524525 -0.015301394 -0.017324947
000130 65 9d 96 bc 76 97 ac 3d a5 5b a5 bb 97 28 a7 bc
       -0.018385598 0.084273264 -0.0050463253 -0.020405097
000140 3e 40 97 bb c4 7b ea bc eb 96 65 bd 99 ff 16 bc
       -0.0046158126 -0.02862347 -0.05605213 -0.009216213
000150 27 7c fd bb 42 1d a1 bd 33 23 38 bc 18 a1 8a 3b
       -0.0077357474 -0.078669086 -0.011238861 0.0042306297
000160 f7 2f e9 3b c9 ff f1 bc 27 da 4f 3d 3f 58 11 3d
       0.0071163136 -0.029540913 0.050745156 0.03548455
000170 2e c3 45 bd 15 c6 ad bb ea a7 db 3b ba 5f df 3b
       -0.04828184 -0.0053031542 0.0067033665 0.0068168314
000180 54 79 26 bd f7 5b 2c bd 3e e3 9f 3d 4a 9f fc bc
       -0.04064305 -0.042079892 0.07807015 -0.030837674
000190 c8 14 4c bd 87 e9 9e 3d 5c 4f 1e bd e5 d8 47 3c
       -0.049824506 0.077593856 -0.0386499 0.012197708
0001a0 bc 4f 71 bc 02 b5 02 3c 21 96 ea bc f1 73 6b bd
       -0.014728483 0.007977726 -0.02863604 -0.057483617
0001b0 e7 21 4a 3b 2b 36 05 bc 2c c9 3a bb 44 15 07 3c
       0.0030842961 -0.00813059 -0.0028501255 0.008244816
0001c0 b2 97 f5 bc d6 0a e1 3b b4 ae e2 3c ec bf ec bc
       -0.02997956 0.006867747 0.027671196 -0.02890011
0001d0 02 75 a1 bc 0b 9b eb bc 57 6d 86 bc 5d 34 28 3c
       -0.019709114 -0.028760454 -0.01640956 0.010266391
0001e0 77 9a ce bc d4 96 4d 3d 40 95 15 3d 2e ae 49 3c
       -0.025220139 0.05019267 0.03651929 0.012309594
0001f0 49 73 21 bc db b5 fd 3c 19 46 3c 3d 65 ec 9c 3b
       -0.009854146 0.030970505 0.045965288 0.0047889226
000200 a5 ba 58 38 6a 47 c9 bc 79 bd 12 ba 4f 3e ba 3c
       5.167224e-05 -0.024570186 -0.00055976916 0.02273479
000210 9a 7a 38 bd d3 14 94 bc be 47 3e bc 97 bf 15 3d
       -0.045038797 -0.018076336 -0.011613784 0.036559667
000220 06 ac ea bd 42 49 24 3d 2b 20 29 bc e3 e3 cb bd
       -0.11458592 0.040108927 -0.010322611 -0.09955575
000230 5a 2f ef ba ed f4 29 bb 7a 4a b0 3b 04 86 7c 3c
       -0.0018248365 -0.002593334 0.005379972 0.015412811
000240 96 1d 62 39 8a 65 61 3c 80 15 37 3d 11 bb 9c 3d
       0.00021564061 0.013757119 0.04469824 0.076528676
000250 b0 31 c7 3c 03 fc 15 3a 42 75 80 bd 6a 0e 56 3c
       0.024315685 0.00057214516 -0.06272365 0.01306496
000260 80 2e 44 bc c9 93 89 bc 8d 50 73 3c 59 ad 27 3c
       -0.011973977 -0.016794102 0.014850748 0.0102342
000270 02 be 31 3b 7a c4 f4 3c 2b e4 8e 3c 7d 03 c2 3b
       0.002712131 0.029878844 0.017442783 0.005920826
000280 4e a5 64 3d 79 8b 83 3d c3 6b 42 bd 82 05 4c bd
       0.05582171 0.06423087 -0.04746605 -0.04980994
000290 0e ad 92 bc f3 2a 9d 3c 66 bb 94 bc 31 68 60 3b
       -0.017904785 0.019185519 -0.018155765 0.003424179
0002a0 73 64 5b 3b a5 6e 8c bc a4 32 1a bd 22 92 07 bd
       0.003347662 -0.017142603 -0.03764595 -0.033098347
0002b0 7a db 7b 3d 0c 9d 15 3d 2d 52 83 bc 4a 00 8c bc
       0.061488606 0.036526725 -0.016030395 -0.017089982
0002c0 32 db ab 3c d2 b3 02 3b 85 12 b6 39 d4 d2 7f bd
       0.020978544 0.0019943607 0.00034727543 -0.06245692
0002d0 43 60 3a 3d aa 1d 49 bd 16 d8 c3 bd 0d 8c 92 bd
       0.04550196 -0.049100555 -0.095626995 -0.07155619
0002e0 ab 53 aa 3c 2c dc 30 3c cb 7a 75 3d 2f 5c ac bc
       0.02079185 0.010794681 0.059931558 -0.02104005
0002f0 7d 91 ac bb 90 07 c7 bc 24 35 98 bc 62 b1 57 bd
       -0.005266367 -0.024295598 -0.018580027 -0.0526594
000300 6f 37 8d bd 0a 73 40 bb 65 4d bf bd c2 18 c9 3d
       -0.06895339 -0.0029365444 -0.09340934 0.09819175
000310 e4 d7 ea 3c a3 c6 db bc da 31 d2 bc 37 7d 07 bc
       0.028667398 -0.026828116 -0.025658537 -0.0082696
000320 bb b5 a7 3b 95 82 21 bc 84 7d 3a 3d 34 c0 60 bd
       0.0051180995 -0.009857793 0.045529857 -0.0548708
000330 29 67 86 bd 9c 03 f2 bb 1e f4 97 bc 05 70 05 3b
       -0.06562645 -0.007385684 -0.018549021 0.0020360958
000340 bb 9b 06 bd 81 0d 8d 3d 24 44 0c 3d 6b 6f 1e 3c
       -0.03286336 0.06887341 0.03424467 0.009670119
000350 6a a1 48 3c fe aa 9e ba 79 e2 df bb b1 0d 22 bd
       0.012245515 -0.0012105403 -0.0068324176 -0.03956384
000360 b0 71 4d bd e4 66 69 3b c1 03 1c bd da 49 ef bb
       -0.05015725 0.0035614306 -0.038089518 -0.007302505
000370 6b 08 e8 bc bf f8 be bc aa 94 a4 39 5c 12 5f bb
       -0.028324327 -0.02331197 0.0003139128 -0.0034038043
000380 47 ba 81 3d a1 c4 f0 3c 05 81 df 3d 31 b2 1d 3c
       0.06334358 0.029390635 0.109132804 0.009625004
000390 a8 4b 19 bd de 12 54 bd 63 b5 00 3d bd af 8d ba
       -0.037425667 -0.051775806 0.031422984 -0.001080982
0003a0 4c 9c 43 3d 4a ee be bc c0 8e 1a 3d 29 e2 d6 3b
       0.04775648 -0.023306984 0.037733793 0.006557722
0003b0 28 21 38 3d 78 69 bb bc 01 9d 92 bc 1d fc 46 3c
       0.044953495 -0.02287744 -0.01789713 0.012145069
0003c0 84 72 79 3c 4c 4c ea bb 9c 20 b9 3d a7 6a cc 3c
       0.015225057 -0.0071502086 0.09039423 0.0249532
0003d0 db 46 dc bb 02 24 b1 3c 22 85 86 3d 32 13 36 bd
       -0.006722314 0.021623615 0.06568362 -0.0444519
0003e0 58 80 50 bc 59 6d 8a bd 8b 61 1d 3d 04 00 22 3d
       -0.012725912 -0.06759138 0.038423102 0.039550796
0003f0 80 96 0b 3c ba 9a 7e 3d a6 8f 60 3c ef 2f 89 bc
       0.008519769 0.062159277 0.013706123 -0.01674649

a2c_network.actor_mlp.2.weight f4 [128, 256]
000000 16 28 58 bd 71 e9 84 3d 65 9d a4 bd 54 43 e4 bc
       -0.052772604 0.06489838 -0.08037833 -0.027864136
000010 b5 5a 6d 3c 4e 4f 3c 3d 93 ba 9b bc 97 67 83 3d
       0.014486958 0.04597407 -0.019009864 0.064162426
000020 98 50 e7 bb 04 7f 95 3d 89 f0 cb 3d 40 9e 95 bd
       -0.007059168 0.07299617 0.09957988 -0.073055744
000030 68 bb 38 bd cb 99 8d 3c 29 bf 3f bc cf 3e 85 3c
       -0.0451006 0.017285248 -0.011703291 0.016265301
000040 47 68 6f bd bc a9 66 3d 56 f8 a4 bc e1 a5 d4 bb
       -0.058449056 0.056314215 -0.020137947 -0.006489501
000050 66 36 90 bb f1 77 3d bc bf cb 3f bd 75 80 22 bd
       -0.004401016 -0.011564241 -0.046825167 -0.039673287
000060 77 24 e1 bc e8 57 c3 3c 1a fa 36 3c d8 79 a6 bd
       -0.027483208 0.023845628 0.011168027 -0.081287086
000070 bc 89 bf 3c e1 ac cf bd 67 c0 d9 3b 14 f3 a0 bc
       0.023381107 -0.10140396 0.0066452506 -0.019647159
000080 f1 24 a4 3d e8 0e 72 bc c9 7e 38 3d 17 08 96 bb
       0.080148585 -0.014774062 0.045042787 -0.004578601
000090 4c f5 89 bd c7 2f b6 bc 94 39 0d bd 53 e0 5e bd
       -0.0673624 -0.022239579 -0.03447874 -0.05441315
0000a0 cd 98 29 3c ba e9 c7 3c 46 c1 15 bd 52 25 13 3d
       0.010351372 0.024403442 -0.036561273 0.035924263
0000b0 af ed b6 bd 45 38 65 bc 92 7d 47 3d 34 07 44 3d
       -0.08932053 -0.0139904665 0.048703738 0.047858432
0000c0 11 7c 65 bb 37 4a e6 bc cb 5d c9 3d 79 3a a1 3d
       -0.0035016576 -0.02811156 0.09832343 0.07872481
0000d0 6d 54 08 3c 3c 6a bf 3c 0b dc 92 bd ad cf 4f 3d
       0.00832091 0.023366086 -0.07170876 0.050735164
0000e0 53 57 0c 3d 55 e9 ca bd 9c 83 4b bc 44 5c 24 be
       0.034262966 -0.09907786 -0.012421515 -0.16050822
0000f0 6e 48 b7 bc b5 8a 0a bd b7 a0 1e bd 01 7d 28 3d
       -0.022373404 -0.033823688 -0.03872749 0.041134838
000100 14 b3 83 bb 2d c8 80 3d 94 df 55 bc 68 db b0 bc
       -0.0040191505 0.062881805 -0.013053793 -0.021588996
000110 e0 cd ea 3c 4a 92 c5 bd 13 89 0b 3d 65 9a 87 bd
       0.028662622 -0.09647043 0.03406627 -0.06621245
000120 4b ef 53 bd 4d 9d 1d bd 2d df d1 bc 8c 9d 83 3d
       -0.05174188 -0.03848009 -0.025619114 0.06426534
000130 15 aa 18 3d e1 86 c6 bc e5 79 51 bd e9 4e 4d bc
       0.037271578 -0.024234237 -0.05114164 -0.012531021
000140 fb 0b b2 3d b7 c5 4d bd 85 7a 1e 3d 82 41 8c 3d
       0.08693691 -0.050237384 0.038691062 0.06848432
000150 51 bf 63 3d 85 d2 f4 bb 7a 36 67 3c 41 22 b2 bc
       0.055602375 -0.007471385 0.014112109 -0.02174485
000160 d4 9b 0f bd 5a 75 92 bd fe 1e 54 bc d0 b0 5a bd
       -0.03506072 -0.07151289 -0.012946842 -0.053391278
000170 66 ef 76 3d 41 39 b0 ba 05 43 c0 3d 2e cb fa bc
       0.060286902 -0.0013444797 0.09387783 -0.030614462
000180 08 83 13 3d 17 f8 52 3c 61 4f 0d 3d a8 2a fc 39
       0.036013633 0.012876532 0.03449953 0.00048096967
000190 5b 23 b5 3b 5d 91 99 3c 6d b2 2f 3d cf 78 2c 3c
       0.0055278963 0.018746072 0.04289477 0.01052685
0001a0 d2 d6 1a 3d 58 ac b7 bc 94 40 3a 3d f0 8b c6 3a
       0.037802525 -0.022421047 0.045471743 0.0015147906
0001b0 e9 ef 3a bc 6e cc 6b bd 0b 7c 22 bc 43 a4 cd bb
       -0.011409738 -0.057568006 -0.009917269 -0.006275685
0001c0 cf 94 0a 3c db 45 00 3d 63 90 fe bc 4d bc dd bc
       0.00845833 0.03131662 -0.031074708 -0.027067328
0001d0 59 d9 f4 3c 81 da 0d 3d 38 9f 46 bd 2c 2c 2a bd
       0.029888796 0.03463221 -0.048491687 -0.04154603
0001e0 11 df 84 3d 68 b9 66 bc 3f c1 85 3c 61 cc 7c 3b
       0.06487859 -0.01408229 0.016327498 0.0038573968
0001f0 38 7c c1 3d ac 58 9e bd 5a 64 95 3c 0b 67 97 bd
       0.09447521 -0.077317566 0.018236328 -0.07392701
000200 7a 3a a9 3d 72 4b d0 bc fb 00 00 3d 90 52 ca bc
       0.08263107 -0.0254266 0.031250935 -0.024697572
000210 bb fe e2 bc ab cd 15 bb a2 b2 b8 3c 0b 26 aa bc
       -0.027709356 -0.0022858183 0.022546116 -0.020770093
000220 dd 2d bc bb 79 ef a3 3d 7b c5 50 3d 48 df eb 3c
       -0.005742772 0.0800466 0.050969582 0.028792992
000230 50 c8 28 bd 45 21 15 bd b3 80 08 bd 86 ab 80 bd
       -0.041206658 -0.03640868 -0.033325862 -0.062827155
000240 2f 12 f9 bc 77 11 79 ba ae 7a ee 3c 83 c5 df 3b
       -0.030404178 -0.00095011987 0.029111233 0.006828965
000250 69 e2 c6 3c 21 4b ce bc 97 ee 13 3d 71 92 9c bd
       0.024277883 -0.025182309 0.03611621 -0.07645119
000260 4e a4 f3 bc c1 e2 2e 3d bc 08 de bc 47 88 a5 3d
       -0.029741433 0.042696718 -0.027103774 0.080826335
000270 13 37 98 bd 74 49 2a bd ee f0 83 bd a6 84 b4 bd
       -0.074323796 -0.041573957 -0.06442438 -0.08814363
000280 fb 7e b8 bd 93 ae 5a 3d f1 62 94 bc df 67 78 3d
       -0.090085946 0.053389143 -0.018113585 0.060645934
000290 56 8b 75 3d c0 9a 35 3d 50 75 b5 bc b4 6d a3 3d
       0.059947334 0.044337034 -0.022150666 0.079799086
0002a0 59 62 89 3d f2 22 cb 3c 7c 04 95 bc 30 48 61 3d
       0.067082115 0.024796937 -0.018190615 0.055000484
0002b0 b2 12 a8 3d ac bd 28 bd 9c 5a e1 3c 48 51 16 bd
       0.08206691 -0.04119651 0.027509026 -0.03669861
0002c0 1b 37 06 bd 62 81 2a bd 23 5c 61 bd c2 2f 56 3d
       -0.032767396 -0.041627295 -0.05501951 0.05229164
0002d0 1b d0 bf bb fa f3 b1 bc c2 49 aa bc 93 3a 82 ba
       -0.0058536655 -0.021722782 -0.020787124 -0.0009935669
0002e0 71 83 ef bc fe 8f 6f 3b 41 39 94 3d fa da 59 3c
       -0.02923748 0.0036554332 0.07237483 0.013296837
0002f0 51 00 ed bb a6 d2 1d bd 29 07 8c bd 91 3b 65 3c
       -0.0072327037 -0.038530968 -0.06837303 0.0139912525
000300 97 2c ae bc eb 5f 48 3d ab d1 05 bd ba d3 e4 3d
       -0.021261496 0.0489196 -0.032670658 0.11173196
000310 3e 2f 4a 3b 8f 1f 71 3d a2 11 b4 3d 6b 95 45 bb
       0.0030850912 0.058867987 0.08792426 -0.0030148875
000320 16 d5 a3 3d 7b 22 ee 3c b4 34 92 3c 3c 4b 92 3b
       0.07999627 0.029069176 0.017847396 0.004464535
000330 bd de 94 bd aa 85 5b bd ef d5 a0 3c 18 94 89 3d
       -0.072690465 -0.05359427 0.019633261 0.067177
000340 f7 04 40 3d 81 08 cf ba 30 93 a2 3d 09 4b b5 bd
       0.046879735 -0.0015795381 0.0793823 -0.088522024
000350 1f 3b 7c 3c 81 a9 56 bc 4c a9 07 3c 7b 22 f3 3c
       0.015394955 -0.013101936 0.00828011 0.029679528
000360 6f 26 b1 3d b8 31 fa 3a e6 2c 4b 3d 5f 56 ec bc
       0.08649909 0.0019088304 0.049603365 -0.028849779
000370 13 2b 5d bc 75 6b 96 3d f5 e1 a5 3c 93 1a 15 3d
       -0.013499039 0.073447146 0.020249346 0.036402296
000380 7b 74 27 bd cc ed 79 3d 43 ce 02 bd 9e a5 d0 bc
       -0.04088257 0.061017796 -0.031934988 -0.025469597
000390 d5 84 17 bd 64 a4 9c bc c1 f8 c0 3c 89 3b e0 3d
       -0.036991913 -0.019121356 0.023556115 0.109488554
0003a0 fd 11 5d 3d c0 bf 05 3d 31 3d 3d 3d bd 72 9f 3d
       0.053972233 0.03265357 0.046200935 0.077855565
0003b0 85 5c 41 bd ed 80 82 3c 17 76 75 3d f8 be e8 3d
       -0.047207374 0.015930617 0.059927072 0.113645494
0003c0 05 96 5a 3b db 9e 30 bd 40 66 ee 3b 27 70 ea bc
       0.0033353579 -0.043120246 0.0072753727 -0.028617932
0003d0 8a ec 19 3e c7 43 9e bd d8 76 23 bd b7 98 62 3d
       0.15031639 -0.07727771 -0.03990826 0.05532142
0003e0 5d ae c3 bd f0 5a 26 bd cd 38 01 3d c1 89 9a 3d
       -0.095547415 -0.04061407 0.03154831 0.07545806
0003f0 f7 a4 53 bd aa 4e 7f 3d 21 26 a2 3d 8c 96 ef 3c
       -0.051670995 0.06233088 0.07917429 0.029246591

a2c_network.actor_mlp.2.bias f4 [128]
000000 fa 88 f0 3c 62 06 96 bc ad 86 3a 3d e4 e6 3e bd
       0.02936219 -0.01831359 0.045538593 -0.046606913
000010 d4 ce 8d bd 4a 51 c9 3c 4b e1 70 bb 3d 73 86 bc
       -0.06924215 0.024574894 -0.0036755379 -0.016412372
000020 c3 7c 38 bc 12 5c ee bb b0 18 12 3c ea e3 14 3d
       -0.011260214 -0.007274159 0.008917019 0.03635017
000030 3a db a2 ba 71 6c 40 bd 52 c4 cd 3d 00 2c a6 bd
       -0.0012424954 -0.046978418 0.10047211 -0.08113861
000040 3b 52 f1 bc 81 74 84 bc 1c ad 76 bd ec c9 f5 ba
       -0.029458156 -0.016168835 -0.060223684 -0.0018752194
000050 8e 5a bb bc 59 47 22 bc 6f d0 18 bd 5d 56 0f bc
       -0.022870328 -0.009904706 -0.037308153 -0.008748618
000060 46 a9 29 bd 61 64 79 bd a0 2d 94 3b 63 df 58 bc
       -0.041421197 -0.060886744 0.0045220405 -0.013236853
000070 9c ab 12 bc 6d 07 c4 3c 79 1a a4 bd 69 df 15 bd
       -0.008952048 0.023929322 -0.08012862 -0.036590014
000080 4c 0a 56 3d 80 e3 d3 3c e2 cc b3 bc 3d 46 30 bd
       0.052255914 0.025865316 -0.021948282 -0.043035734
000090 c9 35 c3 bd 1b de 31 3b 6a 25 4a bd f5 8f 3b bd
       -0.09531743 0.0027140442 -0.049352087 -0.045791585
0000a0 59 90 c3 bc 2f c1 95 3c 78 4d 9d 3d 12 a5 89 bd
       -0.023872541 0.018280594 0.076807916 -0.06720938
0000b0 11 7b 52 bd ae c1 82 bc 0d 48 e7 bc 5e f9 cd bc
       -0.051386897 -0.015961494 -0.028232599 -0.025143322
0000c0 45 ce e9 3c f2 8f 16 bd dd 59 f2 3c cf 12 73 3c
       0.02854074 -0.03675837 0.029583866 0.014836027
0000d0 e6 6c de bd a0 a6 ba 3b fa 0c 42 3b de b2 92 3c
       -0.108606145 0.005696133 0.0029609785 0.017907556
0000e0 e7 e6 33 3d ab b6 12 3d d2 7f cc 3b 52 84 66 bd
       0.043921378 0.035818737 0.0062408233 -0.056278534
0000f0 87 9f 05 3d e0 80 66 3d 5b d3 c5 bd c2 b9 f5 3c
       0.03262284 0.05627525 -0.096594535 0.029995803
000100 a2 bd ac 3d 49 46 b8 bb a8 0f 40 bd 8b c3 78 3c
       0.08434607 -0.005623613 -0.04688993 0.01518334
000110 fe b9 a5 3c a9 a1 d5 3c 0a 73 08 3d 24 a6 6a 3d
       0.02023029 0.026078062 0.033312835 0.05728735
000120 a5 07 91 bc 57 e7 08 3d 76 14 7a bd b6 75 17 3d
       -0.01770384 0.033423748 -0.06105467 0.036977492
000130 ba c4 6c 3c cc 0d 3e 3c 5b 90 4c 3c ac 17 dd bc
       0.0144512 0.011599969 0.012485589 -0.026988827
000140 a6 1f c2 3c 58 92 48 bd 38 85 c6 3c 4d 9b a8 3c
       0.023696732 -0.04896769 0.024233446 0.020581866
000150 8a 1f ce 3c 79 34 a7 3c 42 4b 47 bd 59 69 c6 bd
       0.025161523 0.020410763 -0.048655756 -0.09688062
000160 80 ec ad bc 9b 19 c4 3c f1 85 54 3d 11 b5 04 3d
       -0.021230936 0.02393799 0.05188555 0.03239924
000170 b8 1e 16 3b a0 ef fb bb d1 71 12 bd f5 1d a5 3c
       0.0022906493 -0.0076884776 -0.035753075 0.020155886
000180 27 c7 53 3d e3 58 4f bd c9 ba 7e 3b b3 d2 cc bc
       0.0517036 -0.05062188 0.0038868657 -0.025002813
000190 24 dd 54 3c 7d 00 9a 3c 27 b4 98 3c 87 3b b3 3c
       0.012992177 0.018799061 0.01864059 0.02187897
0001a0 60 14 93 3b ce be 3d bb 9b 44 3a 3b ea 8a f3 bb
       0.004488513 -0.002895284 0.002842224 -0.0074323313
0001b0 78 0a 00 3d c0 83 04 be a5 b8 db bc ef 82 d1 3c
       0.031259984 -0.12940884 -0.026821444 0.02557513
0001c0 1e a9 9a bd 53 44 d5 3c 21 19 e7 3c 68 83 7b 3c
       -0.07551788 0.026033556 0.028210225 0.015351154
0001d0 1b e7 5d ba 6f 4c 19 3c 3f 38 7d 3b 89 0c 50 bd
       -0.00084649184 0.009356602 0.0038638262 -0.050793204
0001e0 a3 39 0f 3d f6 8a 05 3d 67 de 88 3c ec 6e 34 3b
       0.034967076 0.032603227 0.016707612 0.0027531935
0001f0 7e ac f9 bc f5 1e a0 3c 76 06 d6 3c da 3f 8f bd
       -0.030477758 0.019546011 0.026126128 -0.069946006

a2c_network.actor_mlp.4.weight f4 [64, 128]
000000 5d 2a 2e bb 1f 68 8f 3c db a0 10 3d 0f 93 83 bd
       -0.0026575543 0.017505703 0.035309654 -0.064245336
000010 67 1a e7 3b 33 36 cf 3d f6 87 c5 3c 53 bc b8 3d
       0.007052708 0.101177596 0.024112683 0.09020295
000020 d2 15 91 bd 7a fb 30 3c 79 6c 80 3b 0d 9e 54 bd
       -0.0708424 0.010802144 0.003919181 -0.05190854
000030 23 10 d5 3c ab 85 1b bc b2 2d 20 bd ed 67 e9 bc
       0.026008671 -0.009492318 -0.03910608 -0.028491938
000040 2f 97 dc bd ed e4 6c bd 8e 6d e4 bd 66 a2 66 3d
       -0.107710235 -0.05783551 -0.111537084 0.05630722
000050 99 37 6d bd 5b eb e8 bc 06 ce 10 bd 51 35 46 bd
       -0.05791435 -0.028432539 -0.03535273 -0.04839069
000060 42 cb eb 3d b2 c6 60 3d bc 84 22 bd de 54 76 bd
       0.11513378 0.05487699 -0.039677367 -0.06013953
000070 88 1b 93 bd d6 1d e4 3b ec 8e 09 bc 13 6d c4 bd
       -0.071829855 0.0069615645 -0.008395892 -0.09591117
000080 45 07 9e 3d d3 97 b1 3d dd 79 6e bd 3a 82 68 3d
       0.0771623 0.08671536 -0.058221687 0.05676482
000090 80 44 63 3d f3 db d7 bc 80 a2 ce 3d 97 3c cd bd
       0.05548525 -0.026349997 0.10089588 -0.10021322
0000a0 20 1f 55 bd d8 ad 08 bc 4f 5f c2 bd ed 1a 51 bd
       -0.052031636 -0.008342229 -0.09490835 -0.05105107
0000b0 ae 83 75 bd a6 7c 1e 3c 85 0a e7 3c d9 5d b9 3d
       -0.059940033 0.009673273 0.028203258 0.09051103
0000c0 50 a2 ed 3b 3c 1f 86 3d 61 bb a2 bc ba 00 fe 3c
       0.007252015 0.06548926 -0.01986474 0.031006206
0000d0 6a 5e c5 3d e7 cb 5a 3d ca 80 70 bd 63 ab 6d 3d
       0.09637149 0.053417113 -0.058716573 0.058024775
0000e0 e3 2d bd 3d 8a 72 1d bc ed dc 10 3d 13 68 5b bd
       0.09237268 -0.009609828 0.03536694 -0.05356605
0000f0 cb f3 d5 ba b4 39 ae 3b 77 c4 e4 b9 84 45 dc bc
       -0.0016323266 0.0053169373 -0.00043633927 -0.026888616
000100 26 21 1f 3c ce 75 c4 bc 3b d9 f1 3d 13 af b8 3b
       0.009712493 -0.023981955 0.118090115 0.005636105
000110 19 15 b9 3d 69 83 8c 3d 1e 70 a5 bd 89 a3 70 3d
       0.09037227 0.06861002 -0.08078025 0.05874971
000120 35 4a bd bd 19 b2 e8 bc 58 2c 7c bd 47 79 bf 3d
       -0.092426695 -0.028405236 -0.061565727 0.09349304
000130 fd ba be bd 5b 51 95 3c 25 65 46 3d cd 50 b8 bd
       -0.09313009 0.01822727 0.048436303 -0.089997865
000140 db 22 8f 3d 43 bd 4f bd 18 2d a0 bd 19 bc e4 bc
       0.0698907 -0.050717603 -0.07821101 -0.027921723
000150 46 27 81 3d af 10 1d bd f4 b9 8c 3d b7 c1 c3 bc
       0.06306319 -0.03834599 0.06871405 -0.023896081
000160 41 59 4b 3d 6d d6 04 3d 55 6b 92 bd 2e 15 87 3d
       0.049645666 0.032431055 -0.07149378 0.065958366
000170 7b b0 06 3d 6f ba 08 be d0 99 fa bd 13 86 ba 3c
       0.03288315 -0.13352369 -0.12236369 0.02276901
000180 17 69 dd 3c 93 07 2f bd 42 4c 8c bd 29 05 0f bd
       0.02702765 -0.042731833 -0.068504825 -0.03491703
000190 96 ae 41 3d 0c e5 10 3d 74 29 dc 3d 9a 86 b9 bd
       0.04728564 0.035374686 0.10750094 -0.09058876
0001a0 61 94 7b bd ae 0f 11 3e cb 33 ad 3d 60 58 97 3c
       -0.061420802 0.14166138 0.08457144 0.018474758
0001b0 df 61 8f b9 7a ae 4d 3c e3 bb a9 bc aa 9e a4 3d
       -0.00027348005 0.0125538055 -0.020719474 0.08038075
0001c0 41 8f 4d bd 00 17 93 3d 31 22 fd 3c 58 05 9d 3c
       -0.050185446 0.07182121 0.030900093 0.019167587
0001d0 46 79 81 3c 29 ed 98 bc 45 26 e0 3c dd 58 43 bd
       0.015804898 -0.018667774 0.027361998 -0.04769217
0001e0 92 56 a1 3d 72 bf bc bd 5e 9a ac 3d 9b 7c b7 bc
       0.0787784 -0.09216203 0.08427881 -0.022398284
0001f0 8c 73 88 3d 7c 6a 77 3d 61 00 ac 3c f2 94 d9 bc
       0.06662664 0.060404286 0.020996274 -0.02656028
000200 fd 91 4b bd f9 a5 84 3d 21 0a 6c 3c 01 d0 27 be
       -0.049699772 0.06476969 0.014406712 -0.16387941
000210 d4 37 40 3d 60 49 62 bd 55 95 93 bd 44 d6 88 3d
       0.04692824 -0.055245757 -0.07206217 0.06681493
000220 d8 c9 75 bb a6 49 6f bd b5 d4 60 bc 08 8a 89 bd
       -0.0037504341 -0.058419846 -0.013722588 -0.067157805
000230 49 5a 07 bd 47 41 9d 3c 69 fe 94 bd 0b 4c 70 bd
       -0.033045087 0.019196166 -0.072750874 -0.05866627
000240 5e 1f c6 bd 9b b1 2f 3d 0f e0 f7 bc 2f 4e 52 3d
       -0.096739516 0.042893987 -0.030258207 0.051344093
000250 f8 2d 6e bd 00 af b3 39 3d da 55 3d ed 4d 12 3d
       -0.058149308 0.00034271926 0.05221008 0.035718847
000260 80 cb 0c 3e d3 fc 80 bd b4 ba c7 bd 12 3e a4 bd
       0.13749504 -0.062982224 -0.09752408 -0.080196515
000270 82 51 76 3d de 84 54 bd 6f a7 a4 bd 9c d1 8f 3d
       0.060136326 -0.051884525 -0.08039748 0.07022402
000280 70 b9 0f 3c b1 be 16 3d be 16 26 3d 68 73 6c bd
       0.008772239 0.03680295 0.040549032 -0.057727247
000290 22 03 5b bd 86 9d 08 3d b8 ab ed bc a8 eb 6f 3c
       -0.053469785 0.03335335 -0.029012546 0.014643587
0002a0 d4 48 a2 bc 26 a0 b0 b9 4b 1a b2 bd ac ab a1 bd
       -0.019810118 -0.00033688656 -0.08696421 -0.07894072
0002b0 44 f5 68 3d ea 8f 86 bd 4b 9c c8 3c 09 15 12 3e
       0.05687453 -0.06570418 0.024488589 0.14265837
0002c0 a8 1b 92 3d 77 91 2c 3e 3d 1d 88 3d e5 63 bd bd
       0.07134181 0.16852365 0.06646202 -0.09247569
0002d0 b5 01 01 bc 32 50 a6 bd 1b a1 50 3d 35 2d 8d 3c
       -0.007873942 -0.08120765 0.050934892 0.01723347
0002e0 57 f2 58 3d 68 18 c2 bc 6a 38 2c 3d 71 87 5e 3d
       0.05296549 -0.023693278 0.04204599 0.054328386
0002f0 fc 26 9d bd 95 cc a2 bd 99 eb 66 3d 81 52 ba bd
       -0.07673451 -0.07949177 0.056377027 -0.090977676
000300 9f c4 fe bc bf 2b a8 bd 1d 5e 49 3d 92 0f bb bd
       -0.031099616 -0.08211469 0.04916202 -0.09133829
000310 02 69 b3 bd 46 4d d0 bd 76 3a 3e bd 29 9e db bd
       -0.08760263 -0.10170989 -0.04644247 -0.10723526
000320 aa 77 75 bc d8 eb ea ba 86 d6 26 be a0 64 2f 3d
       -0.014982143 -0.001792307 -0.16292772 0.042820573
000330 63 85 12 3c 50 5d 95 bd 75 3b c8 bb 26 33 ad bd
       0.008942935 -0.072931886 -0.0061106035 -0.084570214
000340 8c b5 b7 3d 70 d5 7a 3d c1 4e 2e bd 3d ab 1d bd
       0.08970174 0.061238706 -0.042555574 -0.038493384
000350 e1 41 95 3d af 7c ff 3c 61 d6 d4 ba c4 a3 0d 3c
       0.07287956 0.031187383 -0.0016238206 0.008645002
000360 08 7c db 3b b5 08 3f 3d 23 5c 03 bd 08 69 58 bd
       0.0066981353 0.046639163 -0.03207029 -0.05283454
000370 f6 27 58 3d 3d 32 51 bd 60 84 17 bd be 07 13 be
       0.052772485 -0.0510733 -0.036991477 -0.14358422
000380 cf 67 96 bd 19 20 4b bc eb 33 29 3d 1c 34 46 3b
       -0.07344019 -0.012397789 0.04130928 0.0030243462
000390 bf d9 99 bd 96 ad 30 bd 59 b9 7f bc ec 30 92 bd
       -0.07512235 -0.043134294 -0.015608155 -0.07138237
0003a0 a4 58 40 3d 3b 42 b3 3c 8e eb 43 3d 32 b2 6f 3d
       0.046959534 0.021882167 0.047832064 0.05851955
0003b0 35 cf a6 bc c9 65 90 bc db 51 9f bd 16 d8 f3 3d
       -0.020362476 -0.01762666 -0.077792846 0.119064495
0003c0 ce d5 16 3b f2 00 1f 3c 6f 8c 13 3d 10 25 5c 3d
       0.002301562 0.009704815 0.0360226 0.053746283
0003d0 63 8b 05 3e 3a 64 3a 3c dd 3e e2 bc 7c 57 f5 bd
       0.13041453 0.011376435 -0.027617866 -0.11979577
0003e0 85 7f a2 bd 4e dc 49 3c 46 a0 b9 bb ee ff 7d bc
       -0.07934479 0.012320591 -0.005664858 -0.015502913
0003f0 a0 62 d1 3b 81 43 ad 3d bb b7 b3 3b 82 6b 91 3d
       0.006389931 0.08460141 0.005484549 0.071005836

a2c_network.actor_mlp.4.bias f4 [64]
000000 58 4c 38 3c ce 96 7b bd 24 d7 49 3d 64 f1 73 3c
       0.0112486705 -0.061423115 0.04927744 0.014889095
000010 eb b7 eb bc e6 0b ea bc 3f c5 2b bd d6 91 57 bd
       -0.028774222 -0.028570127 -0.041936155 -0.052629314
000020 99 09 81 bd bb c3 11 bd 9f b2 dd bd 72 0d 37 3d
       -0.06300659 -0.035587054 -0.10825085 0.044690557
000030 f5 c6 98 3d 1e 61 92 b9 ba cd 89 bd 4a b6 a7 bb
       0.07459823 -0.00027919648 -0.06728692 -0.005118166
000040 1d ea 35 bd 01 36 3c bd 48 d7 57 3d 1d b5 37 bd
       -0.04441272 -0.04594994 0.052695543 -0.044850457
000050 e2 e5 82 bd 4d be 29 bd bb 2d 4e bd f1 08 60 bc
       -0.06391503 -0.04144125 -0.05033658 -0.013674007
000060 fd 72 b9 3c c9 97 f7 bc 65 d8 12 bd 16 92 31 3d
       0.022637838 -0.030223744 -0.0358509 0.04335221
000070 42 89 56 3d f6 1a 9c bd d3 57 c3 bd d7 97 a4 bc
       0.052376993 -0.0762233 -0.095382355 -0.020091934
000080 73 95 67 bd 76 b1 48 3a 7b 7d c8 3c 60 be 9c bd
       -0.05653901 0.0007655838 0.024473896 -0.07653499
000090 ef 79 94 bd 7c bd bc 3c 09 83 2c bc 2c 84 c5 ba
       -0.072498195 0.023039572 -0.010529288 -0.0015069298
0000a0 bb 7d af 3c c1 02 c3 3c 61 e8 48 bd 1c be ab 39
       0.021422258 0.023805024 -0.04904974 0.00032757304
0000b0 9a 63 ce bd c4 27 25 be 5f cb 7d 3d 7a 12 19 3d
       -0.10077591 -0.1612845 0.061961528 0.037371136
0000c0 ba 4f 72 bd db 9a a6 bd fa 97 38 3d 19 e6 77 bd
       -0.059158064 -0.08135005 0.04506681 -0.060522173
0000d0 d3 4f 00 3d 2f da 56 bd 8c 19 b0 3c 7b ea 72 bd
       0.031326126 -0.05245417 0.021496557 -0.05930565
0000e0 e2 fe 0e bd 36 53 3b 3d 82 dd 58 bd 43 ec 5a bd
       -0.034911044 0.045733653 -0.05294562 -0.053447973
0000f0 40 08 fe 3c 61 4b 86 bd d8 dd 83 bd 9a 68 84 bd
       0.031009793 -0.06557346 -0.06438798 -0.06465264

a2c_network.value.weight f4 [1, 64]
000000 eb 9d 9c 3d c3 26 93 3c 07 18 11 3d 5b 4a fe 3d
       0.07647308 0.017962819 0.035423305 0.12416526
000010 8f c3 41 bd 6c 7b 6c 3c 8b 7f 4b 3c 08 a1 6d 3c
       -0.04730564 0.014433723 0.012420545 0.014503725
000020 a4 51 b5 bc d4 e5 1a bd 7d 43 06 3d 1d 12 09 3d
       -0.022133656 -0.037816837 0.032779206 0.03346454
000030 fc 3d c2 3b 33 52 97 3c dd 6d 97 bd 47 e8 9f bc
       0.0059277993 0.018471813 -0.07394002 -0.019519938
000040 ec 15 d7 bd 0a 79 a6 bd 23 71 aa 3d e0 2f 68 bc
       -0.10502228 -0.08128555 0.0832236 -0.014171571
000050 97 79 09 be 3d 70 d7 3c 18 24 27 3c a1 5b 91 bc
       -0.13425289 0.026298637 0.0102014765 -0.017743887
000060 91 41 89 bd a8 31 f9 3c 32 b5 e4 bd 66 26 43 3d
       -0.06701959 0.030419186 -0.11167373 0.04764404
000070 43 96 b4 3c a6 6a a2 bd 0a dd b8 bc 41 0b f1 bb
       0.022044307 -0.07930498 -0.022566337 -0.007356078
000080 8e 6f db bd a3 dc a7 bc 02 84 87 bc c3 96 a2 bb
       -0.10714637 -0.02049095 -0.016542438 -0.00496182
000090 24 56 01 be 24 19 83 3d 64 2c d2 3c 85 5c 27 bd
       -0.12630516 0.064012796 0.025655933 -0.040859718
0000a0 4c bb 78 3d 8f 53 e1 bb 38 94 b5 bc 91 45 48 3d
       0.060725495 -0.006876416 -0.022165403 0.04889447
0000b0 e5 b5 40 bc 99 60 cc 3c 05 ba 92 3d c4 5d ea bc
       -0.011762117 0.024948405 0.07164387 -0.028609164
0000c0 1f b3 b6 bc 4f 0d f3 bd 22 7a 13 3c ee 1f 5b bd
       -0.022302208 -0.11867773 0.009001287 -0.053497247
0000d0 7b ec c7 3d 4b be 0f bd 63 94 62 3c 5d f6 cd ba
       0.09761902 -0.035093587 0.013829323 -0.0015713681
0000e0 f5 53 53 bc 30 f0 63 3d c6 35 2f bc ed b2 11 be
       -0.012898435 0.055648983 -0.010693973 -0.14228411
0000f0 56 b9 ec 3d 91 59 bd bd 6e e0 9e bb 21 8a 74 bb
       0.115587875 -0.09245599 -0.0048485314 -0.0037313777

a2c_network.mu.weight f4 [8, 64]
000000 0a 90 ad 3c 36 e0 e2 3c 71 01 1f be c8 17 49 3d
       0.021186847 0.027694803 -0.15527894 0.049094945
000010 23 f4 0e ba c7 ee 20 3d ab 3c 9c bd 56 c6 b0 3c
       -0.00054532493 0.039290216 -0.07628759 0.021578949
000020 d4 5a b3 bc f9 4b 9d 3d 42 a7 3d 3d 2d 80 1d 3d
       -0.021893896 0.07680506 0.046302088 0.038452316
000030 c7 2d 82 bd ad 41 16 be 7b ac 0f 3e f4 84 d9 bd
       -0.063563876 -0.14673491 0.1403064 -0.10621062
000040 73 21 b7 3b a7 08 88 ba 7c db df 3c 97 5e 49 bd
       0.0055887043 -0.0010378555 0.027326338 -0.049162474
000050 70 d3 6f 3c b5 68 a0 3d f2 eb 05 3d e0 85 87 bc
       0.014637813 0.07832471 0.032695718 -0.016543329
000060 6c e8 90 bd 47 0a e1 3d df bd 4f 3c cb 9f 00 3e
       -0.07075581 0.109882884 0.012679546 0.12560956
000070 97 d8 f0 bd 72 1b c2 3d 13 1e 3e bd 99 57 b5 bd
       -0.11760061 0.09477891 -0.0464154 -0.088545986
000080 59 04 cc bd 2f 2a b6 3d c8 d1 ae bd d8 0c 40 3e
       -0.09961767 0.08894765 -0.08536106 0.187549
000090 30 0a c6 3c d2 b6 11 3d 54 e1 b3 bc 0b 3b cc bd
       0.02417478 0.03557474 -0.02195803 -0.09972199
0000a0 8b 99 8f 3c 66 09 28 3e 95 78 00 3e c7 6a ea 3c
       0.01752927 0.16409835 0.12545998 0.028615369
0000b0 c3 62 13 be f2 9e 22 3c 6d 08 17 bc 1b ba ae bd
       -0.14393143 0.009925591 -0.009218317 -0.085315906
0000c0 9e 05 3b bc 8d 8c 93 3d 76 3a 30 bd f3 f7 6f 3d
       -0.011414913 0.07204542 -0.043024503 0.058586072
0000d0 2d f2 8e 3c 5a df 81 3c 3d 55 90 bd 48 e6 85 bd
       0.017449463 0.015853573 -0.07047508 -0.06538063
0000e0 17 0e 20 bc 7a 9b 0e be 13 ad 97 3d 1e d9 13 be
       -0.009768984 -0.13926497 0.07406058 -0.14438292
0000f0 43 32 7e bb 6e 35 c5 3d 21 01 71 3d 16 c3 f7 3d
       -0.0038787283 0.096293315 0.058838967 0.120977566
000100 15 75 fe 3c 49 0e 99 bd 26 29 8a bd e2 b6 bb 3c
       0.031061688 -0.07473428 -0.0674613 0.022914354
000110 fd a1 50 3b b7 fd db bd ec fa a8 bd 62 33 8f 3d
       0.0031834834 -0.10741752 -0.082509845 0.06992222
000120 ea f1 1c bc 6b d4 95 bd 25 6b a5 3c 07 37 49 bc
       -0.009579161 -0.07315906 0.020192692 -0.012281186
000130 f0 a7 a5 bd 9f 6e 37 bd 01 95 d4 3c 1b dc dc bc
       -0.08088672 -0.04478323 0.025949957 -0.026960423
000140 b3 a0 24 be eb 40 c7 3b f3 a3 7d bd cf 51 c9 3d
       -0.16076927 0.006080737 -0.061923932 0.09830057
000150 52 06 04 3e c1 ea 1d 3d 29 ce ad 3c 03 47 60 3c
       0.12893036 0.038553957 0.021216469 0.0136888055
000160 5a 82 59 bc 63 7a ba 3d dd 28 d1 bd b2 27 4c bd
       -0.013275707 0.09105375 -0.10212872 -0.049842544
000170 f9 4c f3 3d 02 dc 58 3d 20 2c 15 3d 1f bf 21 bd
       0.11879916 0.05294419 0.036419034 -0.039488908
000180 68 e9 38 3d e3 c6 8b 3d 36 9f 12 3d 6a 0d 64 b7
       0.04514447 0.06825044 0.035796367 -1.3592982e-05
000190 68 ce a5 bc 02 eb f7 3d f7 2b 19 3d 16 f4 3d bd
       -0.020240024 0.12105371 0.037395444 -0.046375357
0001a0 54 70 f6 3b 74 74 f0 3c b7 c1 3f be 84 f9 db 3d
       0.007520715 0.029352404 -0.1872624 0.10740951
0001b0 67 4c 2b 3b 95 3c bd 3c 30 b2 0b be 9e ce 92 bd
       0.0026138069 0.023100177 -0.13642192 -0.07168315
0001c0 26 53 13 bd c0 c4 03 3e f2 b8 fc 3d e7 9d 2f 3d
       -0.03596797 0.12868023 0.12339963 0.042875197
0001d0 8c 44 03 be 69 4d a4 3d 17 0f 20 3e 11 2b 43 3e
       -0.12819117 0.08022577 0.15630756 0.19059397
0001e0 9e 03 8f 3b 14 e9 51 bd b4 79 0a 3e cd 7e 6b bd
       0.004364445 -0.05124767 0.13522989 -0.057493974
0001f0 96 d0 1d 3d 6b df a6 bd 40 a3 5e 3d c3 8c 5f 3d
       0.038529 -0.08148082 0.054354906 0.0545776
000200 d9 ba fc 3c ff 51 ee 3c 63 08 2c bd 58 b9 a1 bc
       0.030850815 0.029091833 -0.042000186 -0.0197417
000210 61 88 01 3d aa 2c 0f 3e 15 0d 24 3e 84 81 74 3d
       0.0316242 0.13981882 0.16020615 0.05969383
000220 54 e4 92 bd 6c f5 f5 bd 10 ee df b9 5f b5 0d be
       -0.071724564 -0.12009701 -0.00042711245 -0.13838719
000230 2d 7f a5 3d a3 21 fb 3d 41 0e 29 bd 1b 62 fc 3c
       0.080808975 0.12262275 -0.04127336 0.0308085
000240 00 af 1c be a7 4a 9d bd 0f 15 9d bd 7b 62 b3 bd
       -0.15301132 -0.076802544 -0.07670032 -0.08759018
000250 ea 2e ae 3d 32 7d 7f 3d 3a 4d aa 3d cc 81 bc 3c
       0.08505042 0.062375255 0.08315511 0.02301111
000260 b6 72 c7 bd 74 7d a6 3d 88 1b 70 3c 57 fd 5b bc
       -0.09738676 0.08129397 0.014655001 -0.0134271
000270 f3 fe ea bd d1 09 06 3e 03 ff e7 3d 83 8b dc 3d
       -0.11474409 0.13089682 0.113279365 0.10768797
000280 ad 5a 99 bd 01 92 51 bd 9e 81 c7 3d 3a 10 20 3e
       -0.07487998 -0.05116463 0.097415194 0.1563119
000290 97 28 80 bd b4 f1 3e 3d 89 8a 29 3d 05 a3 09 be
       -0.06257742 0.046617225 0.041391883 -0.13441093
0002a0 a0 91 ad bc 9c 97 98 bd fe 26 a5 bd 8f 48 89 3d
       -0.021187603 -0.07450792 -0.08064078 0.067032926
0002b0 92 b1 fd 3d 9d d0 45 3e 53 dc 8b 3d 5d 81 63 ba
       0.123873845 0.19317861 0.06829133 -0.00086786394
0002c0 c5 43 c1 3d 6a a4 91 3a a5 97 a6 bd 50 be cc bc
       0.09436754 0.0011111621 -0.08134393 -0.024993092
0002d0 14 f3 8b bd 9b eb 28 3e a8 87 2b bd 32 fd 73 bc
       -0.06833473 0.16496126 -0.04187742 -0.014891909
0002e0 ba 9d bd 3d 12 51 a6 3d 23 66 03 bd ea 44 d2 bd
       0.092585996 0.08120932 -0.032079827 -0.102670506
0002f0 82 3c 7a 3d d5 a2 41 3d 94 88 06 3e a1 59 0a bd
       0.06109286 0.04727443 0.13138038 -0.033776883
000300 6c 1d ac bd 26 77 94 bd 6c 1e c2 bd e1 a9 fc bc
       -0.08404049 -0.07249288 -0.09478459 -0.030842723
000310 ac 2e 70 3d 71 2a b2 3d be 26 90 bd f9 1e 08 bc
       0.05863826 0.08699501 -0.070386395 -0.008308166
000320 1e d3 8e 3c bf a1 6b bd 1f 4b 0f bd 09 19 4a 3d
       0.017434653 -0.0575273 -0.03498375 0.04934028
000330 fe 37 bb 3d c7 99 48 bd 67 5b e0 bd e3 69 5f 3d
       0.09141539 -0.04897478 -0.109549336 0.05454434
000340 1a a7 84 bd b4 47 ff 3d f5 a6 b6 3d c0 87 94 bc
       -0.064771846 0.12464848 0.08918563 -0.018131137
000350 62 43 81 3d 40 57 dd 3d 77 df f5 bc 0a f5 f3 3d
       0.063116804 0.10807657 -0.030013783 0.11911972
000360 cf 50 06 bd e4 e5 3e 3d 8f 9f 71 3d d9 42 82 3d
       -0.03279191 0.04660596 0.058990058 0.063604064
000370 ae 9c d6 3d 43 c6 f7 3c f6 6b a5 bd 71 95 81 bd
       0.10479103 0.030245906 -0.080772325 -0.06327332
000380 4f 16 6b bd 07 68 fd bd 5d b6 73 bc ca 6d 84 3b
       -0.057394322 -0.12373357 -0.014875022 0.004041408
000390 ab b1 9c bd f4 34 02 3d 8c 56 a0 3d 48 08 1b bc
       -0.07651075 0.03178878 0.078290075 -0.009462424
0003a0 4a 48 88 3c 73 45 11 3d 63 89 a2 3d 66 9c e6 3d
       0.016636033 0.035466623 0.07936361 0.112602994
0003b0 2f 33 1f bd 58 c5 2a bb 0b ba 8e 3c 9a 5c 98 3d
       -0.03886717 -0.0026057567 0.017422697 0.07439537
0003c0 fb e6 6a bc f9 08 cc 3c 5a c4 2a 3d 47 2e 39 3d
       -0.014337297 0.024906622 0.04169116 0.04521015
0003d0 8b 7a 09 be ab c3 0f be b3 15 f7 bc 4b 76 3d 3c
       -0.13425653 -0.14039485 -0.030161714 0.011563848
0003e0 a3 b5 5a bc 27 84 a3 3d e9 1c 9e bd 28 5f 80 bc
       -0.01334897 0.079841904 -0.07720358 -0.015670374
0003f0 e2 b0 63 3d a8 cf e7 bd ba dd 38 bc 88 18 a6 bd
       0.05558861 -0.11318904 -0.0112833325 -0.08110148

a2c_network.mu.bias f4 [8]
000000 c9 da e5 bd 9d 0a 98 bd 90 ef 95 39 3a 0b f4 3c
       -0.112233706 -0.07423899 0.00028597983 0.02979051
000010 a5 49 80 bd 3c 0c 14 3d cc a9 01 be 57 5b ba bd
       -0.062640466 0.03614448 -0.12662429 -0.09099453

exp_avg f4 [8]
000000 f2 e1 3b 3b e8 ab ed 3a c1 be 99 3b a3 5c 2b 3b
       0.002866861 0.0018132897 0.004691929 0.0026147745
000010 bf fb 8c 3b 35 d9 e9 3b 8a 06 54 3b fb a7 0c 3b
       0.0043024714 0.007136489 0.003235253 0.002146243

exp_avg_sq f4 [8]
000000 1a 0a 2e 38 dc 17 87 38 58 38 5d 38 7f 7a 63 38
       4.149424e-05 6.441746e-05 5.274298e-05 5.42351e-05
000010 80 99 3d 38 65 f4 99 38 35 6a 2d 38 30 e9 59 38
       4.520407e-05 7.3411305e-05 4.1345327e-05 5.1954004e-05
