IsaacGymEnvs/isaacgymenvs/runs/Ant_22-18-09-58/nn/last_Ant_ep_250_rew_4594.769.pth (torch, 706350 bytes, 36 tensors)

value_mean_std.running_mean f8 [1]
3.2792194034089692
00000000: b766 f061 d73b 0a40

value_mean_std.running_var f8 [1]
3.0671444286316447
00000000: f4a6 a804 8389 0840

value_mean_std.count f8 []
32768001.0
00000000: 0000 0010 0040 7f41

running_mean_std.running_mean f8 [60]
0.6020069322314799 2.907469787092004 -0.36367996892227755 -0.40663924679997415 -0.01724500991900547 -0.0033828792190641415 -0.051700759837160805 2.4304456176295077
3.8426870084457705 -2.431060423767216 0.8989221239390219 0.816289636321033 -0.7000476892997274 -0.5007084157281306 -0.3371306273227627 0.7645201538181006
0.15132959779767638 0.7424779576332913 -0.5656344266837299 -0.7224952117139976 0.025145574336461383 0.0643339618824511 0.03685251970806462 -0.06863992780411031
-0.01691828292980175 -0.05395976112381843 0.025473749209244136 0.06899482242796136 -0.5344675114461094 0.14833273054926305 -0.21385435708597375 -0.050084279007908586
-0.004497815721890854 0.045668804681207285 0.02444774092691279 0.03792015756700613 -0.39210366765511606 -0.06129801012880507 8.744231200748597e-06 0.015135993491378634
-0.34274754623807663 0.06650816594396791 -0.20241046857468573 0.059336597570513114 -0.0009255274661581123 -0.008014544751314138 0.26728346495824945 -0.09206688962427834
-0.2383223123376343 0.08382578291000656 0.0022943453800154086 0.030737969556293834 -0.4921112582460017 -0.1703434113910181 -0.13523100277222794 0.22710820091165307
0.08155848816408123 0.23386830154825652 -0.30027953830257104 -0.3155063915280375
00000000: a9c8 bc0a a443 e33f 8e58 0d85 7f42 0740
00000010: 8bd0 2e59 8846 d7bf 5ba9 919e 6006 dabf
00000020: 633c 7c06 ada8 91bf 5321 9773 69b6 6bbf
00000030: 1da0 5ba1 8578 aabf ed66 d378 8d71 0340
00000040: 2d4f b0af d2bd 0e40 d570 b5ce cf72 03c0
00000050: b401 7f54 f8c3 ec3f 9400 8271 0b1f ea3f
00000060: aad8 6569 ca66 e6bf 214c cca7 cd05 e0bf
00000070: df32 b556 8c93 d5bf 2003 39f8 f276 e83f
00000080: f39a baac c45e c33f c325 4122 61c2 e73f
00000090: 8425 835e ad19 e2bf be80 3a47 ae1e e7bf
000000a0: 262e a8ed c2bf 993f 27a7 4ec6 3078 b03f
000000b0: f6b8 d75d 55de a23f 0f53 1ee5 6292 b1bf
000000c0: f248 8dbf 0653 91bf b54e a722 9da0 abbf
000000d0: 5774 0a5f ca15 9a3f 45e2 eb09 a5a9 b13f
000000e0: fdef 4d9c 5b1a e1bf ea56 5121 91fc c23f
000000f0: 634b e55e 945f cbbf 22f2 c388 a5a4 a9bf
00000100: cf00 dd36 4d6c 72bf a33c 1bcd e661 a73f
00000110: b7fb f71e d408 993f ea0a 3859 456a a33f
00000120: a61a 4efb 3918 d9bf ed4d a0e9 7362 afbf
00000130: 6baa 32fc 8556 e23e 89b3 4da8 9eff 8e3f
00000140: 471d 7867 93ef d5bf d072 a5dd ad06 b13f
00000150: 51ba 7213 96e8 c9bf 7ee3 0ad4 5d61 ae3f
00000160: acf6 6e19 e353 4ebf 4235 cbfc ed69 80bf
00000170: ad76 301b 2c1b d13f 4810 fb17 b291 b7bf
00000180: a6d8 b274 5881 cebf 9afa 2844 9b75 b53f
00000190: 3ac1 ee4b 97cb 623f a47a f537 c679 9f3f
000001a0: 3d3d 0a38 c07e dfbf 42ba 811a d0cd c5bf
000001b0: c2ef 27df 3f4f c1bf 44d3 c8ab e111 cd3f
000001c0: 143d 605f 04e1 b43f 1744 5c81 65ef cd3f
000001d0: aeb8 2aab c737 d3bf 5eae 52b8 4131 d4bf

running_mean_std.running_var f8 [60]
0.013935384227349534 4.013869178212222 1.2495450322760666 0.7367130694566396 3.5346686477176 5.5412650955972556 7.4713406341900175 7.22049525290431
8.386426153367585 7.22052345207851 0.09474480637286786 0.12867744974345416 0.31112742569306395 0.2797223060223504 0.38910586745906606 0.27110834122476235
0.48742167035287054 0.24780353948624412 0.41067306325190445 0.2067471868175163 1.9108764590295166 3.4296163260854438 3.667564374454651 0.9431963858621637
5.802591127702786 1.2058556694515532 1.3659194504751166 1.866025844008218 1.2548259283510912 0.21644309263012118 1.1320792035490421 0.025063711148941015
6.325574019399292e-05 0.005845423503825909 1.697061366183247 0.14353728487425704 0.9739745806057964 0.019872220948249402 6.0830258767849066e-05 0.008579782903407449
3.028286918351044 0.15116107718833827 1.0845732303177282 0.023135420396475072 7.763513680687664e-05 0.015937339548960025 0.9983835713918431 0.1599397106942818
0.9464590460009481 0.021144672679375472 4.183508717114718e-05 0.0047955316089021375 0.3775201889160162 0.41471351554972613 0.5028141081891806 0.3297828859802143
0.558856095755969 0.37410628188445083 0.40904862183309365 0.3797835657859785
00000000: 06fa 1b9c 278a 8c3f 2560 cbb8 330e 1040
00000010: 5c14 88ee 22fe f33f f143 7b49 2793 e73f
00000020: 2b26 215b 0047 0c40 e239 b065 412a 1640
00000030: f47c 841e a7e2 1d40 cb96 f081 c9e1 1c40
00000040: d310 16a6 d9c5 2040 80b6 5ae6 d0e1 1c40
00000050: 985a d614 3241 b83f afbe 30af 8078 c03f
00000060: 6262 8f01 83e9 d33f 04f9 1463 f8e6 d13f
00000070: 0ec7 da4b 1ce7 d83f 24ec cecc d659 d13f
00000080: d2be 61a9 ea31 df3f 5896 f6c0 06b8 cf3f
00000090: e4f6 00ac 7748 da3f 06eb f51a b176 ca3f
000000a0: 20a6 a331 f392 fe3f cfea 32af da6f 0b40
000000b0: 340f a2fd 2b57 0d40 ee77 df2f aa2e ee3f
000000c0: 432c d672 da35 1740 87d9 7f50 2f4b f33f
000000d0: b82c 8c5a ceda f53f f618 58ea 3ddb fd3f
000000e0: 6b0d 475a c413 f43f dc4e 2542 68b4 cb3f
000000f0: 0a99 3b15 ff1c f23f 20eb cd2e 4daa 993f
00000100: 88ad 7757 0595 103f 1ab5 7bec 5ef1 773f
00000110: 78fe b0d1 2927 fb3f 2652 2504 6e5f c23f
00000120: 70ca 5abd cc2a ef3f 0b56 492c 6259 943f
00000130: 32de afc6 7fe4 0f3f c5b8 d0f7 4692 813f
00000140: 63c7 e97d ee39 0840 98dc 7905 3f59 c33f
00000150: b84e a575 695a f13f 3aa4 edc7 cfb0 973f
00000160: a893 927e 015a 143f 5c95 97c0 e051 903f
00000170: 93bb 7f1a c2f2 ef3f 04bf 6189 e778 c43f
00000180: 527a 327b 6449 ee3f 9ff6 91f6 f2a6 953f
00000190: ce7e 59a6 02ef 053f 1aaf d5b6 7aa4 733f
000001a0: 8756 3e70 4a29 d83f 5cb2 9f8e aa8a da3f
000001b0: 5c7a d49c 0d17 e03f 7031 84ad 291b d53f
000001c0: f025 ce2d 26e2 e13f faff 7a79 5bf1 d73f
000001d0: fece 4f45 da2d da3f 8cfa a6ba 5f4e d83f

running_mean_std.count f8 []
16384001.0
00000000: 0000 0020 0040 6f41

a2c_network.sigma f4 [8]
-0.85215795 -1.2909423 -1.1173239 -1.1800396 -0.95622873 -1.3162215 -0.80011576 -1.0493666
00000000: 0627 5abf 993d a5bf 7804 8fbf 8a0b 97bf
00000010: 68cb 74bf f279 a8bf 63d4 4cbf a551 86bf

a2c_network.actor_mlp.0.weight f4 [256, 60]
0.051544428 -0.18656772 -0.021829069 -0.06256406 0.2311587 -0.099258624 0.19398546 -0.08232445
-0.10801357 -0.07120542 0.050858285 -0.03565637 0.25852892 -0.2808432 -0.12318174 -0.1011129
-0.08888705 -0.0130724255 0.058130898 0.20457405 0.036394306 -0.15850969 0.06972507 -0.015117093
0.11640403 -0.14792745 0.14325996 -0.0062926915 -0.07711209 0.04574356 0.033902828 -0.040880352
0.07392144 0.051726107 -0.08870617 -0.028178599 0.08821523 -0.047535583 -0.048379205 -0.13515651
-0.09247569 0.047221392 0.021522848 -0.09188695 -0.032299243 -0.084480055 -0.12885483 -0.020722527
-0.098845765 -0.07771688 0.09428464 0.00895985 0.060271338 -0.034315415 -0.0060289376 -0.033147987
-0.025465203 -0.116049096 -0.008944265 -0.046986453 0.040497746 -0.13458215 -0.050903924 -0.079584755
-0.06927886 -0.10910479 0.053340953 -0.04332373 0.20495245 -0.08420502 0.12463339 0.04806979
-0.030756433 0.09732665 0.16583304 -0.051477835 -0.24186255 -0.13192378 0.06570582 -0.017354777
0.07266409 -0.10597957 0.12028818 -0.083844095 -0.15939483 0.10809888 0.12479069 0.07345591
0.09008023 -0.11135322 -0.033278514 -0.083290935 -0.020499488 -0.1355209 0.06952891 -0.07471526
0.06942037 0.022445522 0.043807466 -0.081646204 0.049244493 0.013248373 0.014462948 -0.11841165
0.0027429012 -0.061198995 -0.084535636 0.1400385 -0.003595361 -0.02759663 -0.09607093 0.035324115
0.052184258 -0.058870528 -0.0044157966 -0.06571411 -0.0522524 0.07170434 0.12937911 -0.16433056
0.07797026 0.106133446 0.027483677 -0.080347754 0.116933696 0.047054127 0.054447792 -0.0028696398
-0.05351435 -0.00600769 0.019621573 -0.019900845 0.1476689 0.16421716 -0.022450225 0.023737017
-0.02579469 -0.07577295 0.026924027 0.06409799 -0.13921957 -0.025484644 0.0817325 0.050112132
0.027281983 -0.13152179 0.018667573 -0.09796973 -0.013716517 0.06709902 0.017511742 0.0064402334
-0.070586555 -0.04822609 -0.068722256 0.073674135 -0.0043019233 -0.0420849 0.034243014 0.021371128
-0.02870167 0.1140072 -0.011734413 -0.024580244 -0.08911228 0.11210373 0.09404264 0.028975585
-0.07474603 -0.14051156 -0.11127272 0.076098174 0.040149108 0.13223067 0.037504714 0.0108352555
0.006489434 -0.03608385 -0.03903808 -0.053466063 0.061772883 -0.01216599 -0.027148258 -0.11417918
0.05960839 -0.26168075 -0.0914437 0.024185164 -0.13509643 0.0983264 -0.07437138 -0.15239435
-0.019839793 -0.2076476 -0.07287128 -0.14660072 0.13736126 -0.105371274 0.08962359 0.07319646
0.057107706 -0.29992828 0.056037974 0.0050851395 0.06263679 0.07293207 -0.019352797 0.015032941
0.047820125 -0.12525688 0.081677444 -0.10698175 0.124763384 0.034435283 0.17993855 -0.037717074
-0.092717975 0.050766625 0.06296674 -0.16023533 0.019232228 -0.03752609 -0.031155027 -0.074447185
-0.04450759 -0.08562356 -0.05190176 0.10417596 0.049420834 0.012190211 -0.021978248 0.0045756535
-0.10146329 -0.17154385 0.121438235 -0.10191632 -0.11743723 -0.044705417 -0.014863876 -0.07434124
-0.035894547 0.018585308 0.033838354 -0.012512235 -0.07202388 0.1419954 -0.04633664 0.008700584
-0.0773248 0.036005225 0.28012377 0.17198628 -0.12859455 -0.0039017648 0.07271825 0.03511423
00000000: 4020 533d 9c0b 3fbe e0d2 b2bc 9621 80bd
00000010: deb4 6c3e 1b48 cbbd 20a4 463e b999 a8bd
00000020: 3836 ddbd 26d4 91bd c750 503d 6a0c 12bd
00000030: e75d 843e aeca 8fbe b546 fcbd 4814 cfbd
00000040: 6a0a b6bd ba2d 56bc aa1a 6e3d dc7b 513e
00000050: 3212 153d 5d50 22be 04cc 8e3d afad 77bc
00000060: 3c65 ee3d 4b7a 17be bdb2 123e ec32 cebb
00000070: f2ec 9dbd 995d 3b3d b1dd 0a3d 2872 27bd
00000080: 2064 973d c1de 533d 95ab b5bd ced6 e6bc
00000090: 30aa b43d acb4 42bd 4629 46bd 7866 0abe
000000a0: e563 bdbd 386b 413d af50 b03c 3a2f bcbd
000000b0: 364c 04bd e103 adbd 85f2 03be 4ac2 a9bc
000000c0: a66f cabd 072a 9fbd 4e18 c13d 56cc 123c
000000d0: 14df 763d 528e 0cbd 658e c5bb 2fc6 07bd
000000e0: 679c d0bc 26ab edbd f78a 12bc de74 40bd
000000f0: f7e0 253d e7cf 09be a280 50bd 55fd a2bd
00000100: 13e2 8dbd 5572 dfbd 0b7c 5a3d 3974 31bd
00000110: 0edf 513e ae73 acbd ca3f ff3d d4e4 443d
00000120: eaf4 fbbc 3253 c73d 23d0 293e 6cda 52bd
00000130: d1aa 77be 0717 07be c690 863d 9b2b 8ebc
00000140: e9d0 943d d10b d9bd a659 f63d 74b6 abbd
00000150: 6638 23be f262 dd3d 4392 ff3d 0d70 963d
00000160: fc7b b83d 280d e4bd 0d4f 08bd 7094 aabd
00000170: 8bee a7bc fec5 0abe 2c65 8e3d 5004 99bd
00000180: 442c 8e3d acdf b73c 756f 333d 2036 a7bd
00000190: 98b4 493d b40f 593c 00f6 6c3c cf81 f2bd
000001a0: 3fc2 333b ccab 7abd 0521 adbd 4166 0f3e
000001b0: 26a0 6bbb 5412 e2bc d6c0 c4bd 05b0 103d
000001c0: 29bf 553d 3922 71bd 63b2 90bb 1f95 86bd
000001d0: 9d06 56bd bad9 923d f57b 043e 4546 28be
000001e0: dfae 9f3d 7e5c d93d 7325 e13c 5d8d a4bd
000001f0: ef7a ef3d d4bb 403d a604 5f3d 9110 3cbb
00000200: dd31 5bbd 28dc c4bb 6cbd a03c 1907 a3bc
00000210: 8436 173e 8b28 283e 89e9 b7bc 2274 c23c
00000220: 634f d3bc d92e 9bbd c78f dc3c cf45 833d
00000230: 938f 0ebe 2cc5 d0bc 5e63 a73d 6142 4d3d
00000240: 777e df3c a6ad 06be bdec 983c 5ba4 c8bd
00000250: 3ebb 60bc 366b 893d c974 8f3c 9808 d33b
00000260: af8f 90bd b888 45bd 41be 8cbd 77e2 963d
00000270: 26f7 8cbb 3761 2cbd 6742 0c3d 8112 af3c
00000280: c41f ebbc 9b7c e93d b241 40bc 825c c9bc
00000290: 8080 b6bd a496 e53d 6d99 c03d 355e ed3c
000002a0: 7214 99bd 43e2 0fbe f4e2 e3bd 5cd9 9b3d
000002b0: 6473 243d 7a67 073e 8b9e 193d 5b86 313c
000002c0: 51a5 d43b a9cc 13bd 65e6 1fbd 3bff 5abd
000002d0: 9005 7d3d dc53 47bc 0666 debc c6d6 e9bd
000002e0: ed27 743d 05fb 85be d646 bbbd f71f c63c
000002f0: b856 0abe 5a5f c93d 0650 98bd 440d 1cbe
00000300: 1087 a2bc 93a1 54be 8a3d 95bd 801e 16be
00000310: 6ea8 0c3e e5cc d7bd 938c b73d 07e8 953d
00000320: c5e9 693d 3390 99be 1388 653d 3ea1 a63b
00000330: b847 803d 695d 953d c289 9ebc b94c 763c
00000340: 09df 433d 5743 00be 8146 a73d 3f19 dbbd
00000350: f283 ff3d 030c 0d3d d041 383e 387d 1abd
00000360: ece2 bdbd aaf0 4f3d b5f4 803d bb14 24be
00000370: e88c 9d3c f5b4 19bd d438 ffbc c477 98bd
00000380: 974d 36bd 685b afbd f196 54bd 355a d53d
00000390: 806d 4a3d 73b9 473c ba0b b4bc 5def 953b
000003a0: fccb cfbd 31a9 2fbe 9cb4 f83d 81b9 d0bd
000003b0: ee82 f0bd 071d 37bd 9d87 73bc 3840 98bd
000003c0: 2906 13bd 3740 983c 169a 0a3d 1e00 4dbc
000003d0: 4281 93bd 3e67 113e 7dcb 3dbd e58c 0e3c
000003e0: 775c 9ebd 377a 133d 626c 8f3e 2c1d 303e
000003f0: 4aae 03be c0b4 7fbb 4eed 943d f0d3 0f3d

a2c_network.actor_mlp.0.bias f4 [256]
-0.05874642 0.006669691 -0.03990529 0.027763776 0.020946492 -0.0026307579 -0.006844728 -0.058405697
-0.050003953 -0.008372237 0.015953988 -0.008719625 -0.0019434514 -0.020802902 -0.05866778 0.013140663
-0.036071297 0.086364366 -0.07739033 0.01760239 -0.049490917 -0.039546024 0.019927947 0.03415878
-0.06945227 -0.013486004 0.015975924 0.04277815 -0.042814523 0.060286745 -0.076285936 0.010146445
-0.017802909 -0.034964934 0.049942765 0.1025768 -0.0075155706 -0.011646128 -0.021509018 0.04346491
0.028939616 0.059647914 -0.015940055 0.063178875 -0.01467234 -0.019005455 0.020339837 0.021568324
-0.029053085 -0.03765272 -0.004006551 -0.041755393 -0.036875647 0.027065614 0.050351616 0.07579743
-0.026707357 0.005385402 0.06937582 0.017377052 0.028756319 0.010648642 -0.02485432 -0.025785292
-0.034483936 -0.023118492 -0.06325819 -0.028939376 0.05307805 -0.011261132 -0.041704077 -0.026304241
0.054746207 0.013303398 -0.02893106 -0.00788041 -0.017764872 0.086950816 -0.0153709715 -0.01952357
0.0026591811 -0.043185517 -0.054566383 -0.0037122355 -0.007061403 -0.07641931 -0.003239806 0.007394395
0.004566037 -0.030066283 0.037085 0.022865314 -0.031171283 -0.017703908 0.011670432 -0.009961663
-0.035701327 -0.03949648 0.06621645 -0.03193037 -0.048530217 0.08761375 -0.033800427 0.024855955
-0.010272142 0.008833641 -0.026518317 -0.046987686 -0.00060017395 -0.013888938 0.009258048 0.014461943
-0.036288116 0.011341438 0.023056943 -0.024369808 -0.03487764 -0.029002966 -0.029583164 0.03308323
-0.021716047 0.05189026 0.04667602 0.01832367 -0.0002044436 0.029186228 0.04073156 0.0020234736
0.0066459766 -0.015731199 0.0054188343 0.026910106 -0.045394775 -0.011071955 -0.0046759797 0.03320748
-0.13101625 0.031863112 -0.0005324118 -0.09889121 -0.0124765355 -0.0038555374 0.0145457275 0.01793565
-0.009100877 0.017030494 0.047975175 0.061010096 0.0303715 -0.006140722 -0.06100522 0.009024148
-0.016326986 -0.0029976664 0.009417498 0.012417532 -0.014478956 0.013490823 0.026175315 0.0016157172
0.051338658 0.07255509 -0.038914472 -0.043876696 -0.007760349 0.028942151 -0.035431653 0.017879555
0.014135577 -0.02821265 -0.035593376 -0.037405208 0.06339143 0.028945401 -0.011049163 -0.014045445
0.024428733 -0.008082214 -0.018051865 -0.062332235 0.049962226 -0.067061655 -0.10525146 -0.08069175
0.007290238 -0.007587152 0.07295105 -0.033926595 -0.022454558 -0.022613361 -0.02549577 -0.04100884
-0.06506836 0.0033177834 -0.10857282 0.093896225 0.034274373 -0.028063247 -0.02253173 0.0017466582
0.00832364 -0.022180842 0.05787219 -0.0425865 -0.070127055 -0.0013458537 -0.0016028892 -0.002375621
-0.03500845 0.06830094 0.03209626 -0.0014109499 0.010760011 -0.0024927119 0.0021656833 -0.05430541
-0.045812324 0.011436863 -0.031880226 0.0030519282 -0.024850605 -0.013729336 0.020108668 -0.010391326
0.05882362 0.02849395 0.11760351 0.020042468 -0.053538177 -0.057323936 0.03965031 0.0063731615
0.053143565 -0.026729617 0.02910788 0.02068213 0.041167296 -0.012729336 -0.019601643 0.021889718
0.015664287 -0.01691486 0.09181854 0.023033082 0.0013373237 0.020754358 0.07407839 -0.06818397
-0.033559874 -0.084215924 0.037339248 0.037552837 0.021877928 0.060828272 -0.00094668596 -0.028328106
00000000: 16a0 70bd 6c8d da3b bb73 23bd dc70 e33c
00000010: fa97 ab3c cb68 2cbb bd49 e0bb d03a 6fbd
00000020: f2d0 4cbd b52b 09bc f0b1 823c c2dc 0ebc
00000030: 68bb feba d96a aabc a04d 70bd ef4b 573c
00000040: 7fbf 13bd cddf b03d d27e 9ebd e332 903c
00000050: fdb6 4abd 03fb 21bd ef3f a33c 14ea 0b3d
00000060: fe3c 8ebd 67f4 5cbc f1df 823c 2438 2f3d
00000070: 485e 2fbd 3cef 763d cd3b 9cbd 463d 263c
00000080: 68d7 91bc 6437 0fbd c990 4c3d c913 d23d
00000090: 2d45 f6bb 67cf 3ebc ae33 b0bc 4308 323d
000000a0: c612 ed3c 5f51 743d b894 82bc ed63 813d
000000b0: 4164 70bc 54b1 9bbc bb9f a63c 0eb0 b03c
000000c0: bc00 eebc bd39 1abd 6349 83bb b407 2bbd
000000d0: eb0a 17bd b5b8 dd3c 7f3d 4e3d af3b 9b3d
000000e0: 63c9 dabc 0778 b03b e914 8e3d 525a 8e3c
000000f0: 5f92 eb3c a477 2e3c 499b cbbc ad3b d3bc
00000100: 073f 0dbd fe62 bdbc 838d 81bd 4512 edbc
00000110: 5f68 593d 9c80 38bc e5d1 2abd fe7b d7bc
00000120: 8f3d 603d 7ff6 593c d500 edbc d61c 01bc
00000130: a387 91bc 4513 b23d 87d6 7bbc e5ef 9fbc
00000140: a845 2e3b 4ce3 30bd 0081 5fbd fa48 73bb
00000150: 5763 e7bb ba81 9cbd ed52 54bb ae4c f23b
00000160: b29e 953b 914d f6bc 71e6 173d 0a50 bb3c
00000170: eb5a ffbc c907 91bc 5735 3f3c 3e36 23bc
00000180: 8e3b 12bd 10c7 21bd 7d9c 873d 6bc9 02bd
00000190: 9fc7 46bd d66e b33d 5172 0abd b79e cb3c
000001a0: 7c4c 28bc faba 103c f13c d9bc 2976 40bd
000001b0: fe54 1dba 6e8e 63bc 11af 173c c9f1 6c3c
000001c0: d9a2 14bd 70d1 393c eae1 bc3c 31a3 c7bc
000001d0: dbdb 0ebd a197 edbc 6458 f2bc 4882 073d
000001e0: dae5 b1bc e28a 543d 5b2f 3f3d 851b 963c
000001f0: e95f 56b9 f517 ef3c 23d6 263d 419c 043b
00000200: 7ec6 d93b b7de 80bc 7a90 b13b 9572 dc3c
00000210: dfef 39bd 2567 35bc f638 99bb 9104 083d
00000220: 2029 06be e582 023d 8d91 0bba 7a87 cabd
00000230: 626a 4cbc 2fad 7cbb 3451 6e3c c9ed 923c
00000240: d81b 15bc 8983 8b3c 9e81 443d b9e5 793d
00000250: a7cd f83c 1c38 c9bb 9ce0 79bd 05da 133c
00000260: 2cc0 85bc 7f74 44bb d94b 1a3c e772 4b3c
00000270: 2539 6dbc 9d08 5d3c 9d6d d63c 79c6 d33a
00000280: 7c48 523d c397 943d c864 1fbd 0db8 33bd
00000290: 874a febb 1718 ed3c c820 11bd 2578 923c
000002a0: e898 673c 371e e7bc 5cca 11bd 3436 19bd
000002b0: 5ed3 813d e81e ed3c 8c07 35bc de1e 66bc
000002c0: c41e c83c 436b 04bc 81e1 93bc 1650 7fbd
000002d0: 31a5 4c3d 9f57 89bd 148e d7bd b741 a5bd
000002e0: f3e2 ee3b a59d f8bb 5c67 953d 9df6 0abd
000002f0: 9ff2 b7bc a83f b9bc 81dc d0bc e3f8 27bd
00000300: 8f42 85bd 2b6f 593b 6d5b debd aa4c c03d
00000310: 4963 0c3d e5e4 e5bc 7694 b8bc 20f0 e43a
00000320: e05f 083c 99b4 b5bc 640b 6d3d 2f6f 2ebd
00000330: c69e 8fbd 5b67 b0ba 0918 d2ba 4fb0 1bbb
00000340: 0565 0fbd 5de1 8b3d 5e77 033d 9fef b8ba
00000350: c24a 303c c45c 23bb 23ee 0d3b 596f 5ebd
00000360: b4a5 3bbd ae61 3b3c d794 02bd dc02 483b
00000370: 7f93 cbbc 02f1 60bc efba a43c 6140 2abc
00000380: 09f1 703d 256c e93c 1cda f03d 1a30 a43c
00000390: d94a 5bbd 81cc 6abd 5d68 223d f4d5 d03b
000003a0: 11ad 593d 12f8 dabc a673 ee3c 926d a93c
000003b0: 0a9f 283d b48e 50bc a093 a0bc 1152 b33c
000003c0: 6452 803c 0891 8abc 5c0b bc3d e0af bc3c
000003d0: 2349 af3a 0b05 aa3c 69b6 973d 0aa4 8bbd
000003e0: 1476 09bd 6679 acbd 0af1 183d 01d1 193d
000003f0: 5739 b33c 1127 793d 052b 78ba 5810 e8bc

a2c_network.actor_mlp.2.weight f4 [128, 256]
-0.058127716 0.07479788 -0.077783935 -0.01928927 0.0139391115 0.04458355 -0.01742073 0.06438317
-0.0060203834 0.07368245 0.10431631 -0.08533969 -0.032223202 0.008700555 -0.029913923 0.0034616261
-0.06308235 0.04978427 -0.027536301 -0.014141927 -0.007564026 -0.009602326 -0.043038774 -0.03918598
-0.02346822 0.021886393 0.01488222 -0.10256423 0.023210134 -0.10328688 -0.0102647785 -0.0033301688
0.08776441 0.00013704326 0.044459414 -0.0013380139 -0.07129614 -0.028569514 -0.030876655 -0.04721296
0.012831123 0.02142073 -0.030640485 0.031941794 -0.086131066 -0.005007637 0.04086396 0.036856838
-0.009626324 -0.033745866 0.1020993 0.09756304 0.012197744 0.014839678 -0.076637164 0.040724024
0.046211455 -0.10026596 0.0042002583 -0.148099 -0.046760462 -0.033386823 -0.0401303 0.036473967
0.005770781 0.04515401 -0.024781337 -0.0029374622 0.022780312 -0.09714721 0.007961699 -0.0695831
-0.059478242 -0.04630349 -0.010676759 0.06321298 0.029910723 -0.040008444 -0.036346577 -0.016058648
0.09702349 -0.046203 0.023632828 0.06606273 0.055724673 -0.01823261 0.0026860496 -0.02679777
-0.0409481 -0.07802466 -0.0045411447 -0.07714516 0.07529667 -0.010412082 0.089198634 -0.032751083
0.040632132 0.014471889 0.036182012 0.002782708 -0.0007516624 0.0101068085 0.050420564 0.014604945
0.048627 -0.031239389 0.044581175 -0.010397628 -0.027060913 -0.057850778 -0.007380669 -0.012365998
0.002054256 0.04189179 -0.023821749 -0.027632495 0.012301546 0.042830918 -0.06269715 -0.039568786
0.04609738 -0.001973311 0.01140799 0.013928749 0.10653186 -0.0784521 0.031663973 -0.08158511
0.08403018 -0.028779862 0.046621542 -0.02116809 -0.030986255 -0.0027286028 0.024514679 -0.012393252
-0.015997835 0.057920426 0.042334512 0.032421786 -0.043396864 -0.03840055 -0.030170495 -0.05240079
-0.033840086 0.006021338 0.027990889 0.018628854 0.021543901 -0.027058376 0.021898318 -0.07002754
-0.050916653 0.0434049 -0.016554877 0.082018465 -0.08367766 -0.06592523 -0.053424127 -0.08768233
-0.08362144 0.07161053 -0.007825867 0.06285354 0.046836648 0.0559328 -0.025461642 0.081044726
0.07188872 0.020747917 -0.019624155 0.0733251 0.103649706 -0.032573625 0.028182862 -0.036098544
-0.018724516 -0.06865554 -0.03853783 0.04603654 0.00029275802 -0.02501067 -0.040311452 -0.023474071
-0.022477288 -0.00013088419 0.076179855 0.008562898 -0.0059742117 -0.023283832 -0.08643236 0.010393178
-0.02526667 0.04171624 -0.034578215 0.11314139 -0.001452424 0.06238467 0.055160325 -0.018033437
0.084338725 0.017234607 0.023922654 -3.356026e-05 -0.07179555 -0.041524652 0.02828133 0.051088415
0.040827956 0.0012733288 0.09568392 -0.09787086 0.014742275 -0.018721027 -0.0019683668 0.011719811
0.09010094 0.0067103445 0.052555133 -0.00090827676 0.002520545 0.074951775 0.022269744 0.028386736
-0.043602422 0.09688346 -0.035173662 -0.018731069 -0.0384022 -0.016899627 0.024035553 0.09893985
0.053956874 0.024746636 0.046038065 0.09279549 -0.02815622 0.014557657 0.056425966 0.12516856
-0.0029006957 -0.046417948 0.011812524 -0.033478174 0.14756645 -0.0713938 -0.041496802 0.037381023
-0.09466284 -0.028652746 0.030486131 0.07618661 -0.055825222 0.05381178 0.07885978 0.03695344
00000000: 5417 6ebd a22f 993d 2f4d 9fbd 8804 9ebc
00000010: df60 643c 3e9d 363d ebb5 8ebc 53db 833d
00000020: a346 c5bb d3e6 963d caa3 d53d 93c6 aebd
00000030: 7afc 03bd c68c 0e3c 0b0e f5bc 73dc 623b
00000040: 5231 81bd 97ea 4b3d cf93 e1bc 8ab3 67bc
00000050: a6db f7bb 1353 1dbc 6d49 30bd 7a81 20bd
00000060: 6d40 c0bc 184b b33c 8ed4 733c 320d d2bd
00000070: 2e23 be3c 1288 d3bd 9a2d 28bc f63e 5abb
00000080: d4bd b33d 45b3 0f39 131b 363d 4c60 afba
00000090: b603 92bd 9d0a eabc 0af1 fcbc 6062 41bd
000000a0: a139 523c 877a af3c c101 fbbc 66d5 023d
000000b0: 7c65 b0bd 1b17 a4bb f860 273d 32f7 163d
000000c0: bbb7 1dbc 1b39 0abd 7019 d13d 22cf c73d
000000d0: 0cd9 473c 1f22 733c f2f3 9cbd 3cce 263d
000000e0: 3948 3d3d 3d58 cdbd 52a2 893b 44a7 17be
000000f0: e687 3fbd 9fc0 08bd ab5f 24bd ba65 153d
00000100: d218 bd3b 69f3 383d 3b02 cbbc 7082 40bb
00000110: c79d ba3c 1ef5 c6bd c971 023c 9681 8ebd
00000120: 759f 73bd baa8 3dbd 93ed 2ebc cf75 813d
00000130: 5507 f53c e5df 23bd 26e0 14bd 6d8d 83bc
00000140: 40b4 c63d 5b3f 3dbd a299 c13c e64b 873d
00000150: 8e3f 643d 8e5c 95bc 6f08 303b ff86 dbbc
00000160: 32b9 27bd 65cb 9fbd e2cd 94bb 48fe 9dbd
00000170: 2435 9a3d 7097 2abc c6ad b63d 0026 06bd
00000180: e16d 263d 801b 6d3c 9733 143d 185e 363b
00000190: 360b 45ba 0797 253c cb85 4e3d 9449 6f3c
000001a0: 1b2d 473d bfe9 ffbc c09a 363d d05a 2abc
000001b0: d9ae ddbc f0f4 6cbd 8ad9 f1bb c19a 4abc
000001c0: b2a0 063b ba96 2b3d d425 c3bc 8b5d e2bc
000001d0: 6c8c 493c 796f 2f3d 5d67 80bd e112 22bd
000001e0: 9bd0 3c3d aa52 01bb 94e8 3a3c 6835 643c
000001f0: 602d da3d 7fab a0bd 15b2 013d 1816 a7bd
00000200: 0418 ac3d bfc3 ebbc 3bf6 3e3d b468 adbc
00000210: e3d6 fdbc 5cd2 32bb 02d3 c83c 110d 4bbc
00000220: e40d 83bc f83d 6d3d f466 2d3d b5cc 043d
00000230: e9c0 31bd e549 1dbd 1d28 f7bc 36a2 56bd
00000240: e79b 0abd a54e c53b 264d e53c 8a9b 983c
00000250: d67c b03c 87a9 ddbc 1a64 b33c 996a 8fbd
00000260: fb8d 50bd 56c9 313d 189e 87bc 4cf9 a73d
00000270: 315f abbd cf03 87bd 42d3 5abd cb92 b3bd
00000280: b841 abbd 8ba8 923d 1138 00bc 5bb9 803d
00000290: c9d7 3f3d cb19 653d ef94 d0bc c7fa a53d
000002a0: 653a 933d 89f7 a93c d6c2 a0bc 782b 963d
000002b0: 4c46 d43d ec6b 05bd bfdf e63c 11dc 13bd
000002c0: 2864 99bc 479b 8cbd d8d9 1dbd d090 3c3d
000002d0: 517d 9939 2de3 ccbc 9f1d 25bd b24c c0bc
000002e0: 4a22 b8bc f53d 09b9 2f04 9c3d 664b 0c3c
000002f0: 52c3 c3bb bcbd bebc 7303 b1bd 2648 2a3c
00000300: 0cfc cebc a6de 2a3d e3a1 0dbd acb6 e73d
00000310: 435f beba 1187 7f3d cbef 613d dcba 93bc
00000320: c8b9 ac3d 972f 8d3c 71f9 c33c 0ec3 0cb8
00000330: 8c09 93bd c115 2abd 3fae e73c 1642 513d
00000340: 373b 273d d3e5 a63a eef5 c33d 8470 c8bd
00000350: 9589 713c d75c 99bc b7ff 00bb 7304 403c
00000360: d786 b83d 73e2 db3b 0d44 573d 6c19 6eba
00000370: ba2f 253b 5180 993d 0a6f b63c 4d8b e83c
00000380: 7498 32bd d66a c63d 4212 10bd e671 99bc
00000390: a04b 1dbd 1671 8abc 35e6 c43c faa0 ca3d
000003a0: e201 5d3d 75b9 ca3c 6992 3c3d 900b be3d
000003b0: e0a7 e6bc 3d83 6e3c ea1e 673d 302c 003e
000003c0: 9919 3ebb bf20 3ebd 5189 413c 6920 09bd
000003d0: a91b 173e ea36 92bd 8df8 29bd d81c 193d
000003e0: 97de c1bd 2ab9 eabc 0dbe f93c ba07 9c3d
000003f0: fda8 64bd be69 5c3d 3d81 a13d 7e5c 173d

a2c_network.actor_mlp.2.bias f4 [128]
0.036437873 -0.01344044 0.042816233 -0.06804523 -0.0628681 0.032565802 -0.01998901 -0.01706031
-0.016971119 -0.015404837 0.0064845444 0.023022238 -0.0011536368 -0.044958472 0.08529247 -0.08642247
-0.03600922 -0.013362429 -0.06930376 0.0026022438 -0.031300336 -0.020796869 -0.030326936 -0.0076584225
-0.040167507 -0.05895398 0.0038592068 -0.013925364 -0.01437448 0.025247194 -0.071788475 -0.034237713
0.049567226 0.025949374 -0.020112345 -0.05328585 -0.11064127 -0.014867574 -0.055353507 -0.0453355
-0.02587637 0.00774282 0.0633739 -0.12479633 -0.061049532 -0.015329308 -0.040848427 -0.03643976
0.033386253 -0.029833388 0.028857024 0.010199574 -0.10553633 0.0006576712 -0.000280773 0.014923708
0.048741315 0.025889711 0.012908639 -0.062312555 0.025152234 0.060462385 -0.09709919 0.027326008
0.087931365 -0.0030452646 -0.05252385 0.016680157 0.026665691 0.020789564 0.029550565 0.057973634
-0.026061071 0.033026636 -0.059685946 0.03195279 0.009281933 0.012191602 0.0148379505 -0.027973933
0.023871787 -0.048220262 0.016940186 0.01806741 0.03405268 0.011602978 -0.047399316 -0.09801315
-0.020426465 0.024940478 0.05484958 0.019824374 -0.000110999346 -0.008490205 -0.05061431 0.016312838
0.03202753 -0.061302755 0.007083188 -0.023916433 0.014930514 0.016666371 0.010203323 0.002590595
0.0035065033 -0.0024842583 0.0062984605 -0.014037443 0.021197204 -0.12450723 -0.024011713 0.027483793
-0.078576565 0.028907364 0.021098284 0.018086677 -0.0009455823 -0.00014739216 0.004766011 -0.053622995
0.03245475 0.03450494 0.023900503 0.0024135662 -0.024455385 0.022914916 0.027818015 -0.07227519
00000000: e13f 153d 4b35 5cbc 1360 2f3d 4c5b 8bbd
00000010: fec0 80bd b863 053d febf a3bc 10c2 8bbc
00000020: 0407 8bbc 9264 7cbc 4d7c d43b 2299 bc3c
00000030: a135 97ba 6026 38bd d2ad ae3d 44fe b0bd
00000040: 677e 13bd 17ee 5abc 21ef 8dbd 688a 2a3b
00000050: c834 00bd 325e aabc 3270 f8bc 81f3 fabb
00000060: af86 24bd bb79 71bd bfea 7c3b 3627 64bc
00000070: f082 6bbc 34d3 ce3c d605 93bd d83c 0cbd
00000080: 0107 4b3d c893 d43c a5c2 a4bc 4342 5abd
00000090: e497 e2bd 2097 73bc 5cba 62bd b8b1 39bd
000000a0: aefa d3bc 7bb7 fd3b 2dca 813d 3895 ffbd
000000b0: 130f 7abd c727 7bbc ae50 27bd dc41 15bd
000000c0: 06c0 083d 2665 f4bc 9165 ec3c 1d1c 273c
000000d0: 6e23 d8bd 9167 2c3a b734 93b9 9182 743c
000000e0: f9a4 473d a916 d43c c27e 533c 733b 7fbd
000000f0: 0f0c ce3c 68a7 773d f1db c6bd cbda df3c
00000100: 5c15 b43d 1093 47bb 4023 57bd d3a4 883c
00000110: 0272 da3c e04e aa3c 0714 f23c c375 6d3d
00000120: 077e d5bc f046 073d 4079 74bd eee0 023d
00000130: 4013 183c 49bf 473c e01a 733c 9729 e5bc
00000140: c48e c33c 9c82 45bd 25c6 8a3c 1b02 943c
00000150: d37a 0b3d 6b1a 3e3c c925 42bd 1ebb c8bd
00000160: 6755 a7bc f94f cc3c f4a9 603d ba66 a23c
00000170: 52c8 e8b8 801a 0bbc f350 4fbd 80a2 853c
00000180: 4d2f 033d 9918 7bbd 161a e83b 65ec c3bc
00000190: 1d9f 743c ea87 883c d72b 273c f9c6 293b
000001a0: 5dcd 653b f0ce 22bb 5163 ce3b 4efd 65bc
000001b0: c2a5 ad3c a6fd febd 36b4 c4bc b125 e13c
000001c0: c0ec a0bd 23cf ec3c 4fd6 ac3c 832a 943c
000001d0: f4e0 77ba 488d 1ab9 332c 9c3b c9a3 5bbd
000001e0: 46ef 043d 0d55 0d3d fdca c33c ec2c 1e3b
000001f0: a956 c8bc 10b8 bb3c 9be2 e33c 0405 94bd

a2c_network.actor_mlp.4.weight f4 [64, 128]
-0.0062043085 0.024699086 0.03279555 -0.05195745 0.008460637 0.11147952 0.032461315 0.09687755
-0.06753113 0.0036520406 0.0007416577 -0.04336586 0.028221807 0.004842204 -0.030812541 -0.022472966
-0.0959673 -0.061680593 -0.08352031 0.04506001 -0.051364973 -0.02241408 -0.0389467 -0.044893388
0.12218257 0.042940974 -0.06070185 -0.089722075 -0.07305297 0.013115233 -0.03406692 -0.097512916
0.08673682 0.07678495 -0.062606625 0.076609395 0.06429441 -0.015480878 0.1049923 -0.09756543
-0.08446131 0.0025455304 -0.09428067 -0.039072804 -0.07677889 0.002518571 0.029347476 0.09210628
-0.0039582644 0.054235026 -0.038632236 0.03927943 0.0873139 0.051585533 -0.058535255 0.05377207
0.0928236 -0.008359004 0.03875487 -0.05235737 0.012107561 0.004760033 0.005921183 -0.026459305
0.010098196 -0.017591396 0.12638867 0.0062580514 0.09505286 0.06547915 -0.06863206 0.0438611
-0.0996242 -0.02641165 -0.083176814 0.097209394 -0.11341821 0.011409021 0.051751744 -0.097466275
0.066018395 -0.05607131 -0.07310994 -0.010245412 0.068466574 -0.019735143 0.06783992 -0.029539654
0.04104246 0.022701237 -0.082246095 0.0694811 0.038183738 -0.12923603 -0.1140967 0.032770816
0.033703763 -0.026757525 -0.06743061 -0.0393119 0.05432368 0.04034535 0.12276491 -0.08840766
-0.051925287 0.14100099 0.07928301 0.017993132 -0.01042787 0.011567838 -0.01762491 0.10106849
-0.041641787 0.06694469 0.029797195 0.029535476 0.023058875 -0.020635301 0.044513084 -0.026246399
0.07665409 -0.07414598 0.08424096 0.0060271043 0.046883874 0.050357565 0.020967402 -0.013787922
-0.03983854 0.059845243 0.016675835 -0.1527303 0.038909376 -0.045002658 -0.0812435 0.060226534
0.0050949953 -0.06297527 -0.014544214 -0.074006684 -0.055223905 0.030609177 -0.08646443 -0.053703293
-0.10560557 0.043205682 -0.049593154 0.05826892 -0.05066961 -0.0050533493 0.060877196 0.033854395
0.14301625 -0.052624762 -0.090740554 -0.082096875 0.06515534 -0.052881535 -0.077660404 0.07394352
0.008408208 0.034876063 0.025405841 -0.0598007 -0.046193644 0.045161724 -0.029503105 0.014841078
-0.044178426 0.005938134 -0.09285273 -0.08485195 0.05024436 -0.07161325 0.026746074 0.11353003
0.074948244 0.18889284 0.06461747 -0.08644896 -0.010398063 -0.08252355 0.03207259 0.023129314
0.059972893 -0.010142166 0.044007417 0.034143064 -0.0920996 -0.06766207 0.058329444 -0.07785156
-0.034354158 -0.08326384 0.04171298 -0.093018435 -0.08649194 -0.104981124 -0.05515371 -0.12190796
-0.0296339 0.012305175 -0.22215985 0.04524616 0.01696127 -0.078216486 -0.0035569356 -0.07929381
0.07976312 0.0824806 -0.04850239 -0.03246207 0.08204458 0.048132446 0.0014730773 0.008450331
-0.00046279843 0.054917414 -0.038304146 -0.049954694 0.09289592 -0.05419017 -0.06820923 -0.13580146
-0.070547536 -0.017034685 0.03988231 0.010264258 -0.09394883 -0.04227789 -0.025115415 -0.07214647
0.039502744 0.01998841 0.051826492 0.06925788 -0.024061706 -0.0216301 -0.07882519 0.10181934
0.007170147 0.008236922 0.034176536 0.086382 0.15353397 -0.0023546687 -0.021200154 -0.13419631
-0.081467785 0.008137996 -0.0016127178 -0.019829256 0.011802262 0.08562305 0.0046890783 0.06954577
00000000: 834d cbbb bd55 ca3c a054 063d 56d1 54bd
00000010: 7c9e 0a3c 604f e43d 28f6 043d bd67 c63d
00000020: c34d 8abd 1357 6f3b ce6b 423a 66a0 31bd
00000030: 6b31 e73c 5aab 9e3b 956a fcbc 3a19 b8bc
00000040: 818a c4bd caa4 7cbd b20c abbd d890 383d
00000050: 1464 52bd bc9d b7bc 9386 1fbd 21e2 37bd
00000060: db3a fa3d e0e2 2f3d 81a2 78bd 35c0 b7bd
00000070: cc9c 95bd 46e1 563c c189 0bbd dab4 c7bd
00000080: 13a3 b13d 6e41 9d3d e737 80bd 63e5 9c3d
00000090: caac 833d 82a3 7dbc 3406 d73d 62d0 c7bd
000000a0: 0dfa acbd ead2 263b 3916 c1bd ce0a 20bd
000000b0: 403e 9dbd 9c0e 253b 1e6a f03c 38a2 bc3d
000000c0: 54b4 81bb 8c25 5e3d d63c 1ebd 78e3 203d
000000d0: a1d1 b23d 5a4b 533d aac2 6fbd 1a40 5c3d
000000e0: 4d1a be3d 34f4 08bc 6dbd 1e3d ae74 56bd
000000f0: cb5e 463c 0dfa 9b3b 7c06 c23b 2fc1 d8bc
00000100: e772 253c d51b 90bc 086c 013e 5710 cd3b
00000110: 13ab c23d ef19 863d f78e 8cbd b2a7 333d
00000120: c607 ccbd 3f5d d8bc 9b58 aabd b815 c73d
00000130: ce47 e8bd e7ec 3a3c a3f9 533d 669c c7bd
00000140: a734 873d 08ab 65bd aaba 95bd 5fdc 27bc
00000150: 3438 8c3d 98ab a1bc a8ef 8a3d 25fd f1bc
00000160: 231c 283d f2f7 b93c a470 a8bd 1b4c 8e3d
00000170: 8d66 1c3d 7356 04be 88ab e9bd b13a 063d
00000180: f50c 0a3d 9932 dbbc 0f19 8abd 8405 21bd
00000190: 8282 5e3d 2a41 253d 2b6c fb3d 130f b5bd
000001a0: 9caf 54bd 9062 103e 215f a23d 5566 933c
000001b0: a8d9 2abc 0787 3d3c 1e62 90bc fffc ce3d
000001c0: 9490 2abd 4c1a 893d 3f19 f43c 62f4 f13c
000001d0: f7e5 bc3c 5d0b a9bc 5a53 363d b002 d7bc
000001e0: d2fc 9c3d d9d9 97bd 8686 ac3d 047f c53b
000001f0: 4e09 403d bc43 4e3d d4c3 ab3c bde6 61bc
00000200: bd2d 23bd 4920 753d c39b 883c 5565 1cbe
00000210: 705f 1f3d b554 38bd fe62 a6bd 19b0 763d
00000220: ebf3 a63b 2ef9 80bd db4a 6ebc d190 97bd
00000230: 7632 62bd 19c0 fa3c 4314 b1bd fcf7 5bbd
00000240: bc47 d8bd 71f8 303d 3122 4bbd 64ab 6e3d
00000250: f08a 4fbd 9196 a5bb 5e5a 793d e8aa 0a3d
00000260: da72 123e 108d 57bd 2fd6 b9bd 6822 a8bd
00000270: 2a70 853d 4f9a 58bd 6b0c 9fbd b36f 973d
00000280: 95c2 093c 34da 0e3d e91f d03c 94f1 74bd
00000290: 8c35 3dbd 80fb 383d 7fb0 f1bc fe27 733c
000002a0: 70f4 34bd ae94 c23b 9229 bebd dcc6 adbd
000002b0: 08cd 4d3d f8a9 92bd 951a db3c 6f82 e83d
000002c0: 777e 993d 206d 413e 2a56 843d 270c b1bd
000002d0: a35c 2abc 1b02 a9bd 8c5e 033d b079 bd3c
000002e0: 23a6 753d 542b 26bc 1f41 343d 99d9 0b3d
000002f0: b79e bcbd 6992 8abd dbea 6e3d a470 9fbd
00000300: f2b6 0cbd 3b86 aabd 3bdb 2a3d 7380 bebd
00000310: b022 b1bd 5800 d7bd dbe8 61bd e1aa f9bd
00000320: cbc2 f2bc a59b 493c df7d 63be 0a54 393d
00000330: 5cf2 8a3c f72f a0bd 7a1b 69bb cb64 a2bd
00000340: d95a a33d 97eb a83d 71aa 46bd f3f6 04bd
00000350: fd06 a83d 8726 453d 4614 c13a 4273 0a3c
00000360: c1a3 f2b9 15f1 603d cfe4 1cbd 4b9d 4cbd
00000370: 3740 be3d 83f6 5dbd 48b1 8bbd 8a0f 0bbe
00000380: 3a7b 90bd 538c 8bbc a25b 233d 6b2b 283c
00000390: 3f68 c0bd 952b 2dbd d8be cdbc 87c1 93bd
000003a0: a1cd 213d bcbe a33c 0448 543d 13d7 8d3d
000003b0: 0e1d c5bc 9c31 b1bc 1a6f a1bd a886 d03d
000003c0: 8df3 ea3b 28f4 063c b2fc 0b3d 0ce9 b03d
000003d0: 0238 1d3e c950 1abb f2ab adbc c26a 09be
000003e0: 95d8 a6bd 3b55 053c d461 d3ba f770 a2bc
000003f0: 465e 413c 235b af3d d7a6 993b 036e 8e3d

a2c_network.actor_mlp.4.bias f4 [64]
0.018027624 -0.056999613 0.04431391 0.023981132 -0.036556773 -0.033517823 -0.052092068 -0.06721288
-0.05915777 -0.033054113 -0.106597945 0.04293927 0.069904156 -0.015283066 -0.073123656 -0.010108793
-0.051363017 -0.04417764 0.055955578 -0.04399305 -0.06943962 -0.03865287 -0.0495785 -0.0151788825
0.017785944 -0.027164543 -0.042106412 0.04603652 0.054121267 -0.07884224 -0.09879649 -0.01961339
-0.060581952 0.004012321 0.019689314 -0.07284865 -0.074073315 0.023216827 -0.0018049402 -0.005713921
0.030837256 0.029273335 -0.044513647 0.0071187364 -0.09203512 -0.16025546 0.061202463 0.029399993
-0.057738997 -0.08006724 0.04355628 -0.050950486 0.034159526 -0.05900493 0.023627201 -0.06079065
-0.036957785 0.049860805 -0.04920956 -0.06115564 0.040617686 -0.07540599 -0.0585277 -0.060244877
00000000: abae 933c 6d78 69bd 8182 353d 1474 c43c
00000010: 8ebc 15bd fc49 09bd 7e5e 55bd e8a6 89bd
00000020: 6b4f 72bd c063 07bd 0650 dabd 17e1 2f3d
00000030: e929 8f3d d365 7abc dbc1 95bd 5a9f 25bc
00000040: 0762 52bd 9df3 34bd ad31 653d 0e32 34bd
00000050: 5c36 8ebd 7952 1ebd d312 4bbd d9b0 78bc
00000060: d4b3 913c 2d88 debc c677 2cbd ca90 3c3d
00000070: 43ae 5d3d 0a78 a1bd d055 cabd 43ac a0bc
00000080: c824 78bd ca79 833b 7c4b a13c ac31 95bd
00000090: c0b3 97bd 3731 be3c be93 ecba d83b bbbb
000000a0: 6a9e fc3c a2ce ef3c f153 36bd 4a44 e93b
000000b0: e97c bcbd 021a 24be 6faf 7a3d 41d8 f03c
000000c0: ba7f 6cbd 4bfa a3bd 1268 323d 75b1 50bd
000000d0: dcea 0b3d 27af 71bd d58d c13c 9eff 78bd
000000e0: 0c61 17bd d83a 4c3d f78f 49bd 567e 7abd
000000f0: bb5e 263d 756e 9abd beba 6fbd 55c3 76bd

a2c_network.value.weight f4 [1, 64]
0.071227595 0.005200554 0.026085524 0.12193363 -0.046354774 0.029335251 0.01538641 0.0094964355
-0.01996878 -0.018052284 0.0476456 0.025780572 0.013020758 0.0043955273 -0.06316254 -0.027253533
-0.091896124 -0.071982674 0.07543395 -0.0075677796 -0.12596989 0.037938252 0.01007541 -0.036749803
-0.07194354 0.02540444 -0.093476795 0.041667107 0.014619291 -0.06547221 -0.0064529553 0.007951793
-0.13652363 -0.033964556 -0.0199479 -0.0013733165 -0.100142315 0.058319177 0.017271457 -0.04028724
0.057657063 -0.0013992201 -0.010071216 0.03532889 -0.017576948 0.014875423 0.06749536 -0.04004411
-0.016829008 -0.12428067 0.0009369888 -0.04018865 0.08538456 -0.03418797 0.019123731 -0.0016632956
-0.011246741 0.056340277 0.0018047935 -0.14226203 0.11546074 -0.087080754 -0.010699198 0.0023900701
00000000: c6df 913d 6969 aa3b 4fb1 d53c 57b8 f93d
00000010: 81de 3dbd 7b50 f03c 4817 7c3c f096 1b3c
00000020: 9195 a3bc 62e2 93bc 0828 433d c731 d33c
00000030: 0455 553c 5b08 903b 5d5b 81bd cd42 dfbc
00000040: 0934 bcbd a76b 93bd 1d7d 9a3d 23fb f7bb
00000050: 40fe 00be 2465 1b3d 5513 253c f686 16bd
00000060: 2257 93bd f91c d03c c370 bfbd 21ab 2a3d
00000070: c085 6f3c 4b16 86bd 5073 d3bb 3d48 023c
00000080: dacc 0bbe 6b1e 0bbd c769 a3bc db00 b4ba
00000090: 6a17 cdbd 17e0 6e3d df7c 8d3c 3c04 25bd
000000a0: d029 6c3d 0966 b7ba be01 25bc 07b5 103d
000000b0: 88fd 8fbc 0cb8 733c 023b 8a3d 4b05 24bd
000000c0: fddc 89bc dd86 febd 41a0 753a db9c 24bd
000000d0: 1ade ae3d af08 0cbd 5fa9 9c3c f002 daba
000000e0: 4044 38bc 10c5 663d d28e ec3a 23ad 11be
000000f0: ae76 ec3d 6557 b2bd b04b 2fbc b9a2 1c3b

a2c_network.mu.weight f4 [8, 64]
0.024310814 0.040031523 -0.14533666 0.054491572 0.007609199 0.050119802 -0.078856416 0.03660087
-0.022287654 0.10095186 0.052550614 0.058221113 -0.06796801 -0.15066294 0.13789375 -0.11194735
0.015161503 0.010525449 0.026005 -0.03716235 0.016496709 0.08091143 0.038507145 -0.043042462
-0.074349605 0.11793504 0.006368588 0.12261721 -0.12899984 0.10478871 -0.0482697 -0.10283368
-0.088051334 0.11079017 -0.09618693 0.19929934 0.044855043 0.04137007 -0.01711907 -0.10176544
0.021635372 0.1827028 0.13268107 0.033751775 -0.15426257 0.02726707 -0.006220391 -0.08600468
-0.0067285877 0.074253485 -0.051580515 0.055862308 0.016063612 0.017005455 -0.07318287 -0.052183833
-0.01286035 -0.14705147 0.07562783 -0.13635282 -0.001998741 0.10609169 0.058641747 0.12452517
0.031557098 -0.090570964 -0.06912502 0.024315156 0.008849093 -0.11900184 -0.08143908 0.06666217
-0.002732198 -0.080052815 0.029954026 -0.014483432 -0.086526334 -0.058307473 0.048406262 -0.030899154
-0.15812324 0.0063414997 -0.059186757 0.09538538 0.12726644 0.033319425 0.023632383 0.013565162
-0.006715238 0.0885233 -0.08634186 -0.06090906 0.11575235 0.04575993 0.029359672 -0.042856783
0.049536757 0.06995721 0.042902447 -0.0077739055 -0.021713411 0.11648926 0.03338359 -0.038111694
0.0072181756 0.03186986 -0.20545766 0.12375206 -0.004769632 0.02686733 -0.13914289 -0.08227492
-0.03798015 0.1293595 0.12224407 0.04123422 -0.13367477 0.0842336 0.16931297 0.20652096
0.002495891 -0.05201626 0.13356824 -0.04991942 0.03893546 -0.08406375 0.046996173 0.052264046
0.030633217 0.024061827 -0.04425039 -0.019231074 0.02589337 0.14053883 0.15638325 0.058658026
-0.07223436 -0.14613478 -0.0010345139 -0.14002997 0.07458908 0.11796175 -0.0364261 0.03093453
-0.15683079 -0.07692232 -0.07876394 -0.087094106 0.0871761 0.065775655 0.08695318 0.023702053
-0.098548174 0.08013225 0.010118847 -0.013091405 -0.11265913 0.13225521 0.11301236 0.11135732
-0.07157659 -0.05331931 0.08898407 0.15970835 -0.06815126 0.049483955 0.04524486 -0.13178436
-0.023190714 -0.07418833 -0.09712107 0.05944976 0.1346369 0.18745568 0.06094641 -0.0046408004
0.09193751 -0.0029142401 -0.07651149 -0.028875228 -0.072935924 0.17451459 -0.044031166 -0.027803743
0.080450736 0.08093795 -0.028656287 -0.10029009 0.05693203 0.0464212 0.12348641 -0.03686145
-0.08267037 -0.08346396 -0.09307509 -0.031470038 0.07173164 0.081617184 -0.08091917 -0.007731858
0.03056061 -0.062465206 -0.022051744 0.056629106 0.09746866 -0.045521744 -0.09945237 0.059217308
-0.07484612 0.1218758 0.091607206 -0.00023759149 0.053543396 0.09809463 -0.029342176 0.12247364
-0.048503447 0.045102112 0.05795594 0.051650923 0.110351615 0.023982648 -0.09307922 -0.062006433
-0.04961255 -0.1374632 -0.024117837 -0.0015715592 -0.07828994 0.037258815 0.07103343 -0.0028956588
0.01212244 0.038881343 0.061085436 0.11579724 -0.027328484 -0.014485034 0.020832283 0.07071873
-0.025114357 0.023500916 0.04517839 0.06290853 -0.1311703 -0.13037299 -0.0054919412 0.015698718
-0.015406626 0.07939966 -0.074536465 -0.017479984 0.052475166 -0.12256438 -0.007452311 -0.082188755
00000000: 7927 c73c 18f8 233d 22d3 14be 8e32 5f3d
00000010: 9656 f93b 6c4a 4d3d 797f a1bd cbea 153d
00000020: 9994 b6bc d9bf ce3d 503f 573d 4379 6e3d
00000030: d032 8bbd 6347 1abe 0534 0d3e a744 e5bd
00000040: f467 783c ef72 2c3c 7008 d53c 8c37 18bd
00000050: 1b24 873c e4b4 a53d abb9 1d3d 4b4d 30bd
00000060: 9b44 98bd ed87 f13d 97af d03b bb1e fb3d
00000070: 8918 04be 779b d63d 73b6 45bd 779a d2bd
00000080: 4254 b4bd f5e5 e23d a7fd c4bd 2015 4c3e
00000090: ecb9 373d aa73 293d 4b3d 8cbc 666a d0bd
000000a0: aa3c b13c 7116 3b3e 8cdd 073e 4d3f 0a3d
000000b0: 02f7 1dbe 315f df3c 6cd4 cbbb 3923 b0bd
000000c0: 7c7b dcbb 3612 983d 1746 53bd e0cf 643d
000000d0: d697 833c 064f 8b3c e7e0 95bd b7be 55bd
000000e0: 38b4 52bc a994 16be c4e2 9a3d 13a0 0bbe
000000f0: 4ffd 02bb 9a46 d93d 5432 703d 0d07 ff3d
00000100: 0442 013d 457d b9bd 6b91 8dbd 9430 c73c
00000110: c9fb 103c 3db7 f3bd 88c9 a6bd 2d86 883d
00000120: ad0e 33bb bbf2 a3bd 2562 f53c eb4b 6dbc
00000130: b834 b1bd d1d3 6ebd a545 463d 3920 fdbc
00000140: 0feb 21be 5bcc cf3b d06d 72bd 6959 c33d
00000150: 2252 023e f379 083d b398 c13c 6a40 5e3c
00000160: 800b dcbb b44b b53d 00d4 b0bd c77b 79bd
00000170: 910f ed3d c46e 3b3d b283 f03c 988a 2fbd
00000180: 0ee7 4a3d ba45 8f3d 7aba 2f3d 3fbc febb
00000190: 53e0 b1bc ec91 ee3d 3bbd 083d 021b 1cbd
000001a0: 7286 ec3b f889 023d 7e63 52be b871 fd3d
000001b0: 934a 9cbb e018 dc3c 797b 0ebe c17f a8bd
000001c0: 1391 1bbd d176 043e 195b fa3d 37e5 283d
000001d0: 0ae2 08be aa82 ac3d 6160 2d3e 3b7a 533e
000001e0: 1a92 233b 000f 55bd 1dc6 083e 4e78 4cbd
000001f0: ca7a 1f3d 9e29 acbd 0f7f 403d d312 563d
00000200: 83f2 fa3c 4f1d c53c e63f 35bd 7c8a 9dbc
00000210: 551e d43c 69e9 0f3e ee22 203e 6643 703d
00000220: 9cef 93bd 5ba4 15be 8798 87ba 0464 0fbe
00000230: 29c2 983d ee95 f13d 8933 15bd 696a fd3c
00000240: 4098 20be 7389 9dbd fd4e a1bd 655e b2bd
00000250: 6289 b23d 63b5 863d 8214 b23d cf2a c23c
00000260: a0d3 c9bd 611c a43d 85c9 253c 557d 56bc
00000270: d4b9 e6bd e96d 073e 0673 e73d 4e0f e43d
00000280: bf96 92bd 5965 5abd 483d b63d 968a 233e
00000290: e392 8bbd b0af 4a3d ad52 393d 7bf2 06be
000002a0: 74fa bdbc 0df0 97bd 69e7 c6bd 9781 733d
000002b0: 41de 093e 62f4 3f3e f1a2 793d db11 98bb
000002c0: bc49 bc3d d6fc 3ebb 0eb2 9cbd be8b ecbc
000002d0: 6e5f 95bd f4b3 323e 065a 34bd adc4 e3bc
000002e0: 5bc3 a43d ccc2 a53d 97c0 eabc e464 cdbd
000002f0: 8f31 693d 2824 3e3d 71e6 fc3d 08fc 16bd
00000300: 154f a9bd 27ef aabd 279e bebd bae6 00bd
00000310: 0ae8 923d e926 a73d f3b8 a5bd 875b fdbb
00000320: 3f5a fa3c 84db 7fbd dca5 b4bc ecf3 673d
00000330: a69d c73d 0275 3abd afad cbbd d98d 723d
00000340: ec48 99bd 059a f93d 8f9c bb3d fb21 79b9
00000350: 5250 5b3d d6e5 c83d 015f f0bc 76d3 fa3d
00000360: 8dab 46bd febc 383d 3563 6d3d eb8f 533d
00000370: 0700 e23d 4277 c43c 51a0 bebd 75fa 7dbd
00000380: 8736 4bbd 27c3 0cbe c592 c5bc c7fc cdba
00000390: 7a56 a0bd b39c 183d fa79 913d 18c5 3dbb
000003a0: 339d 463c 0b42 1f3d b934 7a3d 1a27 ed3d
000003b0: fcdf dfbc a352 6dbc 77a8 aa3c fbd4 903d
000003c0: a0bc cdbc fe84 c03c fa0c 393d 30d6 803d
000003d0: 8251 06be 7f80 05be bef5 b3bb 999a 803c
000003e0: 136c 7cbc 4a9c a23d 93a6 98bd 2f32 8fbc
000003f0: 33f0 563d 0903 fbbd 8432 f4bb 9452 a8bd

a2c_network.mu.bias f4 [8]
-0.11522773 -0.0671634 0.00020862164 0.0339559 -0.056661874 0.0328864 -0.118111335 -0.086247995
00000000: 84fc ebbd f78c 89bd 72c1 5a39 5815 0b3d
00000010: 4816 68bd e4b3 063d 5be4 f1bd caa2 b0bd

exp_avg f4 [8]
-0.0016670747 0.0071933474 0.001944071 0.0033901904 0.0034304683 0.00080809905 0.004649371 0.0044748127
00000000: bf81 daba 2cb6 eb3b 33d0 fe3a f52d 5e3b
00000010: b5d1 603b 9cd6 533a c059 983b 73a1 923b

exp_avg_sq f4 [8]
4.9888495e-05 7.2398e-05 5.962592e-05 5.927949e-05 5.0374467e-05 7.462252e-05 4.4665674e-05 5.995144e-05
00000000: 5d3f 5138 61d4 9738 d816 7a38 dea2 7838
00000010: 2c49 5338 a97e 9c38 6757 3b38 5e74 7b38
