IsaacGymEnvs/isaacgymenvs/runs/Ant_22-18-09-58/nn/last_Ant_ep_100_rew_2359.8047.pth (torch, 706212 bytes, 36 tensors)

value_mean_std.running_mean f8 [1]
000000 3d bf 5b 94 12 e3 f8 3f
       1.5554376406907544

value_mean_std.running_var f8 [1]
000000 c4 8e 80 2a c9 f2 f8 3f
       1.5592738781205506

value_mean_std.count f8 []
000000 00 00 00 20 00 00 69 41
       13107201.0

running_mean_std.running_mean f8 [60]
000000 5c c7 b1 1f 8e 5e e3 3f dd a2 ee 61 d8 c1 f6 3f
       0.6052923792869751 1.4223254991031162
000010 f1 46 b9 48 20 f4 cc bf b0 72 f6 32 3b 1a ba bf
       -0.22620013762439542 -0.10196275705534208
000020 c8 c5 4c bf 02 ec a8 bf f2 20 8e 21 7b be 81 3f
       -0.04867561898425837 0.008664094888232363
000030 35 5a 8c c3 2c 8b a4 bf b4 fa 80 11 9e c9 04 40
       -0.040124319906841434 2.5984460227476465
000040 87 5a 1d a3 88 68 0b 40 ba fb b0 ac dd ca 04 c0
       3.4260418647130026 -2.5990556231986064
000050 83 02 5a 06 d7 9c ea 3f 4f 03 30 b5 3e 61 e6 3f
       0.8316455005697921 0.6993707217044206
000060 09 40 40 fc 26 2b e5 bf c0 f8 6d d4 aa 2b dc bf
       -0.6615176131035706 -0.4401652407176577
000070 40 68 a6 46 ff e7 ca bf 20 15 2b bf cb 21 e1 3f
       -0.21020499181469354 0.5353754743343053
000080 8f f5 b3 12 b4 2b b4 3f 7c cc d1 1f 0c 98 e2 3f
       0.07879186112037061 0.581060468814385
000090 9a a3 d2 17 78 87 e2 bf f2 54 1d d1 5a ae e4 bf
       -0.5790367570199237 -0.6462835392254915
0000a0 50 47 a2 24 9c 9e 96 3f bd bf e8 1c 15 97 af 3f
       0.022089423881488657 0.061699542788459884
0000b0 20 e2 6f ab 4b 4e 98 3f 10 6e 29 01 d1 dd b0 bf
       0.023736173952757622 -0.0658846500240815
0000c0 2c 1a 03 ca c9 e6 51 bf 83 f2 56 44 09 36 ae bf
       -0.0010926218601966615 -0.05900601348136993
0000d0 97 41 6a 61 7e 30 9a 3f 69 d1 74 33 5e 78 b2 3f
       0.0255756136853634 0.07214916950471707
0000e0 6a 48 c1 b5 6f 6d df bf b2 35 95 06 b7 2b c3 3f
       -0.49105446576607525 0.14977157422474147
0000f0 95 3d d9 f2 a3 fe c5 bf ba 78 07 d9 14 8d a6 bf
       -0.17183350904313657 -0.044045115940876525
000100 b8 79 81 75 8c 71 72 bf 34 d0 ba ab 86 79 a4 3f
       -0.004502819698329601 0.039989670241454084
000110 13 28 6f 56 54 e7 b7 3f 65 99 76 14 ac 97 a8 3f
       0.09337355718813027 0.04803216695590854
000120 d5 84 f1 1c 28 a4 d2 bf 31 42 d6 26 4e 9d a8 bf
       -0.2912693293238367 -0.04807514404376823
000130 64 d3 c3 6e 81 2d 3d 3f ab 57 ef c0 01 7e 83 3f
       0.0004452172277205539 0.009517682743460506
000140 92 e0 34 47 38 4a d0 bf 2a ea 1f 88 c8 35 b0 3f
       -0.2545300193191987 0.06332066844326137
000150 88 e3 cf 1e 0b 24 bf bf e2 1d 09 53 70 f4 ab 3f
       -0.1216437292313356 0.05459929479234994
000160 05 3c a0 8e a8 83 47 bf af e1 e7 db 6b 9f 49 bf
       -0.0007175992043374496 -0.0007819439559276132
000170 8a 01 89 65 fb 96 d2 3f 2f 24 63 dc 25 76 b3 bf
       0.2904652110628595 -0.07602154379414182
000180 56 64 58 cf 78 c9 c8 bf 72 17 4d d7 82 6b b4 3f
       -0.19364843487054156 0.07976548916221107
000190 de 05 cd b3 a9 8e 64 3f bc fe 0b 7e 10 03 a0 3f
       0.0025094332217185785 0.03127337969453722
0001a0 50 47 e0 25 24 9d dd bf 97 32 ad 3a d8 44 c2 bf
       -0.4627161378749536 -0.14272597184244226
0001b0 c5 13 ad 46 e4 dc b5 bf 7e bc 83 5f 8a 34 c5 3f
       -0.08540178990831666 0.16566590942190723
0001c0 d2 f6 d2 94 97 31 9d 3f a1 43 a5 95 f1 fe c9 3f
       0.028509491404057404 0.20309276396667733
0001d0 19 90 1c b7 57 f0 d3 bf cd a5 b0 3c ff 1c d3 bf
       -0.31154435045232415 -0.2986448376346658

running_mean_std.running_var f8 [60]
000000 c8 4e ed 8a 94 7a 93 3f 94 b6 c0 04 6d 25 03 40
       0.01902229402487768 2.393274342661991
000010 43 bf d0 e8 8e a5 ed 3f be bc 59 96 1c 27 e4 3f
       0.9264597460914746 0.6297743736776267
000020 36 14 c2 d6 f0 4c 11 40 bf 8a f2 6b 64 d4 15 40
       4.325137477489127 5.457414328268611
000030 34 7b 2f 67 0d 58 20 40 0c 91 b6 89 ee 9b 1a 40
       8.171977257295659 6.652277137535076
000040 e4 62 9b 5d 40 a9 20 40 f2 bd 55 b2 f5 9b 1a 40
       8.330569195955327 6.65230444572761
000050 05 ff 1f 02 be 4c c6 3f 7d 31 42 6c 6c 03 cd 3f
       0.17421698669203792 0.22666697774947045
000060 29 83 f8 e9 59 b5 d7 3f 8b 97 48 02 b0 ce d6 3f
       0.37044380043703257 0.35636520598415505
000070 dc 77 1b 66 64 bb dd 3f 38 9d 32 5a 26 c9 df 3f
       0.4645625111714915 0.49665221031542073
000080 29 f6 20 16 0e 56 e0 3f bf 4d 39 50 35 ec db 3f
       0.5105047638132351 0.436292007773968
000090 4b ae 57 a7 54 42 db 3f 06 29 44 4a f4 f8 d3 3f
       0.4259235033229955 0.31206996204913684
0000a0 ce ea e9 a7 55 33 f9 3f b9 b1 3c 61 e8 90 0a 40
       1.5750328597193177 3.320755729355565
0000b0 d5 d8 75 0f f9 4e 0d 40 33 a2 76 3f 62 cb f8 3f
       3.6635609824980784 1.5496542433776426
0000c0 f1 20 db 75 6b 35 12 40 02 cc 16 96 db 02 f9 3f
       4.552167741298249 1.5631976950505764
0000d0 11 78 f4 f2 ee 12 f7 3f 35 11 6d 03 94 42 00 40
       1.4421224108150492 2.0325088756236718
0000e0 56 75 c3 cf d5 db f1 3f 26 9f a5 db fd ea c8 3f
       1.1161707034837796 0.19467137551259234
0000f0 fc cf f1 ca e8 5f f3 3f 60 cd ea 72 46 54 9c 3f
       1.2109153678438807 0.027665234340657263
000100 c2 63 a4 6a dc fe 11 3f a6 4e d5 ef b9 79 76 3f
       6.864757839188023e-05 0.005487181011023223
000110 55 6f 24 34 98 a4 f6 3f f6 a8 d1 7e 17 fc c4 3f
       1.4151842152413867 0.1639432305558512
000120 4a d0 c2 d4 ff b9 f1 3f c8 f0 d4 2d b4 f2 98 3f
       1.1079099951721383 0.02436334161505796
000130 8f 3d 03 c2 91 60 14 3f 7c d7 32 f4 64 de 7b 3f
       7.773294101131297e-05 0.0068038886558293675
000140 13 e3 3d 7c eb 11 01 40 af 1a c7 95 98 88 c4 3f
       2.133749933851854 0.16041858018271202
000150 5b 3d e4 c5 c6 4b f0 3f 1c a2 ea 9b 1c ae 98 3f
       1.0185001115931616 0.02410168363226904
000160 3f 49 50 eb 06 8c 14 3f fb 79 1c 4c e3 d5 85 3f
       7.838051062972628e-05 0.01066186500571308
000170 9c 6d 0f 74 de 9d f0 3f ec be 2a 92 89 bf c3 3f
       1.038542226181426 0.15428275715884554
000180 b9 52 ab ce 15 a3 f0 3f a2 87 14 3d c5 b8 99 3f
       1.0398157189385258 0.025118905880965443
000190 27 2e 34 1f 9a 5c 0c 3f b7 02 b3 75 6e d9 74 3f
       5.4095700671022e-05 0.005090171321342644
0001a0 50 86 d2 7f 02 bf d8 3f 38 5f 8f 46 5d a6 dc 3f
       0.3866583107247594 0.4476540745795208
0001b0 94 c7 90 ef d6 11 df 3f b6 c5 58 ff 63 9d da 3f
       0.4854638423449782 0.41585636078078936
0001c0 23 26 0d ae f5 0f e0 3f 3e d9 d4 5e 40 ed da 3f
       0.5019482039871871 0.4207306791389732
0001d0 b4 e1 22 8f 5c 06 da 3f 4a e4 fb a1 05 71 da 3f
       0.4066382787528042 0.4131483156084569

running_mean_std.count f8 []
000000 00 00 00 40 00 00 59 41
       6553601.0

a2c_network.sigma f4 [8]
000000 47 35 14 bf f9 1b 4c bf 66 b1 2a bf dc fa 3d bf
       -0.57893795 -0.7973018 -0.6667694 -0.74210906
000010 e9 1b 28 bf d1 cd 4b bf 1f 9d 17 bf c0 39 27 bf
       -0.6566759 -0.79610926 -0.5922412 -0.65322495

a2c_network.actor_mlp.0.weight f4 [256, 60]
000000 b8 48 a3 3d 69 9a 26 be 40 1c 83 3c 7b 9f 84 bc
       0.079728544 -0.1626984 0.016004682 -0.016189327
000010 88 c8 47 3e 03 3c 4a bd f9 83 50 3e 50 ea b9 bd
       0.1951009 -0.049373638 0.20362844 -0.09077895
000020 44 08 eb bd 29 84 80 bd 1f e4 8f 3d 5d d7 e1 bc
       -0.11476186 -0.062752075 0.070259325 -0.027568514
000030 a3 8f 74 3e c2 7c 5a be 0e 03 f3 bd 84 ce c5 bd
       0.23882918 -0.21336654 -0.11865817 -0.0965853
000040 c5 74 07 be 96 e4 53 b9 d4 b9 6e 3d 7b 9c 51 3e
       -0.13228138 -0.00020207683 0.05828269 0.20469849
000050 c1 0a 27 3d ba d4 0d be 21 d2 c9 3d 81 60 d1 bc
       0.04078174 -0.1385068 0.09854532 -0.025558712
000060 74 38 ae 3d 82 f7 83 bd 28 92 ed 3d f5 f2 9f bc
       0.08506861 -0.06443693 0.11600143 -0.01952503
000070 54 d5 a8 bd 50 bc 32 3d 9e 47 fb 3c 2e af 22 bd
       -0.08243814 0.04363662 0.030673798 -0.039717846
000080 d1 da 60 3d ca b8 62 3d bb 26 a4 bd c7 6b 81 bd
       0.05489618 0.05535201 -0.080152 -0.06319385
000090 2e f3 e4 3d 81 aa d9 bc 04 92 07 bd 0b ea 0b be
       0.11179195 -0.02657056 -0.033098236 -0.13663499
0000a0 7a 9e a8 bd 13 93 f6 3c d3 e9 80 3c 5a 5e 9d bd
       -0.08233352 0.030099427 0.015736496 -0.07684012
0000b0 a4 0c b9 bb a7 53 af bd 44 36 ea bd c7 95 9a bc
       -0.005647259 -0.08560877 -0.114361316 -0.018870248
0000c0 ee 3c c4 bd 5b c3 a8 bd 99 7c ed 3d c5 80 dd 3c
       -0.09581934 -0.08240386 0.11596031 0.027038941
0000d0 11 88 a3 3d 29 40 65 bd af ae e1 bc d3 a8 69 bd
       0.07984937 -0.05596939 -0.027549116 -0.05704577
0000e0 01 51 2c bc 83 e6 e6 bd f9 3c ab bc 4e cb 30 bd
       -0.01051736 -0.11274435 -0.020903097 -0.043162636
0000f0 04 cb c6 ba 4d 39 0a be 06 f7 1a bd 24 3a da bc
       -0.0015166705 -0.13498421 -0.037833236 -0.026639052
000100 5e 90 9d bd 14 b0 4b bd 9a 60 8e bc 06 c7 18 bd
       -0.076935515 -0.049728468 -0.017380048 -0.03729918
000110 17 1d 4f 3e 70 c3 b8 bd 44 0f 0e 3e 28 96 78 3d
       0.2022594 -0.09021652 0.13873011 0.060690075
000120 9b c5 84 bd 22 c1 c4 3d 10 7a ba 3d fe 4e d6 bc
       -0.06483003 0.0960715 0.09105313 -0.026160713
000130 5f 66 36 be 00 86 fb bd 7d 2e 8b 3c 7a a5 a5 bc
       -0.17812489 -0.12281418 0.01698994 -0.020220507
000140 67 4e a0 3d f5 e4 47 bd f8 56 a8 3d 0b 24 de bd
       0.07827454 -0.048802335 0.08219713 -0.108467184
000150 4e 89 a2 bd 66 71 97 3d 32 af fd 3d d2 a7 f0 3d
       -0.07936345 0.07394676 0.123869315 0.11750759
000160 46 8b ae 3d 70 e5 c1 bd cb e3 14 bc 79 5e 86 bd
       0.08522658 -0.0946759 -0.009087513 -0.06560988
000170 4c da 88 bc 57 d6 d1 bd 9e 7b 7f 3d 67 1d e1 bd
       -0.016705655 -0.1024596 0.06237375 -0.10991936
000180 cd 0f eb 3c 18 4f 03 bd 12 fa 40 3d df 08 84 bd
       0.028694058 -0.03205785 0.047113486 -0.064470045
000190 9b 3e 42 3d f8 37 6e 3d d0 6d 7f 3c 03 82 f6 bd
       0.047422986 0.058158845 0.015590146 -0.120365165
0001a0 f2 40 b9 3c 5c 17 8b bd fd fa c1 bd 21 b7 b4 3d
       0.022613976 -0.06791565 -0.094717 0.088239916
0001b0 d9 bc 82 b9 75 e2 80 bd 34 2c bd bd 2c 27 94 3c
       -0.00024936235 -0.06293193 -0.09236947 0.018085085
0001c0 69 26 38 3d 0c 86 03 bd c1 cf 8d bc 09 9d 9f bc
       0.044958506 -0.03211026 -0.017310979 -0.01948406
0001d0 04 1a 58 bd a7 0d c9 3d 38 ae ed 3d 91 51 0a be
       -0.052759185 0.09817057 0.11605495 -0.13507678
0001e0 2d 4c 7b 3d 19 ae c3 3d 34 9e da 3c 82 dd 4a bd
       0.061351944 0.09554691 0.026686765 -0.049527653
0001f0 0e fa 78 3d 36 fa 23 3d 14 7c ce 3c 48 e9 45 bc
       0.060785346 0.04003354 0.02520565 -0.012079544
000200 a5 ac da bc 26 e6 51 3b 1a 77 cf 3c bc 8b 6b bb
       -0.026693651 0.0032028048 0.025325347 -0.0035941442
000210 1d b0 1a 3e 76 bc 24 3e f9 6a b4 bc 0b 12 0a 3c
       0.15106244 0.16087517 -0.022023665 0.008427153
000220 69 57 18 bd a8 1a 3c bd 3b fd 08 3d 8d 10 3d 3d
       -0.037192736 -0.04592386 0.033444624 0.046158362
000230 6e 63 15 be 9e f8 06 bd 92 2b d5 3d b1 66 8d 3d
       -0.1458871 -0.032951944 0.10408701 0.069043525
000240 6a 2a 06 3d c2 c2 c2 bd c4 2d aa bb f3 55 02 be
       0.032755293 -0.09509803 -0.005193444 -0.127281
000250 4a 55 ad bc ff 96 88 3d 6e b6 2c 3d 90 f8 89 3c
       -0.021158833 0.06669425 0.042166166 0.016842157
000260 bb 28 ad bd 0c 60 93 bd 56 47 73 bd 32 a2 b8 3d
       -0.08455034 -0.07196054 -0.059394203 0.09015311
000270 2e 00 7a 3a c2 6c e7 bc a1 2e 2e 3d 6e 6b 97 3c
       0.000953677 -0.028250102 0.042524938 0.018483844
000280 5d 4b 28 bd 9c fa ee 3d ec 41 3b bd 3f b1 e3 ba
       -0.041087497 0.11668894 -0.045717165 -0.0017371549
000290 f8 90 d3 bd ac e5 c7 3d eb 79 b1 3d 00 f0 70 3d
       -0.10330385 0.09760603 0.08665832 0.05882263
0002a0 00 76 85 bd b5 23 11 be 9f 82 e5 bd 42 89 5f 3d
       -0.06516647 -0.14173777 -0.112065546 0.05457426
0002b0 8d 1a 0d 3d c1 56 03 3e fa 1d 70 3d 1f f7 66 3c
       0.03444915 0.12826063 0.058622338 0.014097004
0002c0 ea 23 51 3c b8 c7 5d bd 5b a8 b7 bc e7 85 92 bd
       0.01276491 -0.054145545 -0.022419145 -0.07154446
0002d0 45 c7 8c 3d 01 09 29 bb eb 9f e1 3c fd 19 8f bd
       0.06873945 -0.002579272 0.027542075 -0.06987379
0002e0 a6 12 0d 3d a8 3e 61 be d3 f0 ad bd 17 4f d7 3c
       0.034441613 -0.21996558 -0.08493199 0.02628283
0002f0 4a d4 08 be 42 11 c5 3d 3d ec 28 bd f4 59 02 be
       -0.13362232 0.09622432 -0.04124092 -0.12729627
000300 2b 51 42 bd 09 a0 19 be 32 83 a9 bd e1 47 14 be
       -0.04744069 -0.15002455 -0.08276977 -0.14480545
000310 4b 39 fb 3d 66 1d c6 bd 9f b6 b9 3d 06 f9 f2 3d
       0.12266787 -0.09673576 0.09068035 0.11863904
000320 9e e3 95 3d 29 6a 75 be 65 ee b9 3d 74 91 e8 bc
       0.07318805 -0.23966278 0.09078673 -0.02838967
000330 a3 f0 54 3d 8f 07 f1 3d 77 35 14 bd d4 1c 82 3c
       0.0519873 0.1176902 -0.0361838 0.015882887
000340 31 99 ed 3c d1 95 1a be 14 6f a6 3d 26 f6 d5 bd
       0.029003711 -0.15096213 0.08126655 -0.1044734
000350 69 a4 f2 3d 4b 44 9c 3d 67 f9 32 3e 9a 1c 1d bd
       0.11847765 0.07630213 0.17477952 -0.038357355
000360 6c 89 b3 bd ef a0 5b 3d bc 10 5b 3d 8c 25 2a be
       -0.087664455 0.053620275 0.053482756 -0.16615885
000370 b5 2f 5f 3c 3a 90 72 bd a7 85 1a bd 0a 1d 32 bd
       0.013622214 -0.059219576 -0.037725117 -0.043484725
000380 80 90 da bc 66 fa a9 bd ad 05 42 bd c4 09 e2 3d
       -0.026680231 -0.08299713 -0.047368694 0.11037019
000390 ec c1 a3 3d 1e 76 a7 bc c2 68 8d bc f5 f1 85 3c
       0.07995972 -0.020442065 -0.017261866 0.016350726
0003a0 8f a1 bb bd dd e3 38 be fd c6 dd 3d 48 e5 c6 bd
       -0.09161674 -0.18055673 0.1082897 -0.09711701
0003b0 44 73 c1 bd b0 a4 3b bd ee 96 ac bc b0 db 5c bd
       -0.09445813 -0.045811355 -0.021068063 -0.053920448
0003c0 23 7d ab bc 1f 67 20 3c 06 c3 42 3d 46 2c bd bc
       -0.020933693 0.009790211 0.04754927 -0.0230924
0003d0 72 94 ad bd 6b dc 0a 3e ca 74 30 bd 2c 62 82 3c
       -0.08475579 0.13560645 -0.04308013 0.015915953
0003e0 c6 91 7c bd 65 d5 eb 3c 26 90 81 3e 42 08 24 3e
       -0.061662458 0.028788278 0.2530529 0.16018775
0003f0 5b ae 09 be b3 27 f5 bc b9 1c a4 3d c7 4b cb 3c
       -0.13445418 -0.029926157 0.08013291 0.024816407

a2c_network.actor_mlp.0.bias f4 [256]
000000 79 5c 2c bd bf 53 ef bb 1e d2 ca bc cf 79 97 3c
       -0.042080376 -0.0073036845 -0.024758395 0.0184907
000010 f8 25 ab b9 d8 93 dd bc c0 f6 b7 bb bd d7 58 bd
       -0.0003264395 -0.027048036 -0.0056141317 -0.05294012
000020 5e 17 26 bd b3 87 a2 bc 7e e9 ee 3a a7 34 85 bc
       -0.04054963 -0.019840097 0.0018227545 -0.016260458
000030 c7 78 82 3c 1c 51 47 bc 5a 81 41 bd a3 1d f3 bb
       0.015926732 -0.012165334 -0.0472425 -0.0074193045
000040 c7 4b 68 bd e6 9f 9e 3d 49 2a 6d bd 76 41 ad 3c
       -0.056712892 0.07745342 -0.057901654 0.021149378
000050 45 46 71 bd 54 52 fc bc ac bd 0f 3d c9 8e 12 3d
       -0.058904905 -0.030800976 0.035092995 0.0357807
000060 12 b2 5f bd 63 5d c3 bc 7d 97 c9 3c a1 15 76 3d
       -0.05461318 -0.023848241 0.024608368 0.06007922
000070 fb f7 3d bd d5 63 8c 3d 30 8a 57 bd 7f cf 8b 3c
       -0.04637907 0.06854979 -0.05262202 0.017066715
000080 03 f4 34 bc 87 02 f6 bc b0 90 c3 3c 9c 46 93 3d
       -0.011044505 -0.030030502 0.023872703 0.07191202
000090 ec f8 12 bc 58 a5 0a bc 40 a9 39 bc 50 fc 78 3d
       -0.00897048 -0.008462273 -0.011331856 0.0607875
0000a0 f5 d4 04 3d 05 e8 92 3d 88 0a a7 bb 41 68 62 3d
       0.032429654 0.071731605 -0.005097691 0.055275206
0000b0 8b 67 2d bb ec ec ee bc ab 37 e1 3c db 2a 4f 3c
       -0.0026459421 -0.029165708 0.027492365 0.012644495
0000c0 99 4c 3c bd b2 ab fc bc 5c 4c 97 bb 2c 8b 42 bd
       -0.045971487 -0.03084359 -0.004617257 -0.047496006
0000d0 97 72 7a bc 24 f6 ba 3c c1 92 5b 3d 42 60 8f 3d
       -0.015286109 0.022822447 0.053606752 0.070007816
0000e0 b4 2e cb bc 28 e0 ba 3c 99 44 3e 3d eb 27 1b 3d
       -0.024802543 0.022811964 0.04645214 0.037879866
0000f0 ad fa 29 3d f0 cb 49 3c 38 82 d0 bc 8b ec 2a bd
       0.04149883 0.012316689 -0.025452718 -0.04172949
000100 44 5b 01 bd 9e a1 80 bb d6 9f 8b bd ad a7 c8 3a
       -0.03158118 -0.0039255163 -0.06817596 0.001530876
000110 7b f4 6d 3d 74 01 d0 bb 37 b0 58 bd 59 65 ab bc
       0.058094483 -0.0063478295 -0.052902427 -0.02092235
000120 89 f8 23 3d 82 46 82 3c 72 b2 c7 bb f7 6e d5 bc
       0.040031943 0.015902761 -0.0060942704 -0.026053889
000130 3f a2 c0 bc 47 e0 b9 3d 3f b1 1c ba bd 44 93 bc
       -0.023514865 0.09075981 -0.00059773395 -0.017977113
000140 b9 a1 17 bc 7a c7 ab bc 8e 8e 5f bd 46 17 47 bc
       -0.009254866 -0.020969141 -0.05457931 -0.012151545
000150 d5 4b 37 bc 73 db a4 bd 87 7c 66 bc db f5 95 3b
       -0.011187513 -0.08049669 -0.014067776 0.0045764274
000160 9b 30 22 3c fe 25 05 bd 5f 8b 8b 3d d3 e1 30 3d
       0.009899284 -0.032506935 0.06813692 0.043184113
000170 ef 3e 72 bd 27 dd 2e 3c 83 f6 69 3b 28 54 40 3c
       -0.05914205 0.010672844 0.003569991 0.011738814
000180 28 ce 54 bd 8d ba 2d bd d5 46 ae 3d 29 a9 c8 bc
       -0.05195442 -0.042414237 0.08509604 -0.024494724
000190 4e 9c 5a bd 76 4a 93 3d bf 9f 16 bd 11 da db 3b
       -0.05337172 0.07191937 -0.03677344 0.006709345
0001a0 c4 4a 89 bc c1 94 30 3c 90 34 d0 bc c6 f1 8f bd
       -0.016759284 0.010777653 -0.025415689 -0.070285365
0001b0 b6 28 42 3b de b8 4b bc be 35 47 bc 52 74 01 bb
       0.0029626316 -0.0124342125 -0.012158809 -0.001975317
0001c0 0d 14 9e bc 48 7f fe 3b b5 b6 d8 3c 1c 77 10 bd
       -0.01929667 0.007766638 0.026454309 -0.03526984
0001d0 07 64 92 bc 04 49 32 bd 70 be c6 bb dd 8f 41 bc
       -0.017869962 -0.043526664 -0.0060651824 -0.011814085
0001e0 76 26 87 bc 30 1d 5b 3d 58 ba c9 3c 8c 05 01 3c
       -0.016497832 0.053494632 0.024624988 0.007874858
0001f0 12 91 60 bc ff 86 ef 3c 71 85 35 3d 40 0d 5d 3c
       -0.013706462 0.029239176 0.044316713 0.013491929
000200 69 ca 59 ba 05 53 07 bd ec 9d ce bb d0 97 c2 3c
       -0.00083080545 -0.033038158 -0.006305447 0.02375403
000210 cb 3f 26 bd 97 44 86 bc 7c 42 36 bc 2b af 31 3d
       -0.04058818 -0.016390128 -0.01112425 0.043379944
000220 61 60 c3 bd ee 65 2b 3d b3 af a8 bc fe d9 c9 bd
       -0.09539867 0.041845255 -0.020591592 -0.09856032
000230 ac 61 d0 3b 04 ef 2c 39 73 91 8a 3b 95 88 63 3c
       0.0063592996 0.00016492239 0.0042287647 0.013887544
000240 7a 1a 70 3b 8e 81 d4 3b da c7 4c 3d 15 92 99 3d
       0.0036636875 0.0064851707 0.04999528 0.07498566
000250 76 cf a1 3c 97 49 98 3b 24 bd 74 bd 44 70 16 3c
       0.019752245 0.0046474445 -0.05975069 0.00918204
000260 eb 21 07 bc f8 a0 a3 bc 52 fe 91 3c b4 b7 ef 3b
       -0.008247833 -0.019974217 0.017821465 0.0073156003
000270 bf 10 fb 3b c9 d1 02 3d 43 32 3a 3c 38 09 c2 3b
       0.0076619084 0.031938348 0.011364522 0.005921509
000280 ee b5 58 3d 57 4f 59 3d 35 1f 60 bd 44 4d 42 bd
       0.052907877 0.05305418 -0.05471726 -0.047436967
000290 ab 13 c4 bc 24 6d 86 3c 67 9b 17 bb ee 07 fd ba
       -0.02393516 0.016409464 -0.0023133398 -0.0019304731
0002a0 2f f3 13 b7 00 3d 3d bc 3e 90 f4 bc 34 d6 d5 bc
       -8.818503e-06 -0.011550188 -0.029853936 -0.026103117
0002b0 a5 e0 89 3d da 4a 40 3d 39 98 89 bc c0 53 e7 bc
       0.06732301 0.046946384 -0.016796218 -0.028238177
0002c0 93 b3 01 3c 9a cb bb 3b 67 9c f7 3b 7b af 7b bd
       0.007916349 0.0057310583 0.0075564864 -0.061446648
0002d0 24 37 2b 3d 85 c4 1f bd 0a f6 ae bd ce 44 90 bd
       0.041800633 -0.039005775 -0.08543022 -0.070443735
0002e0 20 b9 06 3d 00 ee fc 3c 27 40 45 3d 66 8a 63 bc
       0.032891393 0.030875206 0.048156884 -0.013887977
0002f0 ac cd 31 3b 1b 7f c1 bc 13 be 7e bc a8 bd 63 bd
       0.0027130647 -0.023620179 -0.015548247 -0.055600792
000300 e5 8f 84 bd 5f 8c 03 bc b8 37 ab bd 1f b3 c9 3d
       -0.06472758 -0.008029073 -0.08360237 0.09848618
000310 18 22 a4 3c 4a a5 ee bc 88 7d f5 bc db 50 df bb
       0.020035788 -0.02913155 -0.029967085 -0.0068150586
000320 40 ab 88 3b ff b7 a1 bb 5d f2 29 3d c9 38 64 bd
       0.004170805 -0.004935264 0.0414909 -0.055718217
000330 7d 13 5a bd d4 00 9b bc 3c 09 ce bc 71 56 20 3b
       -0.05324124 -0.018921293 -0.025150888 0.0024465586
000340 2a 3a d7 bc dc 49 8a 3d 3a be e3 3c a0 05 88 3c
       -0.026272852 0.06752369 0.027800668 0.016604245
000350 28 8f 96 3c ff 46 92 3b 03 0c 57 bc c8 26 0d bd
       0.01837881 0.00446403 -0.013125422 -0.034460813
000360 ef b3 67 bd e5 49 a3 3b cd 0b 50 bd 0c a6 8c bc
       -0.056568082 0.004983174 -0.050792504 -0.017169021
000370 88 9a d6 bc a1 fd 02 bd 63 d9 4f bc ca 6b b1 bb
       -0.026196733 -0.03198016 -0.012686106 -0.005414461
000380 6b fa 8e 3d 9f f2 bc 3c a7 15 c9 3d 4d 69 13 bb
       0.06981357 0.02306491 0.09818583 -0.0022493184
000390 7f cc d2 bc f4 97 6d bd e6 a3 00 3d f3 52 aa bb
       -0.025732277 -0.058006242 0.031406306 -0.0051978766
0003a0 e5 84 41 3d 4b ac b0 bc e4 b8 10 3d d3 92 c4 bb
       0.04724588 -0.02156653 0.035332575 -0.005998948
0003b0 3d fa 4e 3d 09 ef e1 bc ac 19 92 bc 5f b6 a7 3b
       0.050531615 -0.027579801 -0.017834507 0.005118176
0003c0 93 1e 3c 3c 4f 30 10 bb 47 c4 b4 3d b9 53 f6 3c
       0.011481899 -0.002200145 0.088264994 0.030069219
0003d0 e6 10 7d bc de 46 fb 3c 52 d2 8e 3d 0b e4 0c bd
       -0.015445923 0.03067344 0.06973709 -0.034397166
0003e0 10 34 29 bb 9f d3 6d bd ed 63 30 3d a4 e0 1c 3d
       -0.0025818385 -0.058063146 0.043064047 0.03830017
0003f0 34 a6 c9 3b fb 91 86 3d 84 72 a6 3c 57 b3 10 bc
       0.006153846 0.06570812 0.020318277 -0.00883182

a2c_network.actor_mlp.2.weight f4 [128, 256]
000000 04 e4 6d bd 8d 80 7a 3d fb 97 8e bd 25 e1 34 bd
       -0.05807878 0.06115775 -0.06962582 -0.044160027
000010 21 de 7b 3c 8d 8d 44 3d 09 42 d0 bc cf 42 87 3d
       0.015372784 0.047986556 -0.025422113 0.066045396
000020 7a 1b e7 bb f8 d0 a2 3d e3 2e cf 3d b5 72 9e bd
       -0.007052836 0.07950014 0.10116365 -0.077367224
000030 0e cb 34 bd d6 84 67 3c 2b b4 4f bc 4a d4 be 3c
       -0.04413896 0.014130792 -0.012677233 0.023294587
000040 21 23 05 bd e7 66 7d 3d 00 62 08 bc 49 40 8d 3b
       -0.032504205 0.061865713 -0.008324146 0.004310642
000050 5c a0 ac ba 2b d8 0a bc 9f 09 53 bd 36 64 e7 bc
       -0.0013170349 -0.00847439 -0.051522847 -0.028246026
000060 22 14 de bc 0b 26 be 3c 56 f3 96 3b d2 b8 a6 bd
       -0.02710921 0.0232115 0.0046066446 -0.081407204
000070 09 82 fe 3c be 65 ce bd 16 17 11 3c e5 37 d8 bc
       0.031067865 -0.100779995 0.008855602 -0.02639384
000080 2a dd 92 3d ae ea 84 bc 1c cf 21 3d a6 a4 18 bc
       0.0717109 -0.016225185 0.039504156 -0.009316599
000090 26 c1 84 bd 02 4e 44 bc 1e 74 10 bd 41 5f 63 bd
       -0.06482153 -0.011981489 -0.035266988 -0.055510763
0000a0 98 db 45 3c b3 73 50 3c df 5b 10 bd 58 5f 0c 3d
       0.012076281 0.012722897 -0.035243865 0.034270614
0000b0 5b 49 b6 bd 55 bd 3c bc 9e b5 17 3d 48 aa 53 3d
       -0.0890071 -0.01151975 0.037038438 0.051676065
0000c0 4b 8f c0 ba 72 ec 02 bd ba a8 c2 3d dc bc 89 3d
       -0.0014691142 -0.031963773 0.09504838 0.06725475
0000d0 05 10 a4 3c 1a 0a f7 3c 16 d9 7e bd b9 5e e9 3c
       0.02002717 0.030156184 -0.062218748 0.02848755
0000e0 37 a4 c9 3c 35 3d c1 bd b8 0b 86 bc a2 2f 29 be
       0.024614437 -0.094355024 -0.01636301 -0.16522077
0000f0 3c 1b 0d bd 1d 74 19 bd d0 6a 0d bd 91 15 33 3d
       -0.0344498 -0.03746425 -0.034525692 0.04372174
000100 6f b2 f5 bb 48 55 69 3d 9f 1a a2 bc 35 11 0c bd
       -0.0074980776 0.056966096 -0.019788085 -0.034196097
000110 79 5b e9 3c 7a 93 b3 bd b5 74 f7 3c 53 fc 8a bd
       0.028486 -0.08768363 0.030207017 -0.06786408
000120 f2 5c 5c bd e1 5b ee bc 40 dc 03 bd 77 6d 99 3d
       -0.053799577 -0.029096546 -0.03219247 0.07491582
000130 09 98 17 3d 9e 02 73 bc 7e 58 78 bd 6c a1 24 bb
       0.037010226 -0.014832167 -0.060631268 -0.002512063
000140 60 ea b7 3d bf 31 53 bd 4c c1 32 3d be 6c ab 3d
       0.0898025 -0.051561113 0.043641374 0.0837035
000150 45 55 63 3d b9 b6 85 3a 3a 28 62 3c 79 cc 9b bc
       0.05550124 0.001020155 0.013803536 -0.019018399
000160 f9 bd f8 bc d3 75 86 bd 11 ca b8 bc 82 ce 17 bd
       -0.030364024 -0.06565442 -0.02255729 -0.037062176
000170 a8 81 85 3d a0 76 92 3b 4b 25 b8 3d db fb 24 bd
       0.065188706 0.0044697076 0.08991488 -0.04027925
000180 32 0f 12 3d 64 15 7e ba 67 7c 1c 3d 31 e5 de 3a
       0.035659023 -0.00096925185 0.038204577 0.001700556
000190 f3 2d 48 3b 8c aa aa 3b d6 9f 2f 3d e5 93 83 3b
       0.0030544966 0.005208319 0.04287704 0.004015433
0001a0 42 bd 18 3d 62 0a 57 bc 8e 42 67 3d c2 9c 8d 3c
       0.037289865 -0.013125034 0.056459956 0.017286662
0001b0 2d 59 11 bc 34 a9 5e bd e4 b6 55 bc 36 5e 36 bc
       -0.008871359 -0.054360583 -0.013044093 -0.01113086
0001c0 58 46 a1 3c 77 76 01 3d 77 d8 18 bd be 45 cf bc
       0.019686863 0.031607118 -0.037315812 -0.02530181
0001d0 c7 8b b6 3c e7 c7 1f 3d 18 60 2a bd 00 1b 1b bd
       0.022283448 0.039009 -0.04159555 -0.037867546
0001e0 b5 b1 6c 3d d9 08 0e bd 35 1f ed 3b f4 9d 96 3b
       0.057786662 -0.034676407 0.007236386 0.004596466
0001f0 61 9b c2 3d 92 70 ad bd 17 b6 06 3c ab a5 9a bd
       0.095022924 -0.08468737 0.008222125 -0.0755113
000200 30 5f be 3d 9e b6 cf bc 44 20 04 3d d8 8c 85 bc
       0.09295499 -0.025355633 0.032257333 -0.016302511
000210 e2 d6 00 bd 38 fc 14 3c 48 4d d0 3c b9 09 e8 bc
       -0.03145493 0.009093337 0.025427476 -0.028324949
000220 fe 41 21 bc f1 a5 ab 3d 67 dd 62 3d 3d ee 03 3d
       -0.009842394 0.0838126 0.055386927 0.032209624
000230 21 90 4e bd e3 1b 2c bd 60 5e 02 bd d7 0f 9a bd
       -0.05043042 -0.042018782 -0.031828284 -0.075225525
000240 46 7f 08 bd 1f 3c 89 bc 9b 18 da 3c de 50 bd bb
       -0.033324502 -0.0167523 0.02662306 -0.0057774624
000250 69 d5 fc 3c 58 76 ad bc 2f d5 10 3d 5d fb 8d bd
       0.03086348 -0.021174595 0.035359558 -0.06932709
000260 1e 6f c4 bc 57 7d 30 3d e2 34 16 bd 33 30 b0 3d
       -0.023978766 0.043088283 -0.036671527 0.08602943
000270 4d e7 93 bd 0e 88 2e bd d9 6c 8a bd 68 5b b2 bd
       -0.072218515 -0.04261022 -0.06759042 -0.087088406
000280 76 c3 ad bd 28 fc 7a 3d 80 6d 9d bc 27 33 75 3d
       -0.08484547 0.06127563 -0.019217253 0.059863236
000290 92 51 84 3d 14 8a 2b 3d 52 3f 0d bd 5b 21 a2 3d
       0.06460871 0.04187973 -0.034484215 0.07916518
0002a0 50 2a 8a 3d 72 f6 09 3c ea a9 64 bc fd 4f 2b 3d
       0.06746352 0.008420574 -0.013956526 0.04182433
0002b0 28 12 81 3d 5b 3b 38 bd f4 b9 99 3c 98 7f ea bc
       0.06302291 -0.04497848 0.018765427 -0.028625295
0002c0 17 a2 07 bd af eb 3a bd 99 9b 66 bd 1b a8 50 3d
       -0.033113565 -0.04563492 -0.056300733 0.050941568
0002d0 02 47 9c bb 78 c0 95 bc 33 92 a6 3a 01 64 60 3c
       -0.004769207 -0.018280253 0.0012708366 0.013695718
0002e0 57 de 2e bd e2 d6 0b 3c 96 4c 97 3d c8 ac 3f 3c
       -0.04269251 0.008535119 0.073876545 0.011698909
0002f0 a8 1a b2 bb 00 5b 28 bd 42 a1 85 bd 0c 85 77 3c
       -0.0054353066 -0.04110241 -0.06524898 0.015107404
000300 ac 55 cf bc 36 76 72 3d 05 8b 14 bd 46 fd e3 3d
       -0.025309406 0.059194766 -0.03626539 0.111322924
000310 b8 4b 02 3c f8 ab 60 3d 06 0f c1 3d b9 98 70 3b
       0.007952623 0.054851502 0.094266936 0.0036712124
000320 39 f7 a4 3d 18 38 16 3d d7 12 ba 3c 2d d4 f6 3b
       0.080549665 0.03667459 0.022714062 0.0075326175
000330 1f 34 8b bd ee a9 55 bd 4f a2 b0 3c 2a f9 5b 3d
       -0.06797051 -0.05216401 0.02156177 0.05370442
000340 ac 20 4e 3d 16 72 3b bc d7 10 98 3d 91 e2 b7 bd
       0.050324127 -0.011440774 0.07425087 -0.08978761
000350 83 d4 8d 3c 77 02 4d bc ef 1e 06 3c 3b 71 e8 3c
       0.017313248 -0.012512795 0.008186086 0.028374305
000360 a1 1f b7 3d 95 34 2a 3c 08 63 56 3d 48 f0 11 bd
       0.089415796 0.010388513 0.052340537 -0.03562954
000370 6f 5d a5 3a b6 0a 92 3d f3 44 e0 3c 95 d1 cf 3c
       0.0012616346 0.07130949 0.027376628 0.025368491
000380 64 28 1f bd 79 db 22 3d 5e cf 11 bd 5e ad a6 bc
       -0.03885688 0.039760087 -0.03559815 -0.02034634
000390 ff 59 27 bd 42 64 cf bc f4 ed e3 3c 2d 4a f1 3d
       -0.04085731 -0.025316361 0.027823426 0.11781726
0003a0 76 90 6f 3d c5 2e e2 3c 78 27 09 3d a5 91 88 3d
       0.058487378 0.027610192 0.033484906 0.066684045
0003b0 41 c5 8a bd df 15 ac 3c 8f 83 5a 3d 0f c7 ea 3d
       -0.067759044 0.021006523 0.05334812 0.11463749
0003c0 d0 02 73 3c 42 ac 59 bd 7a 9b 10 3b ce df 17 bd
       0.0148322135 -0.053142793 0.0022065328 -0.03707867
0003d0 e0 68 29 3e 75 4b 9a bd 92 bf 03 bd 4c ec 43 3d
       0.16543913 -0.075339235 -0.032165118 0.047832772
0003e0 9e a0 d4 bd 30 43 3e bd aa 89 14 3d b8 f9 97 3d
       -0.10382198 -0.046450794 0.0362641 0.07420677
0003f0 80 09 2e bd f8 0e 86 3d c7 8f 9d 3d cb db ec 3c
       -0.04248953 0.06545824 0.07693439 0.0289134

a2c_network.actor_mlp.2.bias f4 [128]
000000 61 20 c5 3c 21 e2 5d bc b4 25 40 3d d6 7a 1e bd
       0.024063291 -0.013542683 0.046910957 -0.038691364
000010 83 1b 86 bd 4b 06 a4 3c d0 fe 8e 3c 04 69 d7 bb
       -0.06548216 0.020022532 0.017455488 -0.006573798
000020 27 84 f9 ba 82 cf 61 bc 13 5a 18 3c a8 9b 1a 3d
       -0.0019036577 -0.013782384 0.009298819 0.0377461
000030 cf 72 1f bc 49 2c 53 bd e6 40 d9 3d 06 9d 92 bd
       -0.009731962 -0.051555905 0.106080815 -0.07158856
000040 e6 8f aa bc fa 34 80 bc 77 4d 35 bd 13 1f e5 bb
       -0.02082057 -0.015650261 -0.04426333 -0.0069922297
000050 2d b7 a3 bc c1 a3 b5 bb 9e 8f 0f bd a5 65 f6 bb
       -0.019984806 -0.0055432026 -0.035049073 -0.007519441
000060 17 f3 30 bd 10 e6 77 bd 19 f8 c3 3b 25 ad e8 bb
       -0.04320058 -0.06052214 0.0059805033 -0.0071007186
000070 3a 53 8e bb dd dd b6 3c 3d 18 a0 bd c5 c9 fe bc
       -0.0043434175 0.02232259 -0.07817123 -0.03110207
000080 8c 23 51 3d be d5 b4 3c 20 0d a5 bc 46 0d 21 bd
       0.05105929 0.022074576 -0.02014786 -0.0393193
000090 46 e2 b7 bd a4 fb 09 3b 36 42 44 bd b5 0e 2b bd
       -0.08978705 0.002105453 -0.047914706 -0.041762073
0000a0 03 14 de bc 4f 5f e1 3c 73 84 a6 3d cf 54 e5 bc
       -0.027109152 0.027511267 0.081307314 -0.027994541
0000b0 55 94 4a bd 93 4c 45 bc dc 3d bc bc cd 70 10 bd
       -0.049457867 -0.0120421825 -0.022978716 -0.035263825
0000c0 2c 52 c6 3c 66 3e 36 bd e1 11 05 3d 2a 19 66 3c
       0.024209104 -0.0444931 0.032487754 0.0140440855
0000d0 02 a2 e3 bd 5c b8 f7 3b f0 6a ff 3b 61 88 60 3c
       -0.11114885 0.007559819 0.0077947304 0.01370439
0000e0 5b 20 0d 3d d8 4d 03 3d 7c e8 1e 3b 06 b9 41 bd
       0.034454685 0.03205666 0.0024247458 -0.047295593
0000f0 64 1c 07 3d c7 fa 57 3d 08 63 b8 bd c8 22 0c 3d
       0.03298606 0.052729394 -0.09003264 0.034212857
000100 b4 a3 a1 3d 27 6b d0 bb f6 ea 03 bd 09 50 25 3c
       0.07892552 -0.00636043 -0.032206498 0.010089883
000110 8f 5f 61 3c 5a 2a e1 3c eb d7 2b 3d 8b 60 61 3d
       0.013755693 0.027486015 0.041953962 0.05502371
000120 70 1e 2f bc 7a 1b 08 3d 13 67 66 bd 68 e3 07 3d
       -0.010688409 0.03322933 -0.056250643 0.033175856
000130 0f 24 6f 3c 52 e0 33 3c 2b 2d 4d 3c 9b 72 d8 bc
       0.014595999 0.010978775 0.012522976 -0.026421836
000140 7e 11 ae 3c 6f 5c 3d bd a2 04 d7 3c 49 18 cf 3c
       0.021248575 -0.04623073 0.026247326 0.025280135
000150 8c 75 a1 3c d3 b3 e3 3c 73 27 4d bd 05 b4 c4 bd
       0.019709371 0.027795708 -0.05008645 -0.096046485
000160 fb 35 9d bc 27 7d 95 3c 8e fd 59 3d 84 9b 21 3d
       -0.019190779 0.018248154 0.053220324 0.039454952
000170 2a 54 1a ba 53 54 fa 3a ad 93 c2 bc 94 5c a1 3c
       -0.0005887175 0.0019098617 -0.023752058 0.019697465
000180 3c 81 6e 3d 10 ef 33 bd 14 ce 14 3b c3 3f 06 bd
       0.058228716 -0.04392916 0.002270584 -0.03277565
000190 f3 7c 82 3c 9d c1 8a 3c 68 7e 50 3c 2a c2 b4 3c
       0.015928721 0.016938025 0.01272545 0.02206524
0001a0 19 6f 8d ba 9f e4 f9 bb be 99 20 ba 87 76 9f bb
       -0.0010790556 -0.0076261307 -0.0006126425 -0.0048664245
0001b0 e0 01 f9 3c 15 04 0a be b7 1f b9 bc a6 0f c5 3c
       0.030396402 -0.1347812 -0.02259813 0.024055313
0001c0 14 94 89 bd ae e2 b4 3c 67 f3 f5 3c d1 20 02 3c
       -0.06717697 0.022080746 0.03002329 0.007942394
0001d0 9c b5 66 bb 4c 42 5b 3c d6 db 2f 3c 76 de 3e bd
       -0.0035203462 0.013382506 0.010733565 -0.046598874
0001e0 2e 36 f7 3c dd df 18 3d 52 73 29 3c 62 78 8d 3b
       0.030177202 0.037322868 0.010342436 0.0043173293
0001f0 b8 ad 06 bd 1b f4 6c 3c 52 b3 c9 3c 4e a1 73 bd
       -0.032880515 0.014462496 0.02462164 -0.059480004

a2c_network.actor_mlp.4.weight f4 [64, 128]
000000 7f 2d 2b 3b 38 ba 7a 3c bd bd 0d 3d eb fa 7b bd
       0.0026119647 0.015303187 0.034604777 -0.06151859
000010 d0 54 a0 3b ca a8 cc 3d 64 de e9 3c 8b eb a1 3d
       0.004892923 0.099931315 0.028548427 0.079062544
000020 ee b2 90 bd 9f 3f 3f 3c 67 55 03 bb ac ee 5d bd
       -0.07065378 0.011672883 -0.0020039917 -0.054182693
000030 24 e4 87 3c 12 28 24 bd 1d 2d 68 bd 63 89 ca bc
       0.016588278 -0.040077277 -0.05668365 -0.024723714
000040 ae d4 e0 bd 8d 3d 72 bd 69 8f f5 bd d2 e2 6d 3d
       -0.109780654 -0.05914073 -0.11990244 0.05807764
000050 ca ed 8e bd bd a4 3c bd a0 4e 1a bd 33 62 36 bd
       -0.069789484 -0.046055544 -0.03767264 -0.044527244
000060 fb 74 fe 3d e3 5b 42 3d a3 2a eb bc b7 79 32 bd
       0.12424656 0.04745091 -0.028706854 -0.043573108
000070 3e de 83 bd 7d 80 97 3b 9d 5e df bb f1 db c5 bd
       -0.06438874 0.0046234713 -0.0068166987 -0.09661091
000080 56 e8 94 3d 09 bb b4 3d a8 92 78 bd 10 7a 50 3d
       0.07270877 0.088247366 -0.060686737 0.050897658
000090 3e a1 7a 3d 80 69 e1 bc 69 12 d5 3d e6 98 c5 bd
       0.06118893 -0.027516127 0.10403902 -0.09648304
0000a0 d9 0d 16 bd 06 17 ab bb 20 18 ca bd 6f c9 46 bd
       -0.0366343 -0.0052212505 -0.09867883 -0.048531946
0000b0 d4 04 3f bd 5d ea 92 3c 06 39 d9 3c b4 0c b0 3d
       -0.046635464 0.017934019 0.026516449 0.08596173
0000c0 6a 0a 5e 3c ce 90 96 3d 2a bc a8 bc 3a d1 e2 3c
       0.013552288 0.07351838 -0.020597536 0.027687658
0000d0 a5 a9 be 3d be 39 66 3d 85 46 3f bd 6a 52 6d 3d
       0.09309701 0.05620741 -0.046698112 0.057939924
0000e0 25 ce ba 3d 0e d1 23 bc ce 73 11 3d 9d 35 5f bd
       0.0912135 -0.009998573 0.03551083 -0.05449449
0000f0 34 02 51 bc 29 08 86 3b 28 25 f0 3b f4 40 d3 bc
       -0.012756873 0.0040903282 0.007328648 -0.025787808
000100 22 a5 7b 3c 9d 62 be bc a1 81 ee 3d f7 0c c8 3b
       0.015359195 -0.023240382 0.116458185 0.006105061
000110 c9 61 b9 3d db 9b 91 3d 01 c1 ac bd bf 11 7a 3d
       0.09051854 0.07109805 -0.0843525 0.06105208
000120 f9 19 b3 bd 42 07 fc bc 5d c2 67 bd bd 94 bf 3d
       -0.08745188 -0.03076518 -0.056581844 0.093545415
000130 18 7e 9e bd 0b 9e b9 3c 97 73 52 3d 34 48 b9 bd
       -0.07738894 0.022658369 0.051379766 -0.09046975
000140 fa 51 8f 3d 5d 7c 53 bd 74 84 a2 bd d1 fd bd bc
       0.06998058 -0.051632274 -0.0793542 -0.023192318
000150 88 dd 74 3d 16 c5 89 bd 94 46 91 3d c0 49 98 bc
       0.05978158 -0.06727044 0.0709354 -0.018589854
000160 91 d8 68 3d f0 38 0c 3d 72 4d 81 bd 5e 88 86 3d
       0.05684716 0.034233987 -0.063136 0.06568979
000170 04 8f 15 3d f8 5f 12 be 0f ca f2 bd 49 2b a9 3c
       0.036513343 -0.14294422 -0.11854946 0.020650523
000180 42 40 e2 3c f0 ad 26 bd 65 eb 8b bd 04 85 0e bd
       0.027618531 -0.040693223 -0.06832007 -0.034794822
000190 4c f6 20 3d 7b 4f 25 3d 36 f1 d7 3d b0 98 b8 bd
       0.039297387 0.040359 0.10544054 -0.09013498
0001a0 c2 75 9d bd 29 db 12 3e 0c 86 b7 3d c8 87 90 3c
       -0.07688476 0.14341415 0.08961114 0.01764287
0001b0 fc bb 22 bc ce 93 69 3c 84 d1 3a bc 50 d4 81 3d
       -0.009932514 0.014256431 -0.0114024915 0.063393235
0001c0 a7 83 54 bd c4 4d 93 3d 6e 2a 03 3d 8f 8c 0c 3d
       -0.051883366 0.07192567 0.032022886 0.034313735
0001d0 9d 0c 51 3c e1 25 b6 bc 7e d4 21 3c 98 d1 5f bd
       0.012759355 -0.022234859 0.009877322 -0.054643244
0001e0 f4 de a3 3d f1 3d da bd a5 7c b4 3d 29 69 06 bd
       0.08001509 -0.10656346 0.088128366 -0.032815132
0001f0 0d 9a 94 3d 16 f6 80 3d 06 48 b6 3c ec 8e bd bc
       0.07255945 0.06296937 0.02225114 -0.02313944
000200 e6 a5 6e bd 62 87 81 3d ee 71 98 3c bd 19 18 be
       -0.05826368 0.0632465 0.018609013 -0.14853568
000210 be 72 77 3d a6 54 67 bd 85 6b 80 bd 44 08 83 3d
       0.06041216 -0.05647721 -0.06270508 0.06398061
000220 d1 d5 e8 bb d9 20 5b bd 17 d2 d9 ba fe 5a 70 bd
       -0.007105567 -0.053498123 -0.0016618398 -0.058680527
000230 31 50 28 3c 47 6a 49 3c df 10 8a bd e0 ed 79 bd
       0.010273025 0.012293405 -0.06741499 -0.06101787
000240 da 15 c5 bd 96 96 15 3d 32 3d c2 bc 3d cb 43 3d
       -0.096233085 0.036520563 -0.02371082 0.047801245
000250 dd da 5c bd 5a f8 25 ba b2 44 35 3d af 5b 11 3d
       -0.05391966 -0.0006331258 0.044254966 0.035487827
000260 4f 8b 05 3e c8 b9 92 bd d5 b7 bb bd d3 65 bc bd
       0.13041423 -0.07164341 -0.091659226 -0.09199109
000270 9f 91 79 3d ac 93 4f bd 3e 47 a1 bd 22 2a 66 3d
       0.06092989 -0.05067794 -0.078749165 0.056192525
000280 85 55 18 3c aa 69 29 3d d0 74 34 3d 49 87 4a bd
       0.009297733 0.041360535 0.044056714 -0.049445424
000290 8c ab 83 bd 92 6a 07 3d 49 64 cf bc a8 dd 5b 3c
       -0.06429204 0.033060618 -0.025316374 0.013419546
0002a0 ba d2 2b bc 87 6e d3 b8 4a b8 a4 bd 18 a5 83 bd
       -0.010487253 -0.00010081851 -0.08042963 -0.064279735
0002b0 a7 02 5e 3d ac 09 8b bd 82 1f bf 3c a7 0a f0 3d
       0.05420175 -0.06788954 0.023330454 0.11720782
0002c0 7f 4b 87 3d 7f 06 1b 3e 96 a0 78 3d fa 3d cf bd
       0.066061966 0.15139197 0.06070002 -0.10119243
0002d0 90 04 62 bc eb b7 9b bd b7 96 82 3d 61 73 91 3c
       -0.013795033 -0.07603439 0.06376403 0.017755212
0002e0 1e 7b 4f 3d 4f df bb bc aa 05 2d 3d 31 85 84 3d
       0.050654523 -0.02293363 0.04224173 0.06470717
0002f0 c0 8c 86 bd f2 33 ab bd 23 b0 47 3d 9a a1 c0 bd
       -0.06569815 -0.08359517 0.04875196 -0.09405823
000300 a0 6b fb bc de 93 90 bd c2 cc 2d 3d f4 66 b0 bd
       -0.030690968 -0.070594534 0.0424316 -0.08613387
000310 f8 cc b2 bd 50 86 d1 bd f6 5b 09 bd 08 3e bf bd
       -0.08730501 -0.10230696 -0.033534966 -0.093380034
000320 17 a5 df bb 73 13 a8 bb ad b3 11 be 63 6f 2e 3d
       -0.0068251 -0.0051292717 -0.14228697 0.042586695
000330 7f cd ac b9 68 ea 93 bd 9e 5c 08 bc e6 fc c2 bd
       -0.00032959503 -0.07222444 -0.008322863 -0.09520893
000340 1a 74 be 3d bf e8 56 3d 52 31 1c bd 67 c2 18 bd
       0.09299488 0.052468058 -0.038132973 -0.03729477
000350 70 c9 89 3d c0 48 c7 3c a5 a9 69 bc dc 54 0c 3b
       0.06727874 0.024326682 -0.014261638 0.0021412885
000360 c8 e2 11 bb 5e 48 38 3d e5 3e fd bc 01 bc 58 bd
       -0.0022260416 0.04499089 -0.03091378 -0.05291367
000370 cd e4 08 3d 59 8b 5b bd 98 3b bb bc 6b 7e 11 be
       0.033421326 -0.05359969 -0.022855565 -0.14208381
000380 5a ac 87 bd 40 80 43 bb 51 05 48 3d 2a b9 79 ba
       -0.0662467 -0.0029831082 0.048833195 -0.0009526188
000390 78 01 9c bd 6c f1 30 bd 34 79 67 3b 26 f4 7c bd
       -0.07617468 -0.043198988 0.0035320045 -0.061756276
0003a0 2e 2a 3a 3d c9 ed c9 3c 57 02 1f 3d e2 83 47 3d
       0.045450382 0.024649518 0.03882059 0.048709758
0003b0 70 0d 1f bc 25 5a e7 bc 5a d4 99 bd 05 21 f5 3d
       -0.009707794 -0.028241226 -0.07511206 0.119691886
0003c0 5f ff b3 3a 1e 1d 43 3c fe 03 16 3d 0d 12 ed 3c
       0.0013732723 0.011908798 0.0366249 0.028939271
0003d0 e3 f3 e3 3d 9f 79 28 3c 1e 99 0d bd af 96 da bd
       0.11130502 0.010282903 -0.034569852 -0.10673272
0003e0 25 aa a4 bd eb b6 af 3c 26 c8 3d bb 15 25 1f bc
       -0.08040265 0.021449527 -0.002895841 -0.009713431
0003f0 6a ce 09 bc 44 d1 a9 3d 73 ef cc 3b 75 04 b0 3d
       -0.008411029 0.082918674 0.0062541305 0.085946

a2c_network.actor_mlp.4.bias f4 [64]
000000 5e 6c a3 3b a3 0e 88 bd 34 e7 4a 3d 86 41 f4 3b
       0.0049872836 -0.06643417 0.0495369 0.0074541
000010 8c 0c d4 bc cd 01 a4 bc 77 b2 01 bd 6d 0b 5e bd
       -0.025884889 -0.02002039 -0.031664338 -0.054210115
000020 e4 18 69 bd 1c 4a 17 bd 40 61 d5 bd 9b 52 12 3d
       -0.056908503 -0.03693591 -0.104189396 0.03572331
000030 d3 4e a1 3d cf c8 83 3b 01 17 85 bd b1 6c a3 bb
       0.07876363 0.004021741 -0.06498528 -0.0049873223
000040 e0 96 29 bd ad 29 3b bd 4f f6 46 3d d3 dd 3e bd
       -0.04140365 -0.045694042 0.048574742 -0.046598267
000050 ad 91 6c bd a2 66 24 bd fc e4 61 bd c4 83 36 bc
       -0.057756115 -0.04013694 -0.055150017 -0.011139814
000060 c7 f5 aa 3c f8 85 c1 bc 4f fd fb bc 8d c0 1d 3d
       0.020869149 -0.023623452 -0.030760435 0.03851371
000070 13 7c 4f 3d 30 34 91 bd 89 b7 bf bd f9 cd 68 bc
       0.050655436 -0.07090032 -0.093611784 -0.014209264
000080 6f a5 67 bd f1 ad 80 bb ee 67 e7 3c cd e3 98 bd
       -0.056554254 -0.0039269854 0.0282478 -0.074653246
000090 1c bf 93 bd 27 78 b1 3c 95 7e 37 bc 3d ea da ba
       -0.072141856 0.021663738 -0.011199613 -0.0016701889
0000a0 c9 1e 84 3c ea 11 ae 3c 40 8c 37 bd 29 2b 3b bb
       0.01612796 0.021248776 -0.044811487 -0.002855966
0000b0 e2 87 c3 bd 7f a9 1d be 74 69 80 3d d2 63 21 3d
       -0.09547402 -0.15396689 0.062701136 0.039401837
0000c0 91 8d 60 bd 25 22 a1 bd 67 98 1b 3d ca 2c 8c bd
       -0.05482251 -0.07867841 0.03798714 -0.0684448
0000d0 b4 e9 d9 3c 1b 31 40 bd 60 a6 c1 3c ac 68 6c bd
       0.026600696 -0.04692183 0.023638904 -0.05771701
0000e0 63 af fe bc 83 42 36 3d b4 e9 73 bd 86 b7 4b bd
       -0.03108949 0.044497024 -0.05954905 -0.04973557
0000f0 15 20 de 3c f0 73 76 bd bd 62 94 bd 81 ff 8a bd
       0.027114907 -0.06016916 -0.07245395 -0.06787015

a2c_network.value.weight f4 [1, 64]
000000 82 af a4 3d bf b8 8b 3c 67 60 30 3d 31 1b 02 3e
       0.08041288 0.017055867 0.043060686 0.12705685
000010 58 df 38 bd 0a fe 0e 3c 9f 26 06 3b 5e d4 44 3c
       -0.045134872 0.00872756 0.0020469797 0.012013523
000020 e2 f4 c6 bc 7c 24 0f bd e1 b2 d7 3c 93 57 40 3d
       -0.024286691 -0.034946904 0.026330413 0.046958517
000030 dd 8c e9 3b bf a3 4f 3c 10 ef a1 bd e4 ed 52 bc
       0.007127388 0.012673317 -0.07906926 -0.0128741
000040 30 53 eb bd 95 46 ae bd c3 b4 b6 3d 27 f4 c7 bc
       -0.11490476 -0.08509556 0.08921196 -0.024408413
000050 40 00 0e be f8 5f cb 3c 37 b1 33 3c 22 93 27 bb
       -0.13867283 0.024826035 0.010967544 -0.0025569876
000060 be 36 65 bd cd 08 2a 3d 76 43 f0 bd 69 80 40 3d
       -0.05596041 0.0415123 -0.11731617 0.04699746
000070 3d 4e e2 3c 9c 7d b0 bd f2 19 1b bd 10 fd b5 bc
       0.027625198 -0.08617708 -0.03786654 -0.022215396
000080 bc 72 c8 bd d1 8c 54 bc 84 07 20 bc 04 c0 47 bc
       -0.09787509 -0.012973026 -0.009767417 -0.012191776
000090 5c 51 0d be 56 63 86 3d 54 50 c9 3c c3 a1 30 bd
       -0.13800567 0.065619156 0.024574436 -0.043123018
0000a0 2d 13 7b 3d 79 3a b9 ba 40 e7 11 bd dc c6 7f 3d
       0.061297584 -0.0014131806 -0.035620928 0.062445506
0000b0 5f 0d 7b bc ce ad e0 3c 22 a1 9a 3d 59 95 aa bc
       -0.015323012 0.027426627 0.07550265 -0.020823168
0000c0 0b d0 ea bc 0f d9 f0 bd ab 65 39 3c 6b f2 7d bd
       -0.028663656 -0.11760151 0.011315743 -0.061998766
0000d0 d7 85 d1 3d 6f 40 1b bd d2 ed 23 3c e7 2e bb bb
       0.10230606 -0.037903246 0.010005431 -0.0057123783
0000e0 93 c4 2c bb 2b 76 66 3d 06 4e 99 bc 91 70 16 be
       -0.0026362285 0.056265038 -0.018713962 -0.14691378
0000f0 cb 6f f1 3d 32 ec c6 bd f0 a9 66 bc 94 2f 05 bc
       0.11788901 -0.097130194 -0.014078602 -0.008129019

a2c_network.mu.weight f4 [8, 64]
000000 ea 23 b7 3c b7 d5 ea 3c d6 df 1c be e3 84 4b 3d
       0.022355992 0.02866636 -0.15319762 0.049687278
000010 b8 cd 7c bc 64 c2 34 3d 37 ec 92 bd 6f 24 6c 3c
       -0.015429907 0.044130698 -0.07173961 0.014412983
000020 01 cb ac bc 81 a0 7d 3d 1c 57 50 3d 37 21 ef 3c
       -0.021092894 0.061920647 0.050864324 0.029190643
000030 6c 2a 7b bd 9f ab fe bd 19 50 08 3e cc b0 cf bd
       -0.061319754 -0.12435078 0.13311805 -0.10141143
000040 65 99 82 3a 62 41 e1 bb 37 a7 dd 3c 30 b8 4c bd
       0.0009963928 -0.0068742493 0.027057273 -0.049980342
000050 8c 34 59 3c b0 d4 9b 3d 02 63 13 3d 6d 85 26 bc
       0.013257157 0.07608926 0.035983093 -0.010163647
000060 21 ee 8d bd dc e8 b5 3d 00 0c 88 3b d5 48 e2 3d
       -0.06930185 0.08882305 0.004151821 0.11049048
000070 e5 8c e9 bd 7e 3f ba 3d e4 5b 2a bd 60 48 91 bd
       -0.114038266 0.090941414 -0.04159154 -0.070938826
000080 73 7b d8 bd 1f 67 b5 3d db 39 a0 bd 41 84 32 3e
       -0.10570421 0.088575594 -0.07823535 0.17433263
000090 d6 07 75 3c bc e5 14 3d 4d 78 52 bc 97 dc bb bd
       0.0149554815 0.036351904 -0.012846065 -0.091729335
0000a0 98 e5 8e 3c dc 10 10 3e 06 1a e6 3d 41 8f 69 3c
       0.017443463 0.14068931 0.11235432 0.014255346
0000b0 1a f0 09 be 2d b7 21 3c 78 e3 7f bc 34 24 9e bd
       -0.13470498 0.009870333 -0.015618198 -0.07721749
0000c0 2d 08 00 bc a0 28 8a 3d 30 64 31 bd bc b8 6b 3d
       -0.007814449 0.0674603 -0.043308437 0.057549223
0000d0 05 18 95 3c 64 78 85 3c a1 94 94 bd 7c c6 7d bd
       0.01819993 0.016292758 -0.07254911 -0.061956868
0000e0 7d 91 a9 bb be 5a 14 be a6 16 99 3d 39 89 16 be
       -0.0051748143 -0.1448774 0.07475023 -0.14700784
0000f0 a4 2d 66 bb 8a 14 b7 3d e7 3a 66 3d 70 69 e4 3d
       -0.0035122419 0.089394644 0.056208517 0.11152923
000100 8b ea f5 3c 5e fe 80 bd 48 54 88 bd 8e ac ab 3c
       0.030019065 -0.06298517 -0.066567004 0.020956304
000110 bb b0 1e 3a d9 57 c4 bd 5e 05 66 bd 37 1c 92 3d
       0.00060535566 -0.09587068 -0.056157462 0.07134288
000120 01 1a 78 bc 80 e6 49 bd 85 30 c4 3c d1 d8 40 bc
       -0.015142919 -0.049292088 0.023948917 -0.011770443
000130 65 16 9d bd bf 0e 30 bd 9f c2 01 3d e6 5f 0a bd
       -0.07670287 -0.042982813 0.031679746 -0.033782862
000140 4c 02 2b be ca 10 e6 3b 91 8c 83 bd 08 8f c4 3d
       -0.16700095 0.0070210444 -0.06423295 0.095975935
000150 26 36 0a 3e 67 a6 0e 3d 47 c6 a4 3c 8d 77 46 3c
       0.13497218 0.034826662 0.020114077 0.012113464
000160 07 fa b2 bc 05 30 ca 3d 51 62 d3 bd c3 9f 3e bd
       -0.021847738 0.0987244 -0.10321487 -0.04653908
000170 3b 99 ed 3d 4d b4 74 3d 0a b4 0c 3d 30 b3 2a bd
       0.11601492 0.05974226 0.034351386 -0.041674793
000180 b0 f6 30 3d e4 0b 7d 3d a2 53 23 3d c7 15 53 bb
       0.04320401 0.061778918 0.03987468 -0.0032209025
000190 86 50 92 bc cc 72 fc 3d 67 d7 22 3d 9e 0a 4a bd
       -0.017860662 0.12326583 0.039756205 -0.04932653
0001a0 00 78 f7 3b b1 86 e7 3c 69 4c 2c be b2 17 de 3d
       0.007552147 0.028262468 -0.16826023 0.10844363
0001b0 db 12 60 3c db ec 03 3d 64 30 0b be 02 8e 9f bd
       0.0136763705 0.032208305 -0.13592678 -0.07790758
0001c0 60 f0 1e bd e0 43 08 3e c8 14 f5 3d 6a 75 1e 3d
       -0.03880346 0.13307142 0.11966854 0.038686194
0001d0 cc bc fe bd 87 ba 8b 3d 14 77 0e 3e 0a 7f 28 3e
       -0.12438354 0.06822687 0.13912612 0.16454712
0001e0 03 29 95 3c 8b 8a 55 bd 5d ab 0c 3e f2 85 6a bd
       0.018208032 -0.052134078 0.13737245 -0.057256646
0001f0 84 6a 18 3d 66 05 9c bd c0 9a 6f 3d 4b 8f 79 3d
       0.037210956 -0.07618217 0.05849719 0.06092767
000200 e1 17 e3 3c 67 f6 d1 3c 53 8e 31 bd 1d ab 92 bc
       0.027721347 0.02563019 -0.04334862 -0.017903859
000210 04 7d 00 3d 70 c0 07 3e a0 5c 11 3e fa b4 59 3d
       0.031369224 0.13257003 0.1419549 0.05315111
000220 5a 93 82 bd c4 a9 e1 bd c4 62 a6 bb 92 6e 04 be
       -0.06375761 -0.11018708 -0.0050776917 -0.12932804
000230 39 a2 9e 3d f9 2c db 3d fc 4b 1c bd 71 47 d8 3c
       0.07745785 0.10701937 -0.0381584 0.026401253
000240 55 83 17 be 1b bd 94 bd fc 35 99 bd 7b ef b4 bd
       -0.14796193 -0.072626315 -0.07481 -0.0883474
000250 43 ad 97 3d ab 5a 94 3d fd e7 9c 3d 05 c9 98 3c
       0.07406094 0.07243856 0.07661436 0.018650541
000260 1b 52 be bd ab 5f 95 3d f1 01 76 3c df b6 8a bc
       -0.09293004 0.07293638 0.015015111 -0.016932903
000270 f8 12 e6 bd a6 e8 ff 3d ed f4 d3 3d 1b 2c cb 3d
       -0.11234087 0.12495546 0.1034945 0.09920522
000280 63 11 95 bd cf d1 38 bd fc 27 bd 3d 12 b2 1d 3e
       -0.07278707 -0.045121964 0.09236142 0.1539996
000290 33 07 8c bd 70 ac 32 3d f7 64 f6 3c 19 5a 09 be
       -0.06837311 0.04362148 0.03007744 -0.13413276
0002a0 1c 11 af bc 68 fa 7d bd 71 bc 93 bd 41 0e 88 3d
       -0.021370463 -0.062006384 -0.07213677 0.06643344
0002b0 aa a0 05 3e 7b ed 40 3e 92 1a 85 3d 55 8e 3e 3a
       0.1304957 0.18840592 0.064992085 0.0007269134
0002c0 fd 25 b9 3d b5 67 cb bb e7 9f a9 bd d7 a2 e8 bc
       0.09040449 -0.006207431 -0.08282452 -0.02839796
0002d0 8b 62 8c bd 5b 4c 1e 3e e7 45 0e bd 5e 65 2f bc
       -0.06854733 0.15458815 -0.034734633 -0.01070532
0002e0 87 8b b9 3d fb 90 ad 3d 1f 0b f5 bc 74 6e cf bd
       0.09059816 0.084749185 -0.02991253 -0.10128489
0002f0 03 b4 83 3d ba 84 36 3d ad 71 02 3e 04 78 d1 bc
       0.06430819 0.04456017 0.12738676 -0.025569923
000300 3a ed a9 bd 53 6d 90 bd 44 f2 c1 bd c0 d5 f8 bc
       -0.082972005 -0.07052102 -0.094700366 -0.030375361
000310 23 cf 2b 3d 51 f1 be 3d 4a 80 5e bd 30 a0 2f bb
       0.041945588 0.09323371 -0.054321565 -0.002679836
000320 85 41 c4 3c ca 50 5b bd 7b 86 f3 bc 7e 45 3f 3d
       0.023957023 -0.053543843 -0.029727211 0.046697132
000330 df 75 c4 3d 30 77 5c bd d8 97 cc bd 31 88 58 3d
       0.095927946 -0.053824604 -0.099898994 0.052864257
000340 c0 d7 5b bd b0 6e 03 3e 66 40 c1 3d 25 43 73 bc
       -0.053672552 0.12835193 0.09436111 -0.0148475515
000350 b2 d5 87 3d 31 ae e2 3d 1c 1b 01 bd 32 05 f6 3d
       0.06632556 0.110683806 -0.031519994 0.1201271
000360 0d 3a 10 bd cf 07 4e 3d 9e 33 75 3d 9a 2b 87 3d
       -0.03521161 0.050300416 0.05986368 0.06600113
000370 56 ed dd 3d 1b 52 13 3d dd b2 a1 bd 39 b6 84 bd
       0.10836284 0.035966974 -0.078954436 -0.06480069
000380 fe 15 84 bd 82 c6 d8 bd eb 73 05 bc 54 9f 0b 3b
       -0.06449507 -0.10584737 -0.008145313 0.0021304684
000390 a6 0f 8b bd 8b a1 1e 3d 63 a0 b0 3d e5 a2 79 bb
       -0.06790094 0.038728278 0.08624341 -0.0038091477
0003a0 3d 60 88 3c 7e fd ec 3c 83 02 9f 3d 39 73 e0 3d
       0.016647452 0.028929468 0.07764151 0.10959477
0003b0 d3 bd c2 bc 9b 28 e3 3b 3f 5e 9d 3c 29 1b 9e 3d
       -0.023772156 0.006932331 0.01920998 0.07720024
0003c0 0b 7b 9d bc b9 a7 01 3d be 12 48 3d bb 1b 4c 3d
       -0.01922371 0.031654093 0.048846 0.049831133
0003d0 d4 21 02 be b6 14 f6 bd b8 17 5f bc 4e a4 ed 3c
       -0.12708217 -0.12015669 -0.013616495 0.02900901
0003e0 2c 0b aa bc 48 75 a9 3d d9 4f 9a bd 53 cc 93 bc
       -0.02075728 0.08274323 -0.07534761 -0.018041765
0003f0 c9 0f 6b 3d 5e 3a db bd 6f ea 73 bc 23 6f 85 bd
       0.0573881 -0.10704492 -0.014887436 -0.06515338

a2c_network.mu.bias f4 [8]
000000 2c de e7 bd e0 2b a3 bd e4 3c da 3b d9 5c f3 3c
       -0.11321673 -0.07967353 0.0066600908 0.02970736
000010 34 75 8c bd 95 f3 02 3d 71 15 04 be 82 16 b5 bd
       -0.06858292 0.03197058 -0.12898804 -0.08842184

exp_avg f4 [8]
000000 89 b9 9b 3b 0b af be 3b 6a 5d 2f 3a 3d 6b 24 3a
       0.004752342 0.0058192066 0.000668964 0.0006272083
000010 63 93 9c 3b 6d 2c a3 3b 44 2f 35 3b e6 81 0a 3c
       0.004778312 0.004979661 0.002764658 0.008453822

exp_avg_sq f4 [8]
000000 41 f0 22 38 1b dd 76 38 96 9b 33 38 2f 84 4a 38
       3.8847564e-05 5.885689e-05 4.2821826e-05 4.828366e-05
000010 8a 71 30 38 90 16 71 38 35 94 23 38 c5 83 45 38
       4.206741e-05 5.747989e-05 3.9000257e-05 4.709118e-05
