IsaacGymEnvs/runs/Cartpole_11-02-20-21/nn/Cartpole.pth (torch, 28998 bytes, 24 tensors)

value_mean_std.running_mean f8 [1]
6.446683206553006
00000000: 3245 8f52 67c9 1940

value_mean_std.running_var f8 [1]
7.694527303406332
00000000: b03c 592a 32c7 1e40

value_mean_std.count f8 []
1376257.0
00000000: 0000 0000 0100 3541

running_mean_std.running_mean f8 [4]
-0.14303459109749642 -0.055206867926370536 -0.0021671404019726944 -0.014319469782151916
00000000: 01f1 7a1d f54e c2bf d146 8418 1344 acbf
00000010: 8cbf dfa4 d2c0 61bf 3981 48b3 8653 8dbf

running_mean_std.running_var f8 [4]
0.385596803136033 4.2266979879021855 0.043966185222589244 4.32806505904873
00000000: 9354 ba36 9ead d83f 816f 7084 23e8 1040
00000010: 6461 525f bc82 a63f 654c 6e49 f04f 1140

running_mean_std.count f8 []
688129.0
00000000: 0000 0000 0200 2541

a2c_network.actor_mlp.0.weight f4 [32, 4]
-0.24910761 -0.015070855 -0.3199618 0.07435392 0.4003132 -0.3185667 0.5259065 0.12285939
0.24835971 0.07515758 0.3215445 -0.13272603 0.26610214 -0.11491954 -0.14978416 0.18544817
-0.3656527 -0.020417431 -0.2948077 0.11676263 -0.3689736 0.08092276 -0.04757905 -0.18842533
0.13860238 -0.46960494 0.383946 -0.30316627 0.44304356 0.011870926 -0.20412268 0.14352722
-0.013342859 0.39576954 0.06976536 -0.3396829 -0.0027537409 -0.2207846 0.3788012 0.4823114
0.22471286 -0.20790942 0.3926713 0.13916337 0.35151744 0.026497394 -0.60744554 -0.10416686
-0.5901279 0.3498461 0.40574503 -0.047482446 0.11832419 0.04040413 0.33957317 -0.35540938
0.0683267 -0.266116 -0.06762673 -0.15595558 0.016969085 -0.09405307 0.48299587 -0.16401882
-0.61261666 -0.23038344 0.7214719 0.23190536 0.57010233 -0.0017890059 -0.7431044 -0.2585891
-0.48762143 0.12180017 0.42802438 0.2618092 -0.40421724 -0.13064574 0.62764615 0.11725446
0.44202667 -0.10948989 0.20268153 -0.16737221 -0.14274809 0.2912508 -0.0013277755 -0.29773948
0.40704155 0.4867493 -0.5618697 -0.42852634 0.5513206 0.2550479 -0.49502072 -0.34210306
-0.23509498 0.37444338 0.028083483 -0.37368736 0.05082878 -0.064640746 -0.47764662 -0.2085292
-0.73372304 -0.23508169 0.53999466 0.08895542 0.6711246 0.048829306 -0.61448264 -0.055875644
-0.053028405 -0.31447977 -0.32272008 -0.255128 0.46969336 0.062085725 -0.43519852 -0.2126524
-0.42300135 0.0043045436 -0.24928017 -0.32188526 0.39277756 -0.14005576 0.5324237 0.10831772
00000000: 1116 7fbe bfeb 76bc 08d2 a3be de46 983d
00000010: daf5 cc3e 2d1b a3be cfa1 063f b49d fb3d
00000020: 0252 7e3e 38ec 993d 7ba1 a43e 55e9 07be
00000030: 8a3e 883e f05a ebbd 0561 19be 20e6 3d3e
00000040: d536 bbbe 7542 a7bc 09f1 96be 3f21 ef3d
00000050: 1cea bcbe d5ba a53d 40e2 42bd 92f2 40be
00000060: c8ed 0d3e 0f70 f0be 9294 c43e 9c38 9bbe
00000070: 9bd6 e23e 467e 423c 8905 51be cdf8 123e
00000080: 029c 5abc 4ea2 ca3e 24e1 8e3d ebea adbe
00000090: 1b78 34bb 5c15 62be 3bf2 c13e 85f1 f63e
000000a0: 211b 663e 35e6 54be 360c c93e d880 0e3e
000000b0: 18fa b33e 1011 d93c 8d81 1bbf 6f55 d5bd
000000c0: 9f12 17bf 071f b33e d0bd cf3e f47c 42bd
000000d0: f453 f23d cd7e 253d 89dc ad3e 38f8 b5be
000000e0: deee 8b3d 5b40 88be e27f 8abd d2b2 1fbe
000000f0: c002 8b3c e59e c0bd 3c4b f73e 8df4 27be
00000100: 72d4 1cbf a3e9 6bbe 62b2 383f 9978 6d3e
00000110: 3af2 113f 147d eaba 173c 3ebf ca65 84be
00000120: 84a9 f9be 5e72 f93d 0326 db3e db0b 863e
00000130: 90f5 cebe ffc7 05be 6bad 203f 1b23 f03d
00000140: 5251 e23e 3c3c e0bd bf8b 4f3e 9f63 2bbe
00000150: 8e2c 12be d31e 953e c108 aeba 4f71 98be
00000160: c067 d03e 3437 f93e b1d6 0fbf ce67 dbbe
00000170: 5923 0d3f a395 823e 5b73 fdbe 2228 afbe
00000180: bdbc 70be 0bb7 bf3e 550f e63c f353 bfbe
00000190: d731 503d 5e62 84bd 198e f4be ae88 55be
000001a0: 46d5 3bbf 41b9 70be 173d 0a3f 422e b63d
000001b0: d2ce 2b3f 3d01 483d bc4e 1dbf dcdd 64bd
000001c0: 5034 59bd 7e03 a1be 913b a5be 23a0 82be
000001d0: a67b f03e 9a4d 7e3d 57d2 debe 8dc1 59be
000001e0: a293 d8be 210d 8d3b 4d43 7fbe 25ce a4be
000001f0: 241a c93e c76a 0fbe eb4c 083f aed5 dd3d

a2c_network.actor_mlp.0.bias f4 [32]
-0.06989384 -0.15536442 -0.14131095 -0.20767349 -0.054682508 -0.09409977 0.06254891 -0.1544035
-0.03719505 -0.14218129 -0.16069835 -0.1085088 -0.0583621 0.015910514 0.08737639 0.10005021
-0.14950843 -0.124788776 -0.13989417 0.033451285 0.05916072 0.08357013 -0.10546416 -0.060943734
0.07702223 -0.05398656 0.21186022 0.0019791913 -0.09744398 0.10345496 -0.074170426 -0.1558045
00000000: 8024 8fbd da17 1fbe d1b3 10be 5ca8 54be
00000010: c4fa 5fbd 61b7 c0bd a519 803d f31b 1ebe
00000020: d659 18bd f997 11be 1c8e 24be dd39 debd
00000030: 190d 6fbd c456 823c 65f2 b23d 20e7 cc3d
00000040: bd18 19be 4291 ffbd 6b40 0fbe 3704 093d
00000050: 8352 723d d126 ab3d 98fd d7bd 23a0 79bd
00000060: d5bd 9d3d 0321 5dbd e3f1 583e 52b5 013b
00000070: b690 c7bd 32e0 d33d aae6 97bd 378b 1fbe

a2c_network.actor_mlp.2.weight f4 [32, 32]
0.0456557 0.008028674 -0.002976403 0.14916585 0.037155136 -0.03423639 -0.12624723 -0.018851683
0.26363847 -0.06358022 -0.08049024 0.035271995 -0.10339457 0.007281736 0.083394416 -0.22270337
-0.013465933 0.1560963 0.0047952794 -0.12068319 0.019582367 0.14990452 0.20595938 -0.0482231
0.086737506 0.082323104 -0.27876705 -0.022413652 0.1582608 0.19781575 0.01793278 0.013012915
-0.070355356 0.12949066 0.099046774 0.13145742 -0.19177368 -0.18696055 0.22326647 0.12418434
-0.2580597 0.07524406 0.033060703 -0.2911454 -0.16571613 0.036657784 0.13738655 0.071997866
-0.28656754 -0.14068824 -0.010033777 0.19292034 0.07791462 -0.23042797 -0.23978697 -0.08031038
-0.43377823 0.06626958 -0.17481941 0.007346951 -0.16356474 0.06915947 0.046880472 0.1976616
-0.12540448 -0.16620603 -0.1482923 0.20497558 0.09714349 0.10322576 0.16291071 0.10764242
-0.1626224 -0.13988373 -0.123511806 -0.13551119 -0.06171759 -0.048752252 0.0686859 -0.073435344
-0.23207322 -0.0142681785 -0.19928733 -0.07826471 0.0597017 -0.033966098 -0.22167274 0.022227429
-0.20581733 -0.058333147 -0.28553453 0.053938095 0.16918688 -0.052598212 0.088534966 0.0853795
0.06957624 -0.106318414 0.21806927 -0.064857945 0.016598362 0.21288335 -0.050729483 -0.010557804
0.17078093 -0.1903297 0.104446515 -0.06562071 0.12815943 0.11210327 0.11248203 -0.08728361
-0.22582582 0.11715376 0.048616618 -0.27218834 -0.083233 -0.052606884 0.15567195 -0.067818515
0.07750923 0.0051043755 -0.45616847 0.17049107 0.18569031 0.026136674 -0.0047909515 -0.027501257
-0.19636343 -0.3038753 0.017358148 -0.13022916 -0.16234583 -0.052497674 0.061001197 -0.12126235
0.0004478267 -0.15704572 -0.14641418 -0.16004382 -0.15339442 0.29858968 -0.013560771 0.1693699
-0.1629418 -0.011140009 0.104691744 0.04021089 -0.032841336 -0.0016186115 0.095900536 0.20234372
0.094975725 0.052180212 -0.10576036 0.023964545 -0.21399246 -0.01646753 0.07329628 -0.018097451
-0.14781949 -0.11993518 -0.10044901 -0.26450765 -0.10376638 0.043862294 0.115290575 -0.035104312
-0.099747315 -0.15425673 0.09217686 -0.103905514 -0.018049471 0.058716167 -0.080111906 -0.017912276
-0.015705023 -0.046659432 -0.124280326 -0.1351858 -0.21745643 0.006562672 0.22135937 -0.213923
0.033843182 0.102319725 -0.048002735 0.08347872 0.18325467 0.12887657 -0.103540786 0.05304772
0.25743914 -0.017958464 -0.15680246 0.2126205 0.08055732 -0.14674443 -0.15657575 0.06181032
-0.05496596 0.080828205 0.024022253 -0.060052164 -0.22408754 -0.127949 0.18757628 -0.005535762
-0.24758048 0.08674716 -0.12640978 0.00065119175 -0.023580724 0.075546555 0.038410846 -0.07757601
0.02830671 -0.053908892 0.11044117 0.29292718 0.08062927 0.20965692 -0.15868321 -0.07331108
0.07682975 -0.041877363 -0.08408469 -0.026642723 0.10406353 0.01647736 0.13628462 -0.112425566
-0.33306974 0.05970977 0.04970917 -0.17354545 -0.12139559 0.15483227 0.07029382 0.069860935
-0.19392926 -0.16594137 -0.18077065 -0.18067941 0.011061087 -0.10910483 -0.3701843 -0.08543014
-0.0452632 0.045519385 -0.05224006 -0.049870048 -0.026152624 -0.00046147036 -0.14551537 -0.11855085
00000000: 7901 3b3d b38a 033c c20f 43bb efbe 183e
00000010: fc2f 183d 753b 0cbd f446 01be d86e 9abc
00000020: 9ffb 863e 5936 82bd 11d8 a4bd 5e79 103d
00000030: 88c0 d3bd a19b ee3b b1ca aa3d 5a0c 64be
00000040: 37a0 5cbc b5d7 1f3e b821 9d3b c028 f7bd
00000050: 336b a03c 9280 193e 04e7 523e 9685 45bd
00000060: 6fa3 b13d 0499 a83d 8eba 8ebe d69c b7bc
00000070: 1f0f 223e 3690 4a3e c4e7 923c 1f34 553c
00000080: 7816 90bd 3399 043e 09d9 ca3d c69c 063e
00000090: 5260 44be 9672 3fbe f79f 643e 5c54 fe3d
000000a0: 6720 84be 8f19 9a3d a96a 073d 0311 95be
000000b0: 7db1 29be 7926 163d 0faf 0c3e 9e73 933d
000000c0: fbb8 92be 9410 10be b664 24bc e98c 453e
000000d0: b391 9f3d 4ff5 6bbe b78a 75be c579 a4bd
000000e0: 2e18 debe 58b8 873d dc03 33be b1be f03b
000000f0: 847d 27be 7ba3 8d3d bd05 403d cd67 4a3e
00000100: 086a 00be ea31 2abe f0d9 17be 1ee5 513e
00000110: 2bf3 c63d 0768 d33d 11d2 263e a173 dc3d
00000120: 7d86 26be ae3d 0fbe c2f3 fcbd 72c3 0abe
00000130: 95cb 7cbd 71b0 47bd 31ab 8c3d 4565 96bd
00000140: 9aa4 6dbe 14c5 69bc fa11 4cbe 4049 a0bd
00000150: c589 743d 0920 0bbd 2efe 62be 4c16 b63c
00000160: c7c1 52be bdee 6ebd 9531 92be 31ee 5c3d
00000170: 533f 2d3e 3971 57bd d251 b53d 73db ae3d
00000180: fd7d 8e3d 78bd d9bd 8d4d 5f3e 3ed4 84bd
00000190: 4af9 873c 18fe 593e b8c9 4fbd a4fa 2cbc
000001a0: 32e1 2e3e cae5 42be 0ee8 d53d 2764 86bd
000001b0: 3a3c 033e 6696 e53d fb5c e63d c0c1 b2bd
000001c0: e23e 67be 4fee ef3d 3822 473d 455c 8bbe
000001d0: 1076 aabd 517a 57bd 7868 1f3e 6fe4 8abd
000001e0: 29bd 9e3d 9b42 a73b ea8e e9be 3695 2e3e
000001f0: 9a25 3e3e 941c d63c 6afd 9cbb 514a e1bc
00000200: 7f13 49be 8b95 9bbe ad32 8e3c cb5a 05be
00000210: fc3d 26be cd07 57bd 64dc 793d 6558 f8bd
00000220: 48ca ea39 98d0 20be 99ed 15be 87e2 23be
00000230: 6d13 1dbe bfe0 983e ff2d 5ebc 4e6f 2d3e
00000240: 37da 26be 9684 36bc a068 d63d 2db4 243d
00000250: a384 06bd 9727 d4ba 8067 c43d 3133 4f3e
00000260: a282 c23d ebba 553d e398 d8bd 4b51 c43c
00000270: d720 5bbe eae6 86bc 5c1c 963d 1b41 94bc
00000280: fe5d 17be 93a0 f5bd 36b8 cdbd 8c6d 87be
00000290: 7883 d4bd f3a8 333d 771d ec3d 8ac9 0fbd
000002a0: 5248 ccbd 7af5 1dbe 39c7 bc3d 6acc d4bd
000002b0: 7cdc 93bc 5d80 703d b611 a4bd c4bc 92bc
000002c0: d2a7 80bc f61d 3fbd af86 febd 256e 0abe
000002d0: e6ac 5ebe af0b d73b 08ac 623e a20e 5bbe
000002e0: 269f 0a3d 018d d13d 849e 44bd e4f6 aa3d
000002f0: 1da7 3b3e 38f8 033e 310d d4bd 9148 593d
00000300: 10cf 833e a11d 93bc d390 20be 30b9 593e
00000310: 3cfb a43d 2c44 16be 6555 20be d12c 7d3d
00000320: fd23 61bd 4289 a53d 51ca c43c 42f9 75bd
00000330: 3477 65be 1005 03be ff13 403e 5665 b5bb
00000340: bd85 7dbe 7fa8 b13d 9171 01be bdb4 2a3a
00000350: 5d2c c1bc 27b8 9a3d b154 1d3d 2ce0 9ebd
00000360: 79e3 e73c 92cf 5cbd fb2e e23d 8dfa 953e
00000370: f520 a53d 4eb0 563e da7d 22be 1f24 96bd
00000380: ea58 9d3d 9987 2bbd 9834 acbd d741 dabc
00000390: 431f d53d 87fb 863c 328e 0b3e 603f e6bd
000003a0: 1e88 aabe 3b92 743d d89b 4b3d e6b5 31be
000003b0: 409e f8bd 5a8c 1e3e 35f6 8f3d 4013 8f3d
000003c0: 6495 46be 89ec 29be f11b 39be 0604 39be
000003d0: 9039 353c 5a72 dfbd cc88 bdbe fff5 aebd
000003e0: e865 39bd 8972 3a3d acf9 55bd 8944 4cbd
000003f0: 073e d6bc 81f1 f1b9 fb01 15be caca f2bd

a2c_network.actor_mlp.2.bias f4 [32]
-0.17887685 0.08546745 0.1429921 -0.19484755 0.099796765 -0.12785253 0.1689223 0.13515094
0.124516815 -0.1707034 0.11542958 0.0022551287 0.101301566 0.08959235 0.13453384 -0.12712908
-0.15638039 0.11134127 -0.03188938 0.1071486 -0.17011103 0.10029769 0.094179966 -0.120894425
0.075325504 0.032433163 -0.14274004 -0.08702882 -0.17587715 -0.019930119 -0.33170587 -0.20247325
00000000: 7e2b 37be 8f09 af3d 856c 123e 1e86 47be
00000010: 3f62 cc3d c6eb 02be f8f9 2c3e 0265 0a3e
00000020: ac02 ff3d dfcc 2ebe 5866 ec3d c8ca 133b
00000030: 3277 cf3d 327c b73d 3dc3 093e 202e 02be
00000040: 2e22 20be e406 e43d 709e 02bd ba70 db3d
00000050: 9631 2ebe e068 cd3d 6de1 c03d 7f97 f7bd
00000060: 4244 9a3d a3d8 043d 722a 12be 2a3c b2bd
00000070: 2419 34be 7d44 a3bc 5ad5 a9be 2655 4fbe

a2c_network.value.weight f4 [1, 32]
-0.065006785 0.11063 0.06556623 -0.105018064 -0.08742844 -0.023094853 0.16496386 0.15554863
0.03266284 -0.08587559 0.09569592 0.009668025 0.055293627 0.04650129 0.08996597 0.051275827
0.041052483 -0.030346356 0.034565113 0.2584505 -0.08252895 -0.0040609366 -0.021684885 -0.07175061
0.113446735 -0.026753733 -0.06326274 0.056218307 -0.041456483 -0.00721531 0.011955453 -0.11406639
00000000: 4722 85bd fb91 e23d 9647 863d b613 d7bd
00000010: af0d b3bd 6b31 bdbc 49ec 283e 2448 1f3e
00000020: 78c9 053d 8bdf afbd 39fc c33d a366 1e3c
00000030: 927b 623d 2378 3e3d 1440 b83d 9a06 523d
00000040: a626 283d ec98 f8bc 2694 0d3d a053 843e
00000050: f004 a9bd 9b11 85bb 80a4 b1bc fcf1 92bd
00000060: c356 e83d a52a dbbc e58f 81bd 2b45 663d
00000070: 46ce 29bd 686e ecbb cee0 433c a49b e9bd

a2c_network.mu.weight f4 [1, 32]
-0.041674044 -0.14263368 0.010617721 -0.023326587 0.19008458 0.027075415 -0.077907465 -0.21509299
0.053472724 -0.07361894 -0.2588338 0.20556529 -0.10430941 -0.45744058 0.30836722 -0.14430395
0.09905067 0.04837256 -0.0077088317 -0.101635285 -0.00032878568 -0.0034386355 0.086350754 0.14363958
0.11124327 0.03989557 0.087440126 -0.34238836 -0.025540596 0.0010160381 -0.34626156 -0.34652427
00000000: 67b2 2abd 900e 12be f3f5 2d3c 6617 bfbc
00000010: 88a5 423e 43cd dd3c f38d 9fbd 5641 5cbe
00000020: 3706 5b3d 87c5 96bd dd85 84be b57f 523e
00000030: 2ca0 d5bd a735 eabe 4fe2 9d3e 6ac4 13be
00000040: 14db ca3d 4e22 463d 5e9a fcbb 2926 d0bd
00000050: de60 acb9 bb5a 61bb aad8 b03d 4116 133e
00000060: 83d3 e33d 8a69 233d cf13 b33d 874d afbe
00000070: 833a d1bc 952c 853a 3249 b1be a16b b1be

exp_avg f4 [32, 4]
0.00047646972 0.00020631508 1.5329042e-05 0.0005150853 -0.00020545168 -0.0007833431 -0.00025734594 -0.00094514294
0.00039515446 0.0002519836 0.00018796916 -7.095617e-05 -0.0006545319 -0.00019085962 -0.00053488725 3.8085396e-05
0.0004607124 0.00020849761 7.498748e-05 0.00043755028 -0.0001505434 0.00021158006 0.0003221739 -0.00029106572
-0.00058055716 -0.0009767439 -0.0002978973 -0.00089848746 -0.0004032036 0.00052172045 -0.0003355918 0.0007358925
0.0011396847 0.0014692481 0.0011896956 0.00057025015 0.0005907092 0.00075729284 -0.00039621812 0.0010087645
-0.00017784577 -0.000889049 -0.00040797572 -0.0010467737 2.9606672e-05 0.00074495433 0.00018567925 0.0007579527
0.00086693047 -4.476933e-05 0.000756581 -0.00096624094 0.0003260163 0.0011551501 0.00052343635 0.0007978209
-0.00056773494 0.00046772644 -0.00018282013 0.00082630944 -0.00023285548 0.0008945696 0.00016155295 0.0009245335
0.000926005 -0.000503359 0.0010124824 -0.0020131264 -0.00018468601 0.002225558 8.003225e-05 0.002786474
0.0012455027 -0.00021572199 0.000545322 -0.00096307194 -0.00024434933 -0.00041268364 -3.575671e-05 -0.000523188
-0.0013378303 -0.0015205869 -0.0006725848 -0.0013532371 0.0009979476 0.0013128199 0.0010292832 0.00090598094
0.0007706236 0.0019496413 0.0011119193 0.0014689389 0.00032381597 0.0021236953 0.00044377332 0.0025438792
0.0016136437 0.0021786822 0.0017437291 0.0012113152 -0.00036892176 0.00047352372 4.4628356e-05 0.00050064933
0.0006121918 -0.00043656927 0.00044916253 -0.0008736448 -0.0013199274 -0.0002595834 -0.00063862064 0.0002280505
0.00023702088 -0.0008869707 -3.5481567e-05 -0.0008375294 -0.000679209 0.00035412738 -0.000102304155 0.00066361343
0.00021380611 0.0026634103 0.0005067265 0.0026767894 -0.00040796405 -0.00038793392 -0.00031126445 -0.00038966068
00000000: afce f939 4856 5839 de96 8037 ca06 073a
00000010: 846e 57b9 4459 4dba 63ec 86b9 78c3 77ba
00000020: bc2c cf39 ab1c 8439 9619 4539 4ece 94b8
00000030: e494 2bba 7d21 48b9 ad37 0cba e2bd 1f38
00000040: c68b f139 27a0 5a39 9942 9d38 0167 e539
00000050: 30db 1db9 97db 5d39 73e9 a839 2e9a 98b9
00000060: 8830 18ba 1606 80ba 192f 9cb9 7988 6bba
00000070: 1265 d3b9 11c4 083a 5ef2 afb9 e9e8 403a
00000080: 7961 953a c993 c03a 8fef 9b3a d77c 153a
00000090: d3d9 1a3a 1085 463a 7fbb cfb9 8538 843a
000000a0: 1c7c 3ab9 120f 69ba 93e5 d5b9 e633 89ba
000000b0: d85b f837 0a49 433a e5b2 4239 58b1 463a
000000c0: b842 633a b4c6 3bb8 4b55 463a 554b 7dba
000000d0: 2bed aa39 6868 973a 3837 093a db24 513a
000000e0: 0cd4 14ba 2e39 f539 68b3 3fb9 b09c 583a
000000f0: ab2a 74b9 8d81 6a3a 8a66 2939 655c 723a
00000100: 25bf 723a daf3 03ba 46b5 843a a8ee 03bb
00000110: 46a8 41b9 abda 113b fdd6 a738 479d 363b
00000120: 2340 a33a 6e33 62b9 f1f3 0e3a aa76 7cba
00000130: 031c 80b9 765d d8b9 7af9 15b8 8d26 09ba
00000140: 235a afba 6e4e c7ba 6750 30ba 1a5f b1ba
00000150: 91cd 823a ed12 ac3a 03e9 863a 5a7f 6d3a
00000160: ad03 4a3a 1b8b ff3a d2bd 913a 6989 c03a
00000170: d8c5 a939 b22d 0b3b 3faa e839 36b7 263b
00000180: e680 d33a 39c8 0e3b d78d e43a fec4 9e3a
00000190: d76b c1b9 4743 f839 552f 3b38 023e 033a
000001a0: 7f7b 203a 56e3 e4b9 937d eb39 4f05 65ba
000001b0: 6a01 adba b218 88b9 1b69 27ba d720 6f39
000001c0: cf88 7839 9983 68ba 0bd2 14b8 a68d 5bba
000001d0: f20c 32ba 2caa b939 208c d6b8 58f6 2d3a
000001e0: 2431 6039 9c8c 2e3b d7d5 043a 136d 2f3b
000001f0: 02e4 d5b9 9c63 cbb9 3531 a3b9 5f4b ccb9

exp_avg_sq f4 [32, 4]
3.3855875e-05 1.7091095e-05 1.8839684e-05 1.6225555e-05 0.00013390655 0.00025072644 8.472524e-05 0.00021572741
8.337573e-05 0.00013246993 3.476334e-05 0.00011337598 6.921691e-05 4.511302e-05 1.34717275e-05 5.038586e-05
2.6653172e-05 2.6898117e-05 1.2437791e-05 2.6393209e-05 0.000105866726 0.00010997161 5.386073e-05 9.476067e-05
5.999113e-05 4.4222263e-05 2.8865154e-05 3.9960603e-05 6.5030275e-05 7.983885e-05 2.548285e-05 6.759321e-05
0.00012783526 0.00018282545 4.720791e-05 0.0001539173 0.00016609476 0.0002738089 6.2766994e-05 0.00025755537
0.00012828321 0.0001699327 4.3454045e-05 0.00016187456 0.00016766989 0.0001707021 7.4290896e-05 0.000143801
4.3052376e-05 6.794727e-05 1.5361407e-05 6.5253946e-05 1.5564401e-05 1.26652685e-05 9.821585e-06 9.378604e-06
6.208803e-05 4.5052948e-05 2.3515548e-05 3.8256392e-05 6.6638786e-05 3.0325242e-05 1.3603802e-05 3.199857e-05
0.00042093455 0.0005579332 0.00017567506 0.00052636716 0.00015784772 0.00016079273 5.8326306e-05 0.00015149363
8.924118e-05 0.000157536 4.502428e-05 0.00014286155 7.4458935e-06 5.2162222e-06 9.1436925e-07 5.578425e-06
8.817546e-05 7.010336e-05 2.751448e-05 5.465453e-05 0.00010792339 8.4686086e-05 1.2929519e-05 9.2432194e-05
0.00035091376 0.0004305117 0.00011138941 0.00039751065 0.00014375841 0.00016322009 2.3025052e-05 0.00017157271
0.00018368693 0.00021183671 5.417602e-05 0.00019673842 0.00010879712 8.9081695e-05 5.466607e-05 6.8065645e-05
4.7448215e-05 3.863398e-05 1.074255e-05 3.8457783e-05 4.6639765e-05 5.7550817e-05 6.8316735e-06 6.226659e-05
5.8767993e-05 3.487827e-05 4.6212077e-05 2.7919907e-05 2.8011409e-05 4.3820794e-05 4.700104e-06 4.589045e-05
0.00018911622 0.0001821304 8.063257e-05 0.00016844495 8.43673e-05 0.00019126803 6.124593e-05 0.00015868584
00000000: 7800 0e38 d95e 8f37 ea09 9e37 1d1c 8837
00000010: 4469 0c39 ef73 8339 84ae b138 e334 6239
00000020: 01da ae38 a0e7 0a39 dace 1138 44c4 ed38
00000030: 8c28 9138 bd37 3d38 a104 6237 6855 5338
00000040: 4095 df37 44a3 e137 e8ab 5037 fc66 dd37
00000050: c404 de38 8fa0 e638 85e8 6138 3fba c638
00000060: fc9e 7b38 4b7b 3938 7223 f237 5f9b 2738
00000070: dd60 8838 286f a738 01c4 d537 d4c0 8d38
00000080: 840b 0639 d5b4 3f39 1b01 4638 dc64 2139
00000090: b929 2e39 028e 8f39 c6a1 8338 7f08 8739
000000a0: c383 0639 f62f 3239 6d42 3638 dfbc 2939
000000b0: 8bd0 2f39 7ffe 3239 9fcc 9b38 49c9 1639
000000c0: 2393 3438 ea7e 8e38 5fdc 8037 f2d8 8838
000000d0: 4c90 8237 ea7c 5437 63c7 2437 cc58 1d37
000000e0: 4235 8238 3cf7 3c38 4143 c537 7d75 2038
000000f0: 6dc0 8b38 f662 fe37 e23b 6437 3436 0638
00000100: e1b0 dc39 4342 123a 6a35 3839 e7fb 093a
00000110: ed83 2539 789a 2839 65a3 7438 43da 1e39
00000120: fe26 bb38 3f30 2539 74d8 3c38 1bcd 1539
00000130: bdd7 f936 0207 af36 fa72 7535 4e2e bb36
00000140: d7ea b838 7404 9338 e5ce e637 db3c 6538
00000150: ee54 e238 7f99 b138 dceb 5837 28d8 c138
00000160: d9fa b739 4db6 e139 bc99 e938 fa68 d039
00000170: dbbd 1639 0f26 2b39 ec25 c137 33e8 3339
00000180: 169c 4039 7c20 5e39 0f3b 6338 914b 4e39
00000190: 022a e438 5fd1 ba38 3f49 6538 77be 8e38
000001a0: 2203 4738 ec0a 2238 e73a 3437 bb4d 2138
000001b0: 119f 4338 b862 7138 a13b e536 1f95 8238
000001c0: a77d 7638 424a 1238 d7d3 4138 8b35 ea37
000001d0: 0bfa ea37 38cc 3738 96b5 9d36 7f7a 4038
000001e0: 804d 4639 42fa 3e39 4819 a938 99a0 3039
000001f0: 59ee b038 1f8f 4839 2971 8038 e864 2639

exp_avg f4 [32]
0.00028323705 -0.0003601523 -0.0010223071 0.0005199016 0.00021011758 -0.00040809365 0.001045742 -3.4284672e-05
-0.0019461836 -0.0020275493 -0.00080313574 1.8653369e-05 -0.0017534511 -0.00029003102 0.0015072906 0.00039016685
-0.0032340405 0.00055013504 -0.0027862303 6.519862e-05 0.0015410089 -0.00048317944 -0.000689053 0.00041158902
-0.0017554064 0.0009206942 -0.00093077554 0.0016302745 -2.069658e-05 0.0016978403 -0.00027047074 -0.00024744598
00000000: 6f7f 9439 d3d2 bcb9 effe 85ba 014a 083a
00000010: 0253 5c39 67f5 d5b9 4711 893a e3cc 0fb8
00000020: 1617 ffba a2e0 04bb 8789 52ba ce79 9c37
00000030: 0ed4 e5ba 4e0f 98b9 4890 c53a 4f8f cc39
00000040: 32f2 53bb f036 103a 3099 36bb 3ebb 8838
00000050: aefb c93a 3f53 fdb9 90a1 34ba 8bca d739
00000060: aa15 e6ba be5a 713a 4aff 73ba efae d53a
00000070: 919d adb7 118a de3a f8cd 8db9 a3bb 81b9

exp_avg_sq f4 [32]
7.4905416e-05 0.00072335964 0.00042325395 0.00017428162 0.00013823413 0.00058448536 0.00023537375 0.00021144352
0.0006442194 0.0007654167 0.00053099875 0.00068135525 0.00040034432 5.2450006e-05 0.00019657213 0.00015614215
0.0032383585 0.0007085434 0.00064975215 4.7699144e-05 0.00030804746 0.00036786345 0.0017917973 0.0007253824
0.000900668 0.00035702737 0.00033875383 0.00035744737 0.00015538059 0.00022149686 0.000791094 0.00046122374
00000000: 8a16 9d38 d89f 3d3a 2fe8 dd39 5ebf 3639
00000010: f1f2 1039 2638 193a a9ce 7639 f0b6 5d39
00000020: d5e0 283a 3fa6 483a b932 0b3a fa9c 323a
00000030: 4ee5 d139 c4fd 5b38 ee1e 4e39 17ba 2339
00000040: a43a 543b 8bbd 393a 2154 2a3a 9110 4838
00000050: 6e81 a139 ccdd c039 beda ea3a 9727 3e3a
00000060: ce1a 6c3a 672f bb39 c59a b139 c667 bb39
00000070: a9ed 2239 9c41 6839 6b61 4f3a 67d0 f139

exp_avg f4 [32, 32]
-5.2217365e-05 0.00018581885 0.00018152781 7.075071e-05 -7.5593714e-05 7.066486e-05 3.0940162e-05 9.318685e-05
0.00012250619 -1.1911464e-05 0.00013799024 2.8457293e-05 2.8150398e-05 0.00012489184 -2.1098043e-05 5.9806018e-05
5.0430855e-05 4.5296467e-05 -3.5969002e-05 -4.3748045e-07 8.068333e-05 2.7131893e-05 0.00012529168 0.000108774606
4.5779092e-05 1.4473699e-05 -0.00013204142 3.5288118e-05 3.2649525e-05 -6.948683e-06 7.594634e-05 0.00021742261
0.00024525748 -0.00068058976 -0.0005862159 -0.000432584 0.00031241396 0.00030789102 0.0012520306 -0.00056611694
-0.00023667577 -0.0004003329 -0.0005654175 -6.781526e-05 -0.00013954644 0.00013916737 0.00076149683 0.00016971967
-5.798529e-05 6.990739e-05 -0.00025959424 0.00010111503 -5.8325542e-05 0.00019160722 -0.0003553388 -0.00029104843
0.00023150686 0.00053734076 0.00089187146 -0.00031745888 0.0011123855 0.0001328109 0.0007751561 -0.00087257766
6.2082974e-05 -0.00024299508 -0.00023640088 -8.878595e-05 7.90387e-05 -7.9661826e-05 0.00016501386 -0.00012266646
-0.00016451765 -1.6406514e-06 -0.00018351768 -8.251361e-06 -0.00010160906 -9.94277e-05 0.000120551216 -4.1939395e-05
-9.6395146e-05 9.337134e-06 -1.483945e-05 -2.062181e-05 -5.6157594e-05 -3.5693192e-05 -0.00014870339 -0.000113758586
-6.090142e-05 5.1649757e-05 0.00016510056 -3.488121e-05 0.00011530224 5.149521e-05 -4.0872095e-05 -0.00030418608
-8.7453525e-05 0.0002760275 0.00027219942 0.000116032636 -0.00011527836 4.8321046e-05 -0.00018551992 0.0001626706
0.00018305484 2.7343398e-05 0.0002128969 1.6633789e-05 9.281453e-05 0.00010988076 -0.000148212 4.2290783e-05
7.85933e-05 9.5038894e-07 1.5179291e-05 4.576425e-06 7.628164e-05 2.5652978e-05 0.00018103726 0.00014306989
4.7643647e-05 -7.67736e-05 -0.00023439416 6.2443665e-05 -0.0001553965 -4.232789e-05 -1.46336515e-05 0.0003478061
-0.0001345914 0.0002998408 0.0002825108 0.0001479558 -0.000115780305 -0.00017281223 -0.0014984757 0.00020468696
0.0001661395 0.00015245905 0.00026745416 -0.00011121341 0.0003364672 -0.00029487046 -0.00074086123 -0.00017782212
0.00018911215 -0.00034936183 0.0003184815 7.29533e-05 -0.00017055393 -4.9649516e-05 0.00011071797 1.45501945e-05
-5.4033433e-05 -0.00056234444 -0.00034152766 6.847998e-05 -0.0012385973 -0.00024675985 -0.0005885016 0.00046581528
-1.7576465e-05 6.1656734e-05 6.6791865e-05 4.3503514e-05 -1.552002e-05 -2.5120004e-05 -0.0002768372 6.07549e-05
4.7248624e-05 5.0173552e-05 5.852621e-05 -1.748835e-05 8.563749e-05 -5.2699677e-05 -0.00015235887 -4.42584e-05
4.0516534e-05 -6.308422e-05 8.251782e-05 9.5732175e-06 -3.8881462e-05 -7.780975e-06 3.9377417e-05 1.1139866e-05
-4.8304505e-06 -0.00010534002 -8.8042936e-05 1.3822375e-05 -0.0002225679 -5.530029e-05 -0.0001054925 0.00010200681
0.00021075131 -0.0007012646 -0.00065251364 -0.00028575532 0.0002582542 -9.3954266e-05 0.00092326244 -0.0003601029
-0.00040039886 -1.3423006e-05 -0.00054131215 -4.0479863e-05 -0.00023480906 -0.000119186465 0.0005125139 -2.9730065e-05
-0.00024136594 6.0786362e-05 -5.8053418e-05 -2.1887605e-05 -0.00010701992 -2.2453522e-05 -0.00039951224 -0.0003113119
-6.2033956e-05 0.0002875052 0.0005726847 -0.00016252433 0.00069778727 0.00015881614 0.00014131924 -0.0008686018
0.00022217126 -0.0006022088 -0.00056028226 -0.00026430158 0.00022508703 0.00010866822 0.001810478 -0.00034536864
-0.00033456643 -0.00013499864 -0.0004972263 8.339215e-05 -0.0004143004 0.000215561 0.0009149471 0.00014577758
-0.0002945 0.0003504937 -0.00031218774 -8.2832936e-05 0.000108418964 3.5285848e-05 -0.00028049736 -0.00015355431
2.0916566e-05 0.00064786454 0.00056671357 -0.00013389511 0.0014628269 0.0003037797 0.0005987367 -0.0008277137
00000000: f803 5bb8 5ed8 4239 8058 3e39 0060 9438
00000010: 1188 9eb8 e831 9438 bfc5 0138 4f6d c338
00000020: 0175 0039 59d7 47b7 79b1 1039 92b7 ee37
00000030: 8524 ec37 66f5 0239 b4fb b0b7 39d8 7a38
00000040: b885 5338 b6fc 3d38 6cdd 16b8 dbde eab4
00000050: 8834 a938 4c99 e337 bb60 0339 ec1d e438
00000060: ed02 4038 10d4 7237 9974 0ab9 5402 1438
00000070: 29f1 0838 bc28 e9b6 6145 9f38 f0fb 6339
00000080: e795 8039 9b69 32ba 48ac 19ba 71cc e2b9
00000090: 7ecb a339 6f6c a139 2d1b a43a 7767 14ba
000000a0: 2b2c 78b9 c6e3 d1b9 8738 14ba 0a38 8eb8
000000b0: 3653 12b9 75ed 1139 309f 473a c7f6 3139
000000c0: 3b35 73b8 3f9b 9238 261a 88b9 b80d d438
000000d0: 93a2 74b8 2cea 4839 c44c bab9 dc97 98b9
000000e0: a6c0 7239 54dc 0c3a 7bcc 693a 9c70 a6b9
000000f0: 77cd 913a 2843 0b39 d833 4b3a b2bd 64ba
00000100: 8b32 8238 7fcc 7eb9 61e2 77b9 9832 bab8
00000110: 94c1 a538 1e10 a7b8 9207 2d39 07a0 00b9
00000120: 5f82 2cb9 5a34 dcb5 a76e 40b9 536f 0ab7
00000130: f316 d5b8 d783 d0b8 71d0 fc38 15e8 2fb8
00000140: c027 cab8 afa6 1c37 f4f6 78b7 00fd acb7
00000150: c28a 6bb8 46b5 15b8 43ed 1bb9 ad91 eeb8
00000160: 6770 7fb8 81a2 5838 d81e 2d39 6a4d 12b8
00000170: 6bce f138 90fc 5738 146e 2bb8 2a7b 9fb9
00000180: 4167 b7b8 c9b7 9039 fdb5 8e39 8c56 f338
00000190: 99c1 f1b8 54ac 4a38 2088 42b9 8f92 2a39
000001a0: 69f2 3f39 805f e537 143d 5f39 ca88 8b37
000001b0: 6ca5 c238 c96f e638 5b69 1bb9 6261 3138
000001c0: 75d2 a438 3b1e 7f35 8faa 7e37 318f 9936
000001d0: 65f9 9f38 5a31 d737 d2d4 3d39 0805 1639
000001e0: fad4 4738 8301 a1b8 b4c7 75b9 30f4 8238
000001f0: eef1 22b9 3a89 31b8 0e83 75b7 bf59 b639
00000200: 1b21 0db9 f333 9d39 f51d 9439 9524 1b39
00000210: 14cf f2b8 ee34 35b9 8068 c4ba 3da1 5639
00000220: bc35 2e39 6add 1f39 1739 8c39 3f3b e9b8
00000230: dd67 b039 d898 9ab9 5b36 42ba c375 3ab9
00000240: 684c 4639 8d2a b7b9 ddf9 a639 81fe 9838
00000250: b9d6 32b9 c33e 50b8 4231 e838 9c1c 7437
00000260: f5a1 62b8 4c6a 13ba 110f b3b9 e99c 8f38
00000270: 6e58 a2ba 8c5f 81b9 ad45 1aba ab38 f439
00000280: 2c71 93b7 b54d 8138 9c12 8c38 8b77 3638
00000290: fd30 82b7 ccb8 d2b7 7624 91b9 14d3 7e38
000002a0: d32c 4638 7171 5238 0a7a 7538 f2b3 92b7
000002b0: 4798 b338 d909 5db8 86c2 1fb9 18a2 39b8
000002c0: 4cf0 2938 154c 84b8 6b0d ad38 a89c 2037
000002d0: a714 23b8 088b 02b7 2e29 2538 5ce5 3a37
000002e0: 4115 a2b6 fee9 dcb8 b1a3 b8b8 a6e6 6737
000002f0: 1e61 69b9 3cf2 67b8 db3b ddb8 7dec d538
00000300: 20fd 5c39 12d5 37ba 730d 2bba 6ed1 95b9
00000310: 4b66 8739 5009 c5b8 1807 723a 31cc bcb9
00000320: a0ec d1b9 5f33 61b7 d8e6 0dba ecc8 29b8
00000330: 1437 76b9 bff3 f9b8 3a5a 063a d464 f9b7
00000340: 2d17 7db9 dcf4 7e38 627e 73b8 469b b7b7
00000350: e26f e0b8 925a bcb7 a075 d1b9 9337 a3b9
00000360: 3a18 82b8 4bbc 9639 3820 163a 4b6b 2ab9
00000370: b6eb 363a e287 2639 182f 1439 e1b2 63ba
00000380: a5f6 6839 8cdd 1dba e8df 12ba f591 8ab9
00000390: 5705 6c39 cee4 e338 904d ed3a 9812 b5b9
000003a0: bf68 afb9 6c8e 0db9 4b58 02ba d2e2 ae38
000003b0: 7536 d9b9 3708 6239 0fd9 6f3a dfdb 1839
000003c0: 1f67 9ab9 78c2 b739 21ad a3b9 98b6 adb8
000003d0: fd5e e338 e4ff 1338 b80f 93b9 6c03 21b9
000003e0: fc75 af37 74d5 293a 818f 143a 3266 0cb9
000003f0: 53bc bf3a 9f44 9f39 8af4 1c3a edfa 58ba

exp_avg_sq f4 [32, 32]
2.698574e-06 8.381922e-06 5.753676e-06 4.0734135e-06 2.9524535e-06 1.2182903e-05 9.259028e-06 7.634626e-06
1.1190747e-06 5.411137e-06 5.5161167e-06 7.1132495e-06 3.5720007e-06 3.2136645e-06 4.250681e-06 4.1860676e-06
5.210036e-06 1.1593246e-05 4.08702e-06 3.7377247e-06 4.956408e-06 2.4661447e-06 8.888812e-06 6.5449003e-06
3.0251706e-06 9.370291e-06 6.008704e-06 5.969402e-06 8.439861e-06 4.9942732e-06 1.9131334e-05 1.0637369e-05
9.903049e-06 2.929597e-05 1.72943e-05 1.6352173e-05 9.081797e-06 1.6608486e-05 4.899393e-05 2.0364289e-05
5.227196e-06 1.2153743e-05 1.8224559e-05 1.5098053e-05 1.2383729e-05 1.4248347e-05 2.0169267e-05 2.2595219e-05
2.011284e-05 2.3857689e-05 1.2472136e-05 2.782151e-05 1.982653e-05 5.4009215e-06 1.9004334e-05 1.6133548e-05
4.646169e-06 1.1171616e-05 5.025591e-05 1.0099233e-05 2.2660159e-05 9.379506e-06 2.7172473e-05 2.6002772e-05
7.046454e-06 1.9523051e-05 1.12265725e-05 1.0734869e-05 5.711693e-06 1.2513692e-05 3.142101e-05 1.3104803e-05
3.5182734e-06 9.6919575e-06 1.3430538e-05 9.349055e-06 5.644775e-06 8.773293e-06 1.4087818e-05 1.543296e-05
1.4091486e-05 1.4388934e-05 6.395911e-06 1.7666654e-05 1.0193532e-05 4.830755e-06 1.1663511e-05 9.003189e-06
3.7956831e-06 8.899019e-06 3.0345507e-05 5.476749e-06 1.5147557e-05 4.8301317e-06 2.1346328e-05 1.7437944e-05
3.4183522e-06 1.0696213e-05 7.373874e-06 5.6787576e-06 3.533927e-06 1.1194562e-05 1.1698714e-05 9.867757e-06
1.5649505e-06 6.76494e-06 7.29801e-06 8.5416295e-06 4.608535e-06 3.943574e-06 5.820341e-06 5.2643545e-06
6.7881992e-06 1.4719222e-05 5.295579e-06 5.0672566e-06 5.943785e-06 3.2738046e-06 1.21729945e-05 8.660288e-06
3.3215692e-06 8.955999e-06 8.7048265e-06 6.847791e-06 9.4744755e-06 6.532411e-06 1.9000041e-05 1.2235938e-05
6.123806e-06 1.5492542e-05 1.0276898e-05 1.1188307e-05 6.6342855e-06 1.0821023e-05 3.218744e-05 1.49839725e-05
3.0007131e-06 6.5567892e-06 8.466079e-06 1.5390253e-05 1.5849004e-05 8.246059e-06 1.2110118e-05 1.19259985e-05
1.6079697e-05 2.4090396e-05 1.5343501e-05 2.1266924e-05 1.647081e-05 2.3690557e-06 1.8246801e-05 1.8418004e-05
3.1109867e-06 8.417238e-06 4.369026e-05 1.4928739e-05 1.4996646e-05 1.2197093e-05 1.6175269e-05 1.4047547e-05
1.1298195e-06 3.9891756e-06 2.8828408e-06 1.6481299e-06 1.2374477e-06 7.110116e-06 5.039241e-06 3.8151334e-06
5.744736e-07 3.3164702e-06 2.2975687e-06 3.5011492e-06 2.0277753e-06 1.579972e-06 2.2519157e-06 2.0717287e-06
1.9929134e-06 6.010145e-06 2.3929701e-06 1.8678842e-06 2.3823436e-06 8.409128e-07 3.559104e-06 3.1889408e-06
1.363104e-06 5.660702e-06 2.1069932e-06 3.2418486e-06 4.925542e-06 2.3511273e-06 1.0991625e-05 6.922432e-06
1.9011602e-05 5.8615336e-05 4.00939e-05 3.632963e-05 1.7056393e-05 3.4405e-05 8.8101195e-05 5.090306e-05
1.1926761e-05 3.0223933e-05 3.836112e-05 3.600212e-05 1.992566e-05 2.637729e-05 3.9998155e-05 4.3443055e-05
2.9184737e-05 5.785647e-05 2.1729815e-05 4.6183242e-05 3.4443307e-05 1.1909486e-05 4.7594713e-05 3.8540547e-05
1.00977295e-05 2.4875977e-05 8.307466e-05 2.4813242e-05 4.4106804e-05 2.1182183e-05 5.674764e-05 6.297673e-05
2.2127439e-05 6.29653e-05 3.567874e-05 3.3276006e-05 1.9887071e-05 4.6866313e-05 0.000107372856 4.103899e-05
1.0931117e-05 2.6963238e-05 3.944315e-05 3.4375586e-05 2.7707678e-05 3.0113672e-05 4.4159882e-05 4.824878e-05
4.3395605e-05 5.3482865e-05 2.8386235e-05 5.8057376e-05 4.0893578e-05 1.2521035e-05 3.7365684e-05 3.331332e-05
1.2405563e-05 3.449302e-05 0.000105099374 2.3470515e-05 5.7218094e-05 1.934376e-05 7.511978e-05 5.5713106e-05
00000000: 2619 3536 15a0 0c37 b30f c136 5bae 8836
00000010: c422 4636 2c65 4c37 3957 1b37 7816 0037
00000020: 1d33 9635 5091 b536 1517 b936 59ae ee36
00000030: 81b6 6f36 56aa 5736 12a1 8e36 0c76 8c36
00000040: ded1 ae36 9d80 4237 3c23 8936 9fd5 7a36
00000050: 384f a636 0b80 2536 2821 1537 449c db36
00000060: 0904 4b36 1835 1d37 609e c936 c64c c836
00000070: ed98 0d37 7b94 a736 3a7c a037 2777 3237
00000080: 4625 2637 9ec0 f537 3a13 9137 062c 8937
00000090: 055e 1837 7452 8b37 d57e 4d38 fad3 aa37
000000a0: 4665 af36 eee7 4b37 f1e0 9837 a54d 7d37
000000b0: b6c3 4f37 2f0c 6f37 2c31 a937 dd8a bd37
000000c0: ffb7 a837 ff21 c837 6b3f 5137 3d62 e937
000000d0: 2651 a637 9039 b536 7f6b 9f37 8856 8737
000000e0: 4ae6 9b36 ba6d 3b37 dfc9 5238 e06f 2937
000000f0: 5216 be37 ac5c 1d37 71f0 e337 8720 da37
00000100: 9470 ec36 6fc5 a337 c359 3c37 e919 3437
00000110: 12a7 bf36 e6f1 5137 0dca 0338 b3dc 5b37
00000120: 7a1b 6c36 a49a 2237 b953 6137 e3d9 1c37
00000130: 3f68 bd36 0231 1337 b85a 6c37 0776 8137
00000140: 796a 6c37 0068 7137 759c d636 da32 9437
00000150: e304 2b37 df17 a236 66ae 4337 670c 1737
00000160: 57b9 7e36 ff4c 1537 7b8e fe37 eac4 b736
00000170: 4322 7e37 8412 a236 e410 b337 b347 9237
00000180: d866 6536 e373 3337 186d f736 288c be36
00000190: 6728 6d36 47d0 3b37 9845 4437 b28d 2537
000001a0: 4a0b d235 64fe e236 6ee1 f436 054e 0f37
000001b0: 04a3 9a36 0b53 8436 594c c336 76a4 b036
000001c0: 30c6 e336 94f2 7637 adb0 b136 6707 aa36
000001d0: b970 c736 89b3 5b36 9d3a 4c37 a74b 1137
000001e0: 20e8 5e36 b941 1637 f20a 1237 14c6 e536
000001f0: 90f4 1e37 fc30 db36 4762 9f37 f448 4d37
00000200: 187b cd36 fbf5 8137 f16a 2c37 6ab5 3b37
00000210: 149c de36 f18b 3537 0001 0738 ac63 7b37
00000220: dc5f 4936 6402 dc36 8809 0e37 511a 8137
00000230: 7af3 8437 8e58 0a37 902c 4b37 c615 4837
00000240: e3e2 8637 bb15 ca37 ebb5 8037 5f66 b237
00000250: cc2a 8a37 11fc 1e36 b510 9937 5d80 9a37
00000260: 58c6 5036 c337 0d37 0f40 3738 7276 7a37
00000270: 1b9a 7b37 1ea2 4c37 20b0 8737 c1ad 6b37
00000280: 4da4 9735 c2da 8536 d476 4136 5035 dd35
00000290: 6116 a635 6e93 ee36 c016 a936 bf03 8036
000002a0: 8635 1a35 8690 5e36 ee2f 1a36 49f5 6a36
000002b0: ea14 0836 6d0f d435 9e1f 1736 0708 0b36
000002c0: febd 0536 c1aa c936 ea96 2036 03b4 fa35
000002d0: 5ae0 1f36 16bb 6135 f1d8 6e36 9601 5636
000002e0: e6f3 b635 0ff1 bd36 de65 0d36 898e 5936
000002f0: 1546 a536 0fc8 1d36 ab68 3837 3d47 e836
00000300: 1b7b 9f37 bdd9 7538 7f2a 2838 a560 1838
00000310: 5314 8f37 164e 1038 f8c2 b838 bf80 5538
00000320: 0c19 4837 6789 fd37 f0e5 2038 fb00 1738
00000330: 0726 a737 cd44 dd37 b1c3 2738 a036 3638
00000340: bfd1 f437 e9aa 7238 6c48 b637 e1b4 4138
00000350: 3877 1038 dace 4737 6fa0 4738 99a6 2138
00000360: 6b69 2937 c1ac d037 5e38 ae38 0826 d037
00000370: 52ff 3838 64b0 b137 5104 6e38 6012 8438
00000380: 509e b937 3d0c 8438 c1a5 1538 d791 0b38
00000390: 29d3 a637 5292 4438 5d2d e138 4821 2c38
000003a0: ca64 3737 1d2f e237 c36f 2538 812e 1038
000003b0: c96d e837 9e9c fc37 5038 3938 bc5e 4a38
000003c0: ad03 3638 ca52 6038 fa1e ee37 a282 7338
000003d0: 2585 2b38 7011 5237 19b9 1c38 e8b9 0b38
000003e0: 7d21 5037 99ac 1038 cc68 dc38 8ce2 c437
000003f0: 76fd 6f38 6944 a237 a089 9d38 7ead 6938

exp_avg f4 [32]
-0.00046988088 0.0014853218 0.00058999506 -0.0006611251 -0.0006210321 -0.00018152529 0.0016873779 0.0013556558
0.00032280228 -0.0007007096 0.00077164726 0.00034071394 0.0004852121 -0.0012302526 0.0010891849 0.0003038248
0.00046616673 -0.00034905117 0.0005268219 0.0017062079 -0.00060198596 -3.0258505e-05 -0.00010589587 -0.0005069236
0.0018981256 -0.00021337012 -0.0005465823 -0.0022706867 -0.00033359881 -5.97703e-05 -0.00010065259 -0.0006014763
00000000: 585a f6b9 21af c23a e6a9 1a3a 5b4f 2dba
00000010: c2cc 22ba d357 3eb9 022b dd3a 43b0 b13a
00000020: ca3d a939 d3af 37ba 5f48 4a3a daa1 b239
00000030: 1164 fe39 6d40 a1ba fbc2 8e3a ad4a 9f39
00000040: d767 f439 db00 b7b9 6b1a 0a3a d6a2 df3a
00000050: 98ce 1dba a5d3 fdb7 6a14 deb8 11e3 04ba
00000060: 87ca f83a 1bbc 5fb9 8448 0fba cdcf 14bb
00000070: e0e6 aeb9 dfb1 7ab8 7315 d3b8 64ac 1dba

exp_avg_sq f4 [32]
0.00015342547 0.00032755017 0.00023336902 0.00015385951 0.00019208062 0.0001068549 0.0007740043 0.0008143694
0.00020626537 0.00038225582 0.0005238995 0.00016738313 0.00019187742 0.0006518214 0.0005512554 4.976257e-05
7.819468e-05 3.2494267e-05 3.1991988e-06 0.0007115885 0.00018849685 2.3826882e-05 9.691904e-05 0.00011893825
0.00059705076 2.0510124e-05 0.00017737408 0.0002947178 0.00019299192 1.2165766e-06 5.5296143e-05 0.0004193616
00000000: d6e0 2039 0abb ab39 85b4 7439 5955 2139
00000010: 4069 4939 4a17 e038 8de6 4a3a 687b 553a
00000020: f048 5839 8269 c839 4d56 093a 9183 2f39
00000030: b432 4939 fede 2a3a 2082 103a 27b8 5038
00000040: 73fc a338 744a 0838 d1b1 5636 e589 3a3a
00000050: 3da7 4539 d7df c737 0341 cb38 7d6e f938
00000060: 6683 1c3a 280d ac37 7efd 3939 5b84 9a39
00000070: e05d 4a39 4149 a335 c8ed 6738 c3dd db39

exp_avg f4 [1, 32]
-0.0027433522 -0.000627076 0.0036628353 -0.0034439862 0.0006704859 2.2674869e-05 0.0044513373 0.005502381
0.00037934983 -0.002660325 0.005429844 0.0011957292 0.0047948374 0.0070742574 -0.0009900102 -0.0023668418
-0.0016381259 0.0025282877 0.0036241487 -0.007604793 -0.003974129 -0.0005928847 0.0018645354 -0.0016364059
-0.00020704127 -0.0014370326 -0.0012658244 0.0038592992 -0.004577689 0.0002195483 -0.006312005 -0.0035743595
00000000: d0c9 33bb 5c62 24ba 2e0c 703b 80b4 61bb
00000010: 8cc3 2f3a e935 be37 86dc 913b 514d b43b
00000020: 79e3 c639 d958 2ebb d5ec b13b 04ba 9c3a
00000030: 031e 9d3b 2ccf e73b 3bc3 81ba 041d 1bbb
00000040: 62b6 d6ba a1b1 253b 2083 6d3b a131 f9bb
00000050: 6939 82bb d26b 1bba 6d63 f43a ac7c d6ba
00000060: 3819 59b9 d05a bcba 05ea a5ba 4cec 7c3b
00000070: 7000 96bb 8c36 6639 f0d4 cebb cd3f 6abb

exp_avg_sq f4 [1, 32]
0.0022553252 0.0026596677 0.0017912819 0.0024569873 0.0021672542 0.0004524945 0.0016176339 0.0033353977
0.0006356225 0.00088422006 0.0032089707 0.0012824892 0.0015943242 0.0025039646 0.00045271555 0.0018868432
0.00050023576 0.00035458905 0.00029823105 0.0013319862 0.00082145666 0.00026210246 0.00058880396 0.0010832585
0.0021143265 0.00052677153 0.0013928956 0.0008319406 0.0012886003 4.7846595e-05 0.0049589784 0.0023402467
00000000: 14ce 133b d24d 2e3b 72c9 ea3a 6805 213b
00000010: 7e08 0e3b c93c ed39 c906 d43a b096 5a3b
00000020: e79f 263a 01cb 673a 984d 523b 3219 a83a
00000030: a5f8 d03a 8e19 243b 745a ed39 f44f f73a
00000040: 4122 033a 23e8 b939 e55b 9c39 0a96 ae3a
00000050: 0657 573a cc6a 8939 f759 1a3a 20fc 8d3a
00000060: 8390 0a3b 0a17 0a3a d291 b63a 9716 5a3a
00000070: 40e6 a83a e4ae 4838 ed7e a23b d35e 193b

exp_avg f4 [1, 32]
-0.0008222731 -0.00022015732 -0.0022653777 -0.0010681116 -0.00030315356 -0.00188614 0.00049282046 -0.0008948188
-0.00089239806 0.001956392 -0.00018577783 -0.0031397291 -4.6045174e-05 0.0058539053 -1.6502868e-06 -0.0005568102
0.00070857623 -0.0007964226 -0.0010697563 0.00026111538 0.0014556291 0.0005701168 -4.1015028e-05 -0.0004416182
0.0009564296 0.00017082998 -0.00063199183 0.002238042 0.001518471 0.000266912 -0.00039988087 -0.0010361491
00000000: d08d 57ba 08da 66b9 bb76 14bb e1ff 8bba
00000010: 95f0 9eb9 5b38 f7ba 9f30 013a 4692 6aba
00000020: d2ef 69ba d036 003b 5bcd 42b9 eac3 4dbb
00000030: a120 41b8 1ed2 bf3b 6c7f ddb5 e6f6 11ba
00000040: bfbf 393a 04c7 50ba 1137 8cba 50e6 8839
00000050: cfca be3a e473 153a 8d07 2cb8 fe88 e7b9
00000060: e7b8 7a3a d320 3339 41ac 25ba 1dac 123b
00000070: 6f07 c73a 52f0 8b39 1aa7 d1b9 65cf 87ba

exp_avg_sq f4 [1, 32]
0.0010739547 0.0010325116 0.0004892811 0.0010960207 0.00069660315 0.00018694658 0.0005266911 0.0010874398
0.00025545017 0.0005388985 0.0010423833 0.0005952419 0.00038877793 0.0014428125 0.0004431943 0.00073515024
0.0003742907 0.0003223788 5.2160714e-05 0.0007795152 0.00021153598 0.00010854378 0.00019374138 0.00027116953
0.00071614544 0.00014241681 0.0006127663 0.0005665245 0.0004164913 1.4212206e-05 0.0022177428 0.0009520978
00000000: f1c3 8c3a 5755 873a 1943 003a 5aa8 8f3a
00000010: 3f9c 363a 1707 4439 a411 0a3a 6d88 8e3a
00000020: f1ed 8539 de44 0d3a 94a0 883a 020a 1c3a
00000030: e4d4 cb39 c11c bd3a 885c e839 19b7 403a
00000040: 733c c439 f304 a939 24c7 5a38 6158 4c3a
00000050: c2cf 5d39 00a2 e338 0e27 4b39 c22b 8e39
00000060: b5bb 3b3a b955 1539 0da2 203a d182 143a
00000070: 845c da39 f670 6e37 8d57 113b 3496 793a
