IsaacGymEnvs/runs/Cartpole_11-02-20-21/nn/last_Cartpole_ep_50_rew_482.1665.pth (torch, 29974 bytes, 24 tensors)

value_mean_std.running_mean f8 [1]
00000000: a7f1 3fb3 8882 1540
5.377474594858007

value_mean_std.running_var f8 [1]
00000000: 6a9a 5f64 2104 2340
9.508067261381445

value_mean_std.count f8 []
00000000: 0000 0000 0200 2941
819201.0

running_mean_std.running_mean f8 [4]
00000000: 7df8 f66e 784c a3bf d63b 0d4a 2d49 aabf
00000010: 2789 e3e6 713e 62bf f3a3 633f d147 97bf
-0.03769279818105618 -0.05133954552604052 -0.002227041687647663 -0.022734899038287137

running_mean_std.running_var f8 [4]
00000000: dc5c 36c7 1f35 e33f c7ed 0ae0 1396 1640
00000010: 0d83 5be1 dbb7 b23f d1d0 ae7f e90b 1640
0.6002348795763299 5.646560192744295 0.07311796428576774 5.511632914585975

running_mean_std.count f8 []
00000000: 0000 0000 0400 1941
409601.0

a2c_network.actor_mlp.0.weight f4 [32, 4]
00000000: 896c 0abe 2ecd 543d 97ce 9dbe c025 2a3e
00000010: ea8d e13e 9d98 aabe 2304 053f 5b80 013e
00000020: b94c 9c3e a2ca 6f3d 7eb4 9c3e ae9a f0bd
00000030: 0b6b 8d3e 7458 b83c 998f 1cbe f0aa 533e
00000040: 06b5 92be 579d afbd c400 a3be 7e37 3c3e
00000050: cd74 cabe 449f a3bc d665 0fbe d7e5 02be
00000060: de31 d13d e521 ecbe 1240 d93e 5e3e d0be
00000070: 798a e83e 5bb8 663d ed95 61be 8785 293e
00000080: 402f 033d 0448 ab3e b8e3 943c 9f76 98be
00000090: e780 fd3c 835e 3dbe e9fd b83e c25c f63e
000000a0: f925 803e 4551 4dbe 3e5a c03e 12fc 043e
000000b0: ce37 c73e d559 e0bb 2398 1ebf b7f4 99bd
000000c0: e8d7 12bf 79bb 7f3e e525 883e 5df0 a43c
000000d0: 4056 043e e7b0 97bb cd8d b03e 1584 a3be
000000e0: 2870 223d a522 8bbe 3902 13bd 85a7 5abe
000000f0: b353 28bd 6f96 04be d79e f93e 642b 28be
00000100: dd85 18bf 9115 a4be a449 243f 8ac0 8d3e
00000110: f0fd 113f d36c 1ebd 2469 41bf 2b0e 80be
00000120: 590d f2be ba91 a23d 1aea b63e dbea 943e
00000130: 4186 ffbe eeda 6dbe c485 ed3e f580 543e
00000140: f052 be3e b4dd acbd 16c8 673e bd2a 84be
00000150: c106 15be 3c35 3d3e 919b c7bc 580d 8bbe
00000160: 940f e83e 4201 dd3e 1bba 12bf 3868 c9be
00000170: 3402 143f edb4 533e 90b2 f4be 9b7f a8be
00000180: 6b04 65be cb29 893e 0d50 b2bc 79a0 a5be
00000190: 8521 8b3d 0534 d7bd c8f6 fabe c041 40be
000001a0: 6f4f 37bf c043 a2be 3f4d f63e e376 343e
000001b0: 60b2 193f ebd1 a03d 5ec6 12bf ddbf cfbd
000001c0: 7d72 0bbc 6978 b5be dbc1 a4be 1612 92be
000001d0: 947c e53e a98f e83d 6853 9abe 8a6e 63be
000001e0: c019 e0be 97c9 9ebd 276d a3be 3cc3 8abe
000001f0: e30e d33e f3f0 18be d6b5 043f f186 e53d
-0.13517965 0.051953487 -0.30821678 0.16615963 0.44053584 -0.3331956 0.5195944 0.1264662
0.30527285 0.058542855 0.30606455 -0.11748253 0.2762073 0.022503115 -0.15289153 0.20670676
-0.28653735 -0.08574932 -0.31836522 0.18380544 -0.39542237 -0.019973405 -0.14003691 -0.1278299
0.102145895 -0.4611961 0.42431694 -0.40672582 0.45418146 0.05632816 -0.22029848 0.16554843
0.032027483 0.3345338 0.018174991 -0.29778 0.030945254 -0.18493085 0.36131218 0.48117644
0.2502897 -0.20050533 0.3756885 0.12986782 0.38909763 -0.0068466463 -0.6195089 -0.07517379
-0.57360697 0.24973859 0.2659141 0.020134145 0.12923527 -0.0046292427 0.34483185 -0.31936708
0.03965774 -0.2717487 -0.03589079 -0.21352966 -0.041095447 -0.12948011 0.48753998 -0.16422802
-0.5957926 -0.32047704 0.64174867 0.27685958 0.570281 -0.038678 -0.75551057 -0.2501081
-0.47275808 0.079379514 0.3572548 0.2908543 -0.49907115 -0.23228046 0.46391118 0.20752318
0.3717265 -0.08440724 0.2263492 -0.25813857 -0.14553358 0.18477339 -0.024366172 -0.27158618
0.45324385 0.43165022 -0.57315224 -0.39337325 0.5781586 0.20674486 -0.47792482 -0.32909855
-0.22364967 0.26789698 -0.021766687 -0.32348993 0.06793503 -0.10507969 -0.49016404 -0.18775082
-0.7160558 -0.31692314 0.4810581 0.17623477 0.60037804 0.07852539 -0.57333934 -0.10144017
-0.008511183 -0.35443428 -0.3217915 -0.28529423 0.44821608 0.11355526 -0.3014176 -0.22210136
-0.43769646 -0.07753294 -0.31919214 -0.27102077 0.41222295 -0.14935665 0.5183996 0.11207379

a2c_network.actor_mlp.0.bias f4 [32]
00000000: 8c23 0fbe 723a 30be da44 2ebe bc7d 5abe
00000010: 4026 fcbd 6455 16be f5f2 d13d 74c3 2cbe
00000020: 05a4 e3bd 1584 16be 5b39 2ebe e50a 0ebe
00000030: 9dab ffbd 77ad 8a3c fa61 e83d d6b4 0f3e
00000040: 8204 43be ea71 15be 7afd 19be 13bb b83d
00000050: cc4c de3d bf6c 583d cf9c 1abe 2d22 c0bd
00000060: 133a d93c 99e6 a3bd e1a9 583e 2252 1cbb
00000070: 04af 0abe 6146 e63d e9cc ebbd ad89 2dbe
-0.13978404 -0.17209795 -0.17018452 -0.21337026 -0.12311983 -0.14681011 0.102514185 -0.16871434
-0.111152686 -0.14698823 -0.17014067 -0.13871343 -0.124839045 0.016928418 0.113468125 0.14033827
-0.19044688 -0.14594236 -0.150381 0.090200566 0.108544916 0.052838083 -0.1509888 -0.093815185
0.02651695 -0.080029674 0.21158554 -0.0023852666 -0.13543326 0.112438925 -0.11513693 -0.1694705

a2c_network.actor_mlp.2.weight f4 [32, 32]
00000000: 6d38 a63d 9850 493d eb61 363c a694 3e3e
00000010: 9658 a53d d598 cfbc 352d 10be 3361 633c
00000020: 1403 5d3e dc21 2bbd 6b05 44bd 4c1f 8f3d
00000030: 3954 09be 4707 45bc a0b4 a93d 56ce 82be
00000040: 9b86 a1bb f7f8 3a3e 7edf bdbb 255a 01be
00000050: ed26 3c3c 4cbd d43d b598 5a3e ac26 f4bc
00000060: 371a 213d 93c3 d23d ae64 97be b0c8 0a3c
00000070: f380 383e b57d 4b3e 53f6 e23c 812a 2e3d
00000080: cbe0 cdbd 0ad6 2f3d 9156 8b3d d901 9e3d
00000090: cd9e 83be 7fd1 47be 4757 723e d059 863d
000000a0: aeba 27be a081 19bb 1816 1bbd 5e63 b6be
000000b0: d49c debd 758f 8b3d c2aa 0c3e 5b70 ca3d
000000c0: ec3d a7be bbb0 4ebe 42e8 2bbc 4823 493e
000000d0: 60a5 a73d b3a9 f9bd 7ad0 6ebe 43a5 e7bd
000000e0: adf0 8ebe 13b1 c83c 8749 1dbe 3fa8 8dbd
000000f0: 548a 49be 7a72 943d 05ce 233d f722 f73d
00000100: 5cf4 2abe 34eb 60be e3b3 24be f665 2c3e
00000110: a4af d23c b68d ab3d 3e33 353e b4d6 893d
00000120: 4f98 bbbd 9d6f 37be 76cb 27be 7d69 3fbe
00000130: dabf a9bc 1db8 a3bc fe66 883d 0ae1 34bd
00000140: 7cf5 83be e566 5dbd 423e 47be 338d abbd
00000150: 7841 9b3d 406c 083d 21c2 5cbe 8cbe ca3b
00000160: 1684 edbd 5cca c6bd 4bb7 91be 5132 6e3b
00000170: 3a11 0c3e b445 29bd ad74 8c3d f6c7 293d
00000180: f1d5 e23d a344 69bd 11de 6b3e 3f94 f4bc
00000190: c946 9c3d 30bc 683e f480 87bd d154 bb3c
000001a0: e3ac d53d 79fe 28be 4809 103e 755d dbbc
000001b0: a7ea c03d 567c ae3d 0575 ee3d db86 f9bd
000001c0: 46a6 55be 5c1e 163e 7b89 1d3d 3183 8bbe
000001d0: 4ae2 bfbd 714c d5bd ee41 213e 2e66 4fbd
000001e0: 612b 883c d947 083d 5ebb edbe da5c 543e
000001f0: 20ed 5a3e b855 d13c 8d77 383c 7575 133c
00000200: 8681 42be 7992 9cbe 045a d8bc d791 32be
00000210: 5733 d2bd 256a 01bd 5a4f 513d 0023 22be
00000220: 0fad bebd a979 14be 90c3 29be 73a0 3bbe
00000230: 673b 0dbe 8bcd 823e 9e60 9a3a 058d 3c3e
00000240: 55b7 e4bd 12bc f4bc 895e 043e 8e69 913d
00000250: 4422 5ebd e346 d93b fffe 243d 64fb 2c3e
00000260: 7ac7 9d3d 9769 4c3d 4172 75bd b033 273c
00000270: 7014 5fbe bfc7 14bd b8e4 d13d 10d9 d0bc
00000280: 1ec1 01be 4992 aebd ac3c a8bd b57b 6dbe
00000290: 58ec 99bd 9bbb 4a3d 972d df3d 0433 3bbc
000002a0: f2be eabd 25fe 0cbe 6748 fc3d 09fd 9cbd
000002b0: 0a81 0ebd cc8c 513d 14e5 a7bd 1bd9 16bd
000002c0: abfe 68ba 2ae7 b1bc e5b4 01be 58d9 1abe
000002d0: eee8 60be de82 d9bc 8a6c 6e3e d3b2 45be
000002e0: 8297 203b 0094 ed3d ee43 a3bd d4ad d93d
000002f0: 2190 4c3e b69b 053e ad8d c9bd e104 9a3d
00000300: 022b 553e a438 9ebd 822d 23be 2e85 3e3e
00000310: bd8c 80bc 37ef 36be 44be 13be d392 0a3d
00000320: bd29 2c3d 00d0 2c3d f0ad 90bc 6154 d8bd
00000330: acfa 3abe 6b07 b5bd 9e9d 333e 42c2 b53c
00000340: 9b76 99be 6aae 4d3d 212b fdbd 4316 71bc
00000350: 1e3a 6dbb 1d07 1f3e 86d8 743d fce2 aabd
00000360: d7bf 0c3e d1e4 d5bd c55a c23d 49e6 803e
00000370: 7809 183d 85f1 653e 66db 47be 5154 ebbd
00000380: cff9 1f3d 41de bfbd 01a7 a9bd 598d 3abd
00000390: a313 943c 0dc2 9ebb a68a 1b3e 5b3c 0bbe
000003a0: 77b2 6fbe 6882 503c 97aa 623c 8038 58be
000003b0: 715c c4bd 4b6e 493e e793 813d 6e4f bb3d
000003c0: 2c9f 78be 8b10 4cbe f908 44be cc20 45be
000003d0: bc18 063d fb0a 29bd 26c8 adbe b3a6 b4bd
000003e0: fca4 433d b48e 473c 5b5d 86bd dd58 b6bd
000003f0: 91bc 5ebd 2881 813c 66f9 2dbe 50b4 23be
0.08116231 0.049149126 0.011131744 0.18611392 0.08073537 -0.02534143 -0.14079745 0.013878155
0.21583205 -0.041780338 -0.04785673 0.06988391 -0.13411035 -0.012025661 0.082864046 -0.25548047
-0.0049293763 0.18259035 -0.0057944646 -0.12632044 0.01148389 0.10387668 0.21347316 -0.029803596
0.03933164 0.10291209 -0.29569 0.008470699 0.1801794 0.19872172 0.027705347 0.042521004
-0.100526415 0.042928733 0.068036206 0.07715196 -0.25707093 -0.1951351 0.23666106 0.06560099
-0.16379806 -0.002342321 -0.037862867 -0.35622686 -0.10869756 0.06814472 0.13737014 0.09884711
-0.3266443 -0.20184605 -0.010492386 0.19642365 0.0818584 -0.12190571 -0.23321715 -0.11310818
-0.27917996 0.024498498 -0.1536008 -0.06916856 -0.19681674 0.07248397 0.039991397 0.12067216
-0.16694778 -0.21964723 -0.16084246 0.1683577 0.025718518 0.083766386 0.17695329 0.067304045
-0.0915991 -0.17913671 -0.16386208 -0.18692584 -0.020721365 -0.019985253 0.06660269 -0.044159926
-0.25773227 -0.054053206 -0.19457343 -0.08376541 0.075808465 0.03330636 -0.2155843 0.0061872657
-0.11597459 -0.09706566 -0.28460154 0.003634591 0.13678446 -0.04132624 0.06858192 0.041450463
0.11075962 -0.056950223 0.2303393 -0.029855845 0.07630689 0.22728038 -0.06616393 0.022867592
0.10433366 -0.16503324 0.1406604 -0.026777962 0.094197564 0.08519809 0.116434135 -0.12183925
-0.2086421 0.14660019 0.03846119 -0.2724853 -0.09369333 -0.10414971 0.15747806 -0.050634556
0.016622247 0.033271644 -0.46432012 0.20738545 0.21379519 0.02555357 0.011258972 0.009000172
-0.18994722 -0.305805 -0.02641011 -0.17438446 -0.102636985 -0.031595368 0.051101066 -0.15833664
-0.09310352 -0.14499535 -0.16578507 -0.18322925 -0.13792191 0.25547442 0.0011778062 0.1841317
-0.1116778 -0.029874835 0.12926687 0.07100211 -0.054231897 0.006630765 0.040282246 0.16892773
0.07704063 0.049905386 -0.059923414 0.010205194 -0.2178514 -0.036323305 0.10248703 -0.025494128
-0.12671325 -0.085239954 -0.08214697 -0.23191722 -0.07515782 0.04949532 0.108973674 -0.011425737
-0.11462201 -0.13768823 0.12318497 -0.0766545 -0.03479103 0.051159665 -0.0819799 -0.03682814
-0.0008888046 -0.021716673 -0.12666662 -0.15121973 -0.21963856 -0.02655166 0.23283592 -0.19306497
0.0024504368 0.116004944 -0.07971941 0.10628858 0.19976856 0.1304768 -0.09841476 0.07520462
0.20817187 -0.07725647 -0.15935329 0.18605492 -0.01569211 -0.1786469 -0.1442805 0.03383143
0.042031992 0.04219055 -0.017661065 -0.10562969 -0.18259686 -0.088393055 0.17540595 0.022187356
-0.299733 0.050215162 -0.12361742 -0.01471478 -0.003619797 0.15530057 0.059776805 -0.08344075
0.13745056 -0.10444034 0.09489969 0.25175694 0.037118405 0.22455414 -0.19517288 -0.114906915
0.039056595 -0.093685634 -0.082838066 -0.045544956 0.01807577 -0.00484491 0.15189609 -0.13597243
-0.23407923 0.012726404 0.013834617 -0.21115303 -0.09587944 0.1967098 0.06327038 0.091460094
-0.24279469 -0.19928186 -0.19144048 -0.19250792 0.032738432 -0.041270237 -0.33941764 -0.08820858
0.047764763 0.012180019 -0.06560775 -0.08903668 -0.05437905 0.015808657 -0.16989669 -0.15986753

a2c_network.actor_mlp.2.bias f4 [32]
00000000: 27f0 42be 5072 fb3d 8eba 213e 1ba9 53be
00000010: 7918 fb3d b090 11be 7b33 393e ea66 163e
00000020: e908 143e bf76 3abe e7a1 053e b5ae a33b
00000030: 23a5 fc3d 47b3 db3d d795 133e ba42 1abe
00000040: 1dee 3cbe 2520 eb3d 10f9 8dbc 1e11 273e
00000050: 9904 2fbe 21ff cd3d f636 db3d dd98 12be
00000060: 2fab e33d 6298 2d3d 72d7 21be a42b aabd
00000070: 205a 40be f168 99bb ce02 a5be 74d2 49be
-0.19036923 0.12277663 0.15793821 -0.20669977 0.12260527 -0.1421535 0.18086044 0.14687696
0.14456524 -0.1820936 0.13050042 0.004995192 0.12336185 0.10727554 0.14412628 -0.15064517
-0.18450208 0.114807405 -0.017330676 0.16315123 -0.17091598 0.100584276 0.10703842 -0.14316125
0.11116635 0.04238165 -0.15804842 -0.08309105 -0.1878438 -0.0046816994 -0.32228702 -0.19709188

a2c_network.value.weight f4 [1, 32]
00000000: c43c 94bd 8b4f 083e afe2 d33d ca0d debd
00000010: fb49 48bd 9e6b 48bc 57c4 553e 9072 3e3e
00000020: bf83 9f3d d4a5 31be f9ea e43d 3d95 b1bc
00000030: 44a5 963d e653 4c3d 87a4 b93d be27 383d
00000040: e382 72bd beac 033c ea65 113c 2144 5e3e
00000050: 5aa3 c9bd 3f7c cb3b 1e45 1fbc 8046 7cbd
00000060: 63d6 263e 59a7 ccbc 2ded 82bd d2ee 8f3d
00000070: 36d7 f1bd 05e2 493b e19b a93b 2b57 09be
-0.072381526 0.13311593 0.10345971 -0.10842474 -0.04889868 -0.012232689 0.20875679 0.1859839
0.077888004 -0.17348415 0.1117763 -0.021677608 0.07355741 0.0498847 0.09064584 0.044959776
-0.059206855 0.00803679 0.008874396 0.21705677 -0.0984561 0.0062098796 -0.009721069 -0.06159067
0.1629272 -0.024982141 -0.06392894 0.07027973 -0.11808626 0.0030804884 0.005176053 -0.13412158

a2c_network.mu.weight f4 [1, 32]
00000000: 3d69 52bd 18fd 14be 9190 1a3c 1f37 03bd
00000010: dfc1 5b3e 137e bf3c 0fd3 a4bd ddec 64be
00000020: 2251 9c3d 6d3b 80bd 69e2 8bbe 2736 683e
00000030: 3df7 febd 44e1 e3be d74c aa3e 9e57 29be
00000040: de34 0c3e 2581 993d c0e9 0e3c a606 cbbd
00000050: ab48 533b db38 ebbc 5001 003e e950 1b3e
00000060: 1284 033e e1ec 903d 2a0a ae3d 4a83 a7be
00000070: d0e6 d2bc 6b1e dabb c602 b6be e1e8 b7be
-0.051369894 -0.14549673 0.009433881 -0.03203499 0.21460675 0.023375547 -0.08048069 -0.22355981
0.07632662 -0.062613346 -0.27321175 0.22676907 -0.12449501 -0.44507802 0.3326175 -0.1653733
0.13692042 0.074953355 0.0087227225 -0.099133775 0.0032239358 -0.028713634 0.125005 0.15167584
0.1284335 0.07076431 0.084980324 -0.32717353 -0.025744826 -0.006656458 -0.3554899 -0.3591986

exp_avg f4 [32, 4]
00000000: 9f60 8b37 16c9 07ba bc82 a2b7 f9b5 a2b9
00000010: 0ff6 98b9 cf0e afba 5103 bbb9 9744 91b9
00000020: 6661 15b9 bbb0 9bba f243 7ab9 8178 bcb9
00000030: 2111 3d3a 8b1d 45ba 3882 1f3a 3127 b7ba
00000040: 7618 48ba 3be5 0cba 1a36 4dba 59ec 4e3a
00000050: 3db9 a0ba 00e8 89ba be38 a6ba 017e ac3a
00000060: cde1 283a 740d 8f39 e2a4 223a aae8 64ba
00000070: d519 8839 21cd 31ba 2472 e038 8c0d 37ba
00000080: 1a9d 00ba 7da7 28ba ada7 45ba 4d67 313a
00000090: 1b23 5639 4f1f 0ebb 6014 a439 2aea f4ba
000000a0: c951 4939 064a f2ba bfab 8f39 8038 b5ba
000000b0: 47e0 08ba 6dd5 bdb9 c820 5aba 9c7f 703a
000000c0: 18e9 82ba 7d7f aaba 68ec 61ba 42ba 0f3a
000000d0: 6c3e 94b8 b2f7 47b9 266d a2b7 da2f f1b8
000000e0: 2b35 b139 d20c 123a dca6 2639 345b 06b9
000000f0: 4818 2fb9 2a13 423a fbec 4ab9 9f17 283a
00000100: 04cc 34bb c1fb 61bb a016 2abb 64c4 083b
00000110: 7c8b 16ba d5f8 6b3a 6d72 6fba ca3b ae3a
00000120: 7d41 89ba 41fa fdba 4f1b 47ba e117 f5b8
00000130: f81a cfb9 d9e7 43ba d87e a3b9 de06 a938
00000140: 5235 4a3a c311 e539 0f63 523a b17e 82ba
00000150: 1a7d 32ba ae41 913a 90ff 3aba 0dca d43a
00000160: 3da3 54ba 1216 a239 6057 c9ba 401b 153b
00000170: 2146 04ba defb ca3a 7f24 63ba 70e1 f73a
00000180: f946 99ba fb99 aa39 dbd7 b3ba a0df 0a3b
00000190: 2682 d0b9 3a6b a6b9 d57b 2aba 9791 133a
000001a0: 520a 68ba 7400 e5ba 6584 3fba 09d2 1b39
000001b0: 6f67 b839 d8dc c93a 685e 0039 6e30 103a
000001c0: 8a83 00b9 d614 90b9 c10f 1ab9 d121 d836
000001d0: d9b1 1b3a 6901 963a 9cfe b339 79be ca38
000001e0: 20e4 b6ba 2817 9838 cc6d d0ba e4fe 153b
000001f0: 03af 2ab9 43d3 52ba c5f0 8fb9 e63b c9b8
1.6615084e-05 -0.00051798054 -1.9372783e-05 -0.00031034628 -0.00029175027 -0.0013355854 -0.0003566989 -0.0002770766
-0.00014246031 -0.0011878231 -0.0002386717 -0.00035947937 0.000721233 -0.0007519356 0.0006084773 -0.0013973472
-0.00076330395 -0.0005374734 -0.0007828191 0.0007893495 -0.0012262237 -0.0010521412 -0.0012681705 0.0013160111
0.00064423383 0.0002728511 0.0006204379 -0.00087321794 0.00025959188 -0.0006782581 0.00010702413 -0.00069829146
-0.00049062225 -0.0006433649 -0.0007539939 0.0006767407 0.00020421708 -0.0021686142 0.00031295698 -0.0018685509
0.00019199321 -0.0018485195 0.00027403046 -0.0013826042 -0.0005221408 -0.00036207904 -0.0008320925 0.0009174289
-0.000998768 -0.0013007965 -0.0008618296 0.00054827717 -7.068817e-05 -0.00019070393 -1.9362731e-05 -0.000115006886
0.00033799684 0.00055713684 0.00015893154 -0.00012813212 -0.00016698346 0.00074033684 -0.00019352503 0.0006412211
-0.0027587423 -0.0034482332 -0.0025953427 0.002086901 -0.00057428307 0.00090016174 -0.0009134177 0.0013292965
-0.0010471788 -0.001937695 -0.0007595317 -0.00011686958 -0.0003950221 -0.00074732077 -0.0003118429 8.059827e-05
0.0007713634 0.00043691517 0.0008025625 -0.000995597 -0.0006808803 0.0011082196 -0.00071334187 0.0016234532
-0.00081114826 0.00030915492 -0.0015361123 0.0022751838 -0.00050458504 0.0015486439 -0.0008664801 0.001891179
-0.0011694125 0.0003253965 -0.0013720946 0.002119042 -0.0003976982 -0.00031741877 -0.0006503438 0.00056292996
-0.00088516355 -0.0017471449 -0.00073058 0.00014860196 0.0003517228 0.00154009 0.000122422 0.00055003806
-0.00012256033 -0.00027481344 -0.00014692453 6.4412384e-06 0.0005939282 0.0011444512 0.0003433124 9.667589e-05
-0.0013953485 7.252238e-05 -0.0015901863 0.0022887522 -0.0001627766 -0.00080423447 -0.00027454473 -9.595584e-05

exp_avg_sq f4 [32, 4]
00000000: 1713 2d38 2035 8337 2044 ce37 6f4d 6537
00000010: 4fac 3039 d7bd a439 4a91 e838 7788 8b39
00000020: 0285 d538 1d94 2539 19b9 3d38 7486 0939
00000030: 4203 a738 d474 a737 6597 8f37 0410 b637
00000040: b6ed f937 27c0 ea37 981a 8737 8062 e037
00000050: 8996 f538 ef8f 0939 18d2 9138 092a ea38
00000060: 65ab 9c38 9b49 6d38 e7d3 1d38 019e 5538
00000070: 43c1 af38 8942 cc38 55cd 0b38 b65c a838
00000080: 92b7 1e39 2132 7139 9195 7e38 a111 4939
00000090: 6a9f 2839 deef 4439 e74c a838 f796 1a39
000000a0: 0442 1539 8e4a 1339 91dd 6a38 e24f fa38
000000b0: 3f15 5a39 6d9c 5a39 4e9a cb38 bc15 3439
000000c0: af11 1e38 2d7b a738 fc19 9e37 955b a138
000000d0: 9416 a537 338d 8337 85ab 5637 1857 3e37
000000e0: 866f 9838 a274 4338 a71b 0038 aed7 1938
000000f0: 4a27 aa38 2a00 cb37 aadb 9337 eccf cc37
00000100: 2d0c ea39 f642 373a 8628 6b39 0b09 2e3a
00000110: efef 2f39 1198 f938 572e 9e38 8170 c738
00000120: ab25 aa38 d255 1f39 6309 7138 a647 0739
00000130: dd1d f436 0f58 1f36 02ec 8d35 294d 2336
00000140: 87cb e638 d83d bb38 6281 1538 9efa 9038
00000150: 23cf f038 6d53 0e38 d76f 8337 787c 1138
00000160: 92bb ca39 2b23 d939 8715 1639 a4fb b939
00000170: 04da 1139 2211 a638 4b5d ef37 726d 9a38
00000180: 2beb 4339 6dea 3439 b968 8e38 0c1b 1539
00000190: 74ee 0b39 d53c db38 b0eb 9538 571f 9f38
000001a0: 76b8 4938 2762 ff37 1f22 5d37 417e f237
000001b0: 9a07 1638 01d6 a037 c2eb 0137 2d9f a937
000001c0: 9c45 a038 d61c 3e38 4151 7e38 2048 1738
000001d0: c7c0 9837 c0b9 c837 f274 b536 5ac2 c937
000001e0: 667d 5439 9e16 2a39 1f82 da38 969f 0e39
000001f0: 2fd2 e238 2c2f 8139 e655 a838 9eed 5439
4.1264193e-05 1.5641155e-05 2.4588837e-05 1.3667493e-05 0.00016848858 0.0003142196 0.00011089684 0.0002661382
0.00010181406 0.00015790803 4.5233497e-05 0.00013115426 7.963787e-05 1.9962354e-05 1.7117427e-05 2.1703549e-05
2.9793806e-05 2.7984452e-05 1.6105638e-05 2.6748748e-05 0.0001171055 0.00013118958 6.953272e-05 0.00011165819
7.4705844e-05 5.6573754e-05 3.7629066e-05 5.093031e-05 8.380648e-05 9.739871e-05 3.3331413e-05 8.028133e-05
0.0001513644 0.00023002225 6.0697614e-05 0.00019175421 0.00016081115 0.00018781374 8.0251884e-05 0.00014742823
0.0001423434 0.00014046786 5.5996297e-05 0.00011935808 0.00020798015 0.00020848373 9.708536e-05 0.00017174234
3.7686605e-05 7.986124e-05 1.8847168e-05 7.694137e-05 1.9680047e-05 1.5682168e-05 1.2795329e-05 1.1345161e-05
7.268698e-05 4.6600246e-05 3.054333e-05 3.667891e-05 8.11355e-05 2.4199562e-05 1.7626055e-05 2.4415516e-05
0.0004464103 0.0006990874 0.00022426443 0.0006638921 0.00016778683 0.0001190157 7.5426586e-05 9.510015e-05
8.113248e-05 0.00015195392 5.746762e-05 0.00012901294 7.275243e-06 2.3744103e-06 1.0574006e-06 2.4333806e-06
0.000110051646 8.928374e-05 3.5644865e-05 6.913136e-05 0.00011482674 3.3933135e-05 1.5668496e-05 3.4686615e-05
0.00038668193 0.00041415668 0.00014313134 0.00035473437 0.00013909495 7.918688e-05 2.8534463e-05 7.363678e-05
0.00018684256 0.00017253468 6.790594e-05 0.00014219823 0.00013344904 0.000104540646 7.148774e-05 7.587548e-05
4.8093927e-05 3.0444075e-05 1.3180571e-05 2.890744e-05 3.5769866e-05 1.917314e-05 7.743891e-06 2.0220492e-05
7.64236e-05 4.5326386e-05 6.0633993e-05 3.6068377e-05 1.8209581e-05 2.3928354e-05 5.4078346e-06 2.405157e-05
0.0002026461 0.00016220889 0.00010419287 0.00013601626 0.000108156695 0.00024639943 8.026864e-05 0.00020306415

exp_avg f4 [32]
00000000: 7043 8939 3d3c 803a 0311 263a 0802 77b9
00000010: 05c0 6c3a 1e9a cc3a 0010 51ba d7c5 ee37
00000020: 29ac ec38 ada1 903a 9479 b53a 01ce 7e39
00000030: 7f60 b83a 7a3f 8139 a70e 88ba f22f edb9
00000040: 2d6c 883b 0d52 96ba cc93 093b bf2c 703a
00000050: 343a 54ba 27b6 9eb9 9444 44ba 6f96 c3ba
00000060: 364b 9839 09d0 f337 e9f7 f73a 5fb8 e2ba
00000070: e243 8d39 f5c1 c1ba 1999 5d3a 7fec b839
0.0002618092 0.0009783577 0.00063349324 -0.00023556512 0.00090312987 0.0015609895 -0.00079751015 2.8463937e-05
0.00011285424 0.0011034511 0.0013845437 0.0002430007 0.0014066844 0.0002465209 -0.0010380343 -0.00045239885
0.004163286 -0.0011468545 0.0020992635 0.0009161941 -0.0008095831 -0.00030271822 -0.00074870256 -0.0014922152
0.00029047736 2.9064731e-05 0.0018918487 -0.0017297379 0.00026944192 -0.0014782535 0.0008453294 0.00035271418

exp_avg_sq f4 [32]
00000000: 7ff1 9738 42e0 633a bbbc f339 663f f238
00000010: b210 0639 75c9 013a bd21 8539 da89 8739
00000020: 85b8 233a a2aa 033a 6d2c e739 ca7b 4e3a
00000030: bf25 7339 c308 6738 5d26 3139 fc6c 1e39
00000040: cf03 373b 8cbb 1a3a 0802 ed39 8dee d437
00000050: cbb7 a339 edac 6439 65ab dd3a f101 063a
00000060: 9b0d 173a 1465 ce39 f3fa 7039 1680 2d39
00000070: 4ff2 4f39 bfec cc38 81aa 243a 3c72 173a
7.245223e-05 0.000869278 0.00046489187 0.00011551268 0.00012785455 0.0004950979 0.00025392874 0.00025851914
0.0006245452 0.00050226797 0.00044092853 0.00078767224 0.00023188347 5.508285e-05 0.00016894327 0.00015108654
0.0027925854 0.00059025805 0.00045205676 2.5383453e-05 0.0003122672 0.00021808194 0.0016912041 0.00051119836
0.000576222 0.0003936669 0.0002298167 0.00016546281 0.00019831325 9.7715754e-05 0.00062815106 0.0005777215

exp_avg f4 [32, 32]
00000000: ad72 1437 4e97 5eb8 a3ba 1bb9 ba8c bab8
00000010: ef52 d938 c098 3538 164b b938 8e25 c6b8
00000020: de5d 39b9 1af1 45b8 dda5 80b8 4f97 6937
00000030: af6a c8b8 f5ab a2b8 5d66 0e39 1188 4037
00000040: da04 7438 498d 1a37 e1d8 88b8 aeb1 1539
00000050: dfa8 0db8 fbbc 3fb8 9ab4 26b9 8ada cab8
00000060: 912a 9ab8 c9ae aa38 e75d 8139 6c20 8db7
00000070: 612e e038 608a ffb7 6b03 d238 e6fb f7b8
00000080: 69ee edb9 ebf7 243a aefb 1f3a 92ae 2bb8
00000090: ff68 31ba f686 51b9 a804 6f3a f3c9 cb37
000000a0: 6b69 e239 e92b 3ab9 c9b4 c439 86d0 b6b8
000000b0: 5354 28b9 3019 513a a63c 7e39 8db4 143a
000000c0: c847 5fb9 d3da 0839 09ec a2b9 ce1d a5b9
000000d0: 4049 4c3a 6182 5039 8734 a639 ab51 d039
000000e0: 3dce 6839 bb21 e7b8 0635 f3b9 1e1d a638
000000f0: a63f 0139 4e7d b239 7eae 67b9 f119 1b3a
00000100: 2485 15b9 2fe5 9739 df1c e439 009c 2239
00000110: 1e35 c2b9 b911 13b9 9b83 0939 a6ac 4839
00000120: 7bbf db39 5613 bf37 1795 6739 8fd9 f6b6
00000130: 96e4 9f38 9037 be39 e7de 16b9 4888 0839
00000140: 6e20 4bb9 285b a638 b6fa 3db7 5c5f c1b9
00000150: 2bdc 9c39 85e8 0139 6424 cd39 2070 a739
00000160: 78a5 3339 0fff 13b9 bc43 1dba 7d92 cd38
00000170: bede ecb8 a1b6 3c39 cb7b 77b9 6859 c739
00000180: cbe1 6a38 c41f e4b8 3831 5eb9 10f0 aeb8
00000190: c66c 3939 0c8d 8738 77a2 8b36 56fa c6b8
000001a0: 7b57 70b9 fefa 01b8 da3d c8b8 6893 0938
000001b0: 4dc3 bdb8 02c5 28b9 f36c fc38 0e39 4bb8
000001c0: 0e6a a738 0f45 1737 8e4e 2fb8 11f7 3639
000001d0: 9f42 e8b8 9fc1 97b8 60d1 49b9 b29c 0bb9
000001e0: bdf2 dbb8 fb13 d638 fc26 9a39 e898 8fb7
000001f0: f12b e138 f2e1 82b8 d7cd 0439 dcd5 38b9
00000200: 74dd dd39 7a07 09ba 7660 9cb9 9205 6f39
00000210: 8c1d e239 7957 a238 3cee 8bba 58c9 4339
00000220: 1915 6ab8 1f7b 8739 e250 87b9 eee5 9e38
00000230: 64ef ab39 1767 22ba c5ee 05ba 53ed 19ba
00000240: 9bb4 c637 ecfe eeb8 1020 d939 711f ceb7
00000250: 609a 30ba 76df c6b8 aa84 4738 d278 23b9
00000260: c347 8ab8 1832 5bb8 ca6f d6b8 aa58 3e35
00000270: 453e b1b9 ca84 6eb9 cfca 69b7 bb45 b6b9
00000280: 4595 6138 f6cc 51b8 2e11 20b8 4928 f537
00000290: 0dcc 8b38 6637 ae37 5750 f8b8 af8d c737
000002a0: 05cb b2b7 7a9c ed37 d6ea bbb7 5372 e837
000002b0: aefc a537 cbbe a9b8 381f 42b8 1635 9fb8
000002c0: ecb8 7b37 b776 f336 1da0 1038 f745 3c35
000002d0: 9946 afb8 9d9c c6b7 0de3 d935 0f28 81b7
000002e0: cf9f bdb7 84e1 7237 763b a1b6 1b3f ff36
000002f0: 15d5 74b7 21da 02b8 8684 8537 1356 25b8
00000300: 227f e3b9 2261 493a 940b 743a 44dd 5339
00000310: 86e2 60ba 5644 9cb9 4403 313a cd25 9639
00000320: 0366 4e3a 9629 4cb8 4b20 0a3a ea32 2ab8
00000330: 84c7 28b5 0daa 703a db2e 7bb8 f63d fa39
00000340: fb50 bcb9 ea04 4c39 4b05 44b9 e5f2 2eba
00000350: 92d8 583a 1568 8439 d85e 363a 3db3 2a3a
00000360: 242d ab39 0ecb 7eb9 72ae 8bba 2aeb 3f39
00000370: 911c 9eb8 3fa0 dc39 cd31 e8b9 fa36 613a
00000380: 68a1 2eba 23c8 6c3a 1775 5f3a dd59 c3b8
00000390: 3be6 7cba f8cc 8eb9 2d85 b33a 8f51 f7b5
000003a0: 5136 1a3a 7f1d 93b9 c7db 0a3a 19f3 0bb9
000003b0: 5cc9 83b9 cf47 973a e32c d039 3b1a 5d3a
000003c0: 9a1a 96b9 f8df 4039 d661 f6b9 f2d9 d8b9
000003d0: 4795 943a 0a8e 9639 12b6 d939 a7c0 0f3a
000003e0: 7b68 a539 62a0 13b9 ff98 1cba 7a1c d038
000003f0: 0599 5e39 c53f fe39 6f94 95b9 5da1 593a
8.8481875e-06 -5.3069838e-05 -0.0001485148 -8.8953835e-05 0.00010362814 4.3296022e-05 8.835473e-05 -9.448371e-05
-0.00017677943 -4.7193003e-05 -6.13441e-05 1.39231115e-05 -9.5566145e-05 -7.7567915e-05 0.00013580309 1.1475772e-05
5.817865e-05 9.212011e-06 -6.525382e-05 0.00014275938 -3.3774293e-05 -4.571395e-05 -0.00015898273 -9.672817e-05
-7.351221e-05 8.138788e-05 0.0002467476 -1.6823607e-05 0.00010689791 -3.0462805e-05 0.00010014217 -0.000118247975
-0.00045381792 0.0006293046 0.0006102872 -4.093216e-05 -0.000676766 -0.0001998207 0.00091178203 2.4293526e-05
0.00043184622 -0.000177547 0.0003751873 -8.717277e-05 -0.00016053142 0.00079764705 0.00024245921 0.0005672656
-0.00021293678 0.00013051489 -0.00031074908 -0.0003149346 0.00077928975 0.00019884996 0.00031701123 0.000397337
0.00022202074 -0.00011021221 -0.00046388077 7.92092e-05 0.0001232611 0.00034044165 -0.0002209488 0.00059166463
-0.00014259346 0.0002897172 0.0004350906 0.00015507638 -0.0003704214 -0.00014025615 0.00013114365 0.00019137803
0.000419136 2.2777978e-05 0.00022085417 -7.3566985e-06 7.624288e-05 0.0003628102 -0.00014388152 0.0001302074
-0.0001937167 7.932476e-05 -1.1323651e-05 -0.00036882877 0.00029918677 0.00012389019 0.0003912776 0.00031936262
0.00017132412 -0.00014114029 -0.0005999168 9.802447e-05 -0.00011294846 0.00017997112 -0.00023601872 0.0003802285
5.6000234e-05 -0.00010877804 -0.00021189905 -8.341682e-05 0.00017683496 6.463574e-05 4.161436e-06 -9.4880044e-05
-0.00022920773 -3.098975e-05 -9.548264e-05 3.2800628e-05 -9.0486e-05 -0.0001609512 0.0001203659 -4.8452108e-05
7.982935e-05 9.01638e-06 -4.179641e-05 0.00017448912 -0.00011075031 -7.236306e-05 -0.00019246852 -0.00013314447
-0.00010487947 0.00010208037 0.00029402215 -1.7118131e-05 0.00010737021 -6.240969e-05 0.00012665182 -0.00017627276
0.000423174 -0.00052272493 -0.00029826508 0.00022794891 0.00043128093 7.741055e-05 -0.0010675858 0.00018671656
-5.5809596e-05 0.0002584094 -0.0002580947 7.576855e-05 0.00032794022 -0.0006195171 -0.0005109127 -0.0005871851
2.368754e-05 -0.00011396207 0.00041413354 -2.4571755e-05 -0.0006736871 -9.4829986e-05 4.756885e-05 -0.000155899
-6.5937194e-05 -5.2260322e-05 -0.000102251375 7.090954e-07 -0.00033806465 -0.00022746917 -1.3935102e-05 -0.00034765698
5.37832e-05 -5.0020368e-05 -3.8162972e-05 2.9225035e-05 6.666044e-05 2.0768213e-05 -0.00011840526 2.3788625e-05
-2.1313792e-05 2.8325467e-05 -2.2401491e-05 2.7709792e-05 1.9787196e-05 -8.094086e-05 -4.628228e-05 -7.591599e-05
1.5003821e-05 7.2557846e-06 3.4481393e-05 7.013727e-07 -8.3578e-05 -2.3676368e-05 1.623384e-06 -1.5396652e-05
-2.2604972e-05 1.4476831e-05 -4.805096e-06 7.6069387e-06 -1.4593145e-05 -3.1197564e-05 1.5916547e-05 -3.941923e-05
-0.00043391535 0.00076820154 0.00093095866 0.00020204956 -0.00085786765 -0.00029805553 0.0006752501 0.00028638393
0.00078734773 -4.867612e-05 0.0005269094 -4.0578576e-05 -6.287521e-07 0.0009180613 -5.98867e-05 0.0004772988
-0.0003591849 0.00019456787 -0.00018693988 -0.00066737673 0.00082720176 0.0002525455 0.0006956882 0.0006511694
0.00032649294 -0.00024298971 -0.0010656847 0.00018302785 -7.539348e-05 0.00042081063 -0.00044287593 0.0008591261
-0.00066616246 0.0009032508 0.00085242226 -9.315063e-05 -0.0009647344 -0.00027237064 0.0013696306 -1.8426671e-06
0.00058827276 -0.0002806 0.00052970316 -0.00013346634 -0.00025136292 0.0011541786 0.00039706295 0.00084343896
-0.0002863005 0.00018393982 -0.0004699367 -0.00041361112 0.0011335992 0.00028716057 0.00041525118 0.00054837245
0.00031549096 -0.0001407876 -0.0005973726 9.923517e-05 0.00021228574 0.00048494167 -0.00028530086 0.0008301938

exp_avg_sq f4 [32, 32]
00000000: e8ea 6236 b154 2a37 c888 e636 7a05 9336
00000010: f6b6 7f36 e2a7 8537 0047 4037 f2e0 1737
00000020: 74ef b035 9813 e436 ec28 dd36 8022 1037
00000030: 44d5 9936 07ff 8a36 2d81 af36 52c9 a936
00000040: 06d3 e436 2441 6f37 250b b036 08f7 9536
00000050: 7fe1 d536 2474 4f36 9c71 3537 7fbd 0437
00000060: 5acb 8036 e89e 4b37 c3b5 bc36 3d71 fc36
00000070: 14de 3437 a5ec da36 a9b4 d137 68cd 5c37
00000080: 725c 4337 c701 fe37 19fe 8b37 ba6a 6837
00000090: 2b4c 3d37 63eb ae37 c1d8 5d38 2270 9f37
000000a0: ab1e ba36 0b5f 5837 ad03 9937 a37a 5e37
000000b0: 4bc1 6c37 0ed1 8d37 5924 b637 d2c4 d837
000000c0: fed7 db37 a051 b537 d4ae 6437 2097 0838
000000d0: ae98 c637 91b0 c536 e8dc 9537 3522 7a37
000000e0: b8a5 a736 74e4 4637 5092 4738 f576 2d37
000000f0: 60fd be37 d274 4537 1758 0a38 6833 e337
00000100: d11e 1237 58df bd37 358b 4e37 1e15 3337
00000110: 1f7d f436 3c2a 8837 e615 2738 439a 6737
00000120: 3d94 8836 1d3c 4637 fba4 8037 4a2a 2037
00000130: 123f f036 59ed 3e37 3302 9437 c327 9e37
00000140: 85a1 9a37 9364 8137 809e 0937 3519 b537
00000150: 0bc7 5b37 360c c436 b7b4 4c37 4cca 1c37
00000160: 640d 9836 f07b 3b37 6a46 0538 b431 cb36
00000170: 1e45 a137 d01a d236 a239 e937 ec57 a837
00000180: 1218 8e36 ac73 5637 16e4 1037 d015 c736
00000190: 1d3f 9836 a219 7537 cf31 7537 d010 4037
000001a0: adad f335 0dc7 0d37 f11a 1037 2e8a 2837
000001b0: fc81 c736 2eba ab36 5107 f236 06e8 d136
000001c0: d5ef 1437 e8eb 9537 48fc e536 02ae c836
000001d0: 6f92 0037 14b8 8836 bc65 7537 cf39 2d37
000001e0: 6f87 8b36 6dd0 4137 732d 0437 60e0 0e37
000001f0: 4430 4c37 983f 0f37 125d d037 9923 7937
00000200: 6674 d636 b564 3037 09fd e236 94a7 e036
00000210: 069c 0237 ec4b 5837 7abe a737 fee4 3a37
00000220: 77bb 2d36 d1fc 8336 185c 9e36 41e9 5f37
00000230: 3da4 8c37 b1a9 f536 9933 f436 a5af 3037
00000240: 8841 af37 8416 ab37 539d 7537 a6b2 c437
00000250: ab1d 8f37 cf5c e135 782e 8c37 1229 9037
00000260: 19c2 3536 46b3 e336 b738 1c38 5d6f 8737
00000270: 4cc7 f136 970c 7c37 61da 8737 ca9b 2c37
00000280: 27b7 c335 10f0 aa36 beec 7636 d7eb 0736
00000290: a443 d835 725d 1c37 3ac2 d636 1924 a336
000002a0: 3a88 4435 e7f9 8f36 c6ac 4336 91af 9636
000002b0: 173b 3036 f439 0936 ca30 4036 9ea9 3136
000002c0: e151 2f36 d0e3 0137 5bcf 4f36 4ef2 1f36
000002d0: 2d15 4f36 6ae4 9035 99c6 9836 e900 8936
000002e0: 7a04 ed35 e80b f836 c202 2336 d90b 8d36
000002f0: bc75 d536 f87b 4e36 8045 7137 0343 1637
00000300: a11f bf37 277a 8738 c964 3338 af52 0f38
00000310: b2e8 b337 3016 3938 a77e e338 e060 6038
00000320: 59e4 6037 8d26 1738 9f44 2c38 f87b 1738
00000330: a5a4 ce37 e03c 0d38 631a 4c38 5aea 5738
00000340: 3d5b 1f38 a844 8038 f3dc e337 2915 6338
00000350: fb28 3738 c359 6537 425d 5138 b45d 2938
00000360: 8754 4037 51a9 fb37 2e4b a138 d758 ea37
00000370: a179 6038 a0ac e537 d606 9938 e094 9538
00000380: d134 db37 9180 8638 384d 0c38 cadc e337
00000390: ce24 ce37 e024 7938 40c4 ef38 6dff 1a38
000003a0: 1c42 4137 91d3 ee37 9202 2438 5aac 0138
000003b0: 7d4e 0238 58c8 1338 685c 4538 77f0 6638
000003c0: cdfc 6c38 567a 4c38 4dd5 0038 d67f 8d38
000003d0: 259d 4938 4484 6637 54a6 0d38 c567 fa37
000003e0: a168 6637 285a 2338 3770 cc38 891e cb37
000003f0: 73f5 7638 5904 ca37 0b7e c138 1622 7038
3.3813358e-06 1.0152508e-05 6.8704576e-06 4.381579e-06 3.8104458e-06 1.5933012e-05 1.1460623e-05 9.0526755e-06
1.3182712e-06 6.7972105e-06 6.591077e-06 8.5911015e-06 4.5845827e-06 4.1424096e-06 5.2304445e-06 5.0600293e-06
6.819496e-06 1.4260677e-05 5.246506e-06 4.4693043e-06 6.374146e-06 3.0913006e-06 1.0814892e-05 7.911934e-06
3.8383705e-06 1.2136741e-05 5.6239965e-06 7.523368e-06 1.0780543e-05 6.5244553e-06 2.4998868e-05 1.3160847e-05
1.164443e-05 3.0279987e-05 1.6688415e-05 1.3853127e-05 1.1283012e-05 2.0852027e-05 5.2892374e-05 1.9006493e-05
5.546802e-06 1.2896732e-05 1.8240733e-05 1.3260785e-05 1.4111701e-05 1.6905859e-05 2.1713016e-05 2.5840858e-05
2.6207414e-05 2.1614891e-05 1.3630564e-05 3.2565673e-05 2.3674536e-05 5.8916125e-06 1.7865052e-05 1.4909126e-05
4.99628e-06 1.1854911e-05 4.758156e-05 1.03393e-05 2.2767752e-05 1.1769314e-05 3.2983804e-05 2.7084447e-05
8.709453e-06 2.2634558e-05 1.23109685e-05 1.0674148e-05 7.2863327e-06 1.623213e-05 3.9836297e-05 1.380459e-05
4.070373e-06 1.1815716e-05 1.5335614e-05 9.546589e-06 7.1598997e-06 1.1380144e-05 1.7643999e-05 1.8853583e-05
1.8433444e-05 1.5424832e-05 8.20274e-06 2.158862e-05 1.30997605e-05 5.8426767e-06 1.22014235e-05 9.3454255e-06
4.531512e-06 1.1174925e-05 3.177525e-05 6.0556576e-06 1.922488e-05 6.261609e-06 2.7802602e-05 2.0068102e-05
4.234732e-06 1.2782326e-05 8.636174e-06 5.9332015e-06 4.5373004e-06 1.4609106e-05 1.4614735e-05 1.1448006e-05
1.8155457e-06 8.4506e-06 8.589342e-06 1.0045753e-05 5.9457943e-06 5.1178713e-06 7.2130138e-06 6.2556965e-06
8.877328e-06 1.7872037e-05 6.8541012e-06 5.9807217e-06 7.663489e-06 4.0745454e-06 1.4626825e-05 1.0325063e-05
4.1582894e-06 1.1552224e-05 7.878395e-06 8.516101e-06 1.2170585e-05 8.538271e-06 2.4838871e-05 1.4849845e-05
6.3912476e-06 1.0513865e-05 6.764782e-06 6.695229e-06 7.784931e-06 1.289228e-05 1.9996649e-05 1.113978e-05
2.5888128e-06 3.933536e-06 4.719488e-06 1.3346144e-05 1.676578e-05 7.3213237e-06 7.2777734e-06 1.0531313e-05
2.0892141e-05 2.0395273e-05 1.4639768e-05 2.344821e-05 1.7060744e-05 1.6790817e-06 1.671094e-05 1.7185263e-05
2.7084081e-06 6.7859974e-06 3.7246118e-05 1.6145112e-05 7.205561e-06 1.5023302e-05 1.6194945e-05 1.0288271e-05
1.4581937e-06 5.0943418e-06 3.6794659e-06 2.0253844e-06 1.611294e-06 9.3200815e-06 6.400308e-06 4.861981e-06
7.3213926e-07 4.2908246e-06 2.9157832e-06 4.490787e-06 2.6260439e-06 2.0448324e-06 2.8638628e-06 2.6473786e-06
2.6124692e-06 7.742041e-06 3.09661e-06 2.3833886e-06 3.085773e-06 1.0795313e-06 4.553073e-06 4.083024e-06
1.7659179e-06 7.392362e-06 2.4290498e-06 4.2035067e-06 6.3616008e-06 3.0768551e-06 1.4380901e-05 8.956299e-06
2.2783703e-05 6.460054e-05 4.277079e-05 3.4170862e-05 2.144682e-05 4.41281e-05 0.00010847794 5.3495984e-05
1.3404607e-05 3.603711e-05 4.1071904e-05 3.611666e-05 2.4633782e-05 3.3673714e-05 4.8661965e-05 5.147825e-05
3.7993526e-05 6.116304e-05 2.7163396e-05 5.4140724e-05 4.3668766e-05 1.3670363e-05 4.9916336e-05 4.0380008e-05
1.1463772e-05 3.0000376e-05 7.6910816e-05 2.7936343e-05 5.3519037e-05 2.7379312e-05 7.296882e-05 7.132604e-05
2.6131429e-05 6.413565e-05 3.3450517e-05 2.7163322e-05 2.4574252e-05 5.940057e-05 0.000114329625 3.6954345e-05
1.1519089e-05 2.847033e-05 3.910304e-05 3.091651e-05 3.1067513e-05 3.5234116e-05 4.705452e-05 5.5060224e-05
5.6502224e-05 4.8751324e-05 3.071623e-05 6.747215e-05 4.8068487e-05 1.3739864e-05 3.3771925e-05 2.9850644e-05
1.3733429e-05 3.8946193e-05 9.74838e-05 2.4213705e-05 5.8879563e-05 2.4082301e-05 9.2264345e-05 5.7252204e-05

exp_avg f4 [32]
00000000: 706d bc39 d734 c9b9 c307 43ba 9a83 cf39
00000010: fbcd 9bb9 7bce 7db8 6ed9 a4ba 9ae4 f2b9
00000020: 2a20 59ba f119 d43a 9cc3 a939 1620 bcb9
00000030: d062 c937 b6ac 9f3a c8cc bbba 7f58 1037
00000040: e716 0c39 8652 9eb9 04f0 02b9 fe79 a2ba
00000050: a62a 323a d1c6 7c38 dd31 84b9 297e 93b8
00000060: b1ce dfba ed66 66b7 a407 7338 df81 7c3a
00000070: b040 883a c761 4cb6 e838 1b39 a692 ad3a
0.00035939692 -0.00038377076 -0.0007439816 0.00039580168 -0.0002971737 -6.05122e-05 -0.0012577006 -0.00046328158
-0.0008282686 0.0016182048 0.00032379932 -0.0003588206 2.400708e-05 0.0012182209 -0.0014327997 8.603673e-06
0.00013359972 -0.00030197593 -0.00012487179 -0.0012395976 0.0006796516 6.0266644e-05 -0.00025214153 -7.0330054e-05
-0.0017075149 -1.3733033e-05 5.794283e-05 0.00096323894 0.0010395255 -3.0455283e-06 0.00014803151 0.0013242557

exp_avg_sq f4 [32]
00000000: 308b 4239 7828 a039 17c5 8239 4b0a 3939
00000010: 2862 0939 6fed 1039 1f3d 4e3a 9d81 523a
00000020: 3143 6839 577f b839 f614 f239 c327 ca38
00000030: 6f73 5339 4151 b339 13f1 cc39 6329 2338
00000040: c9a9 8e38 f1ab c337 8e4b 3336 6678 323a
00000050: a255 5039 3b5b 0038 52c3 c438 7284 df38
00000060: 3134 153a df43 9f37 f0f0 6039 07c8 2339
00000070: ce99 4839 8774 c535 2bcc 3938 83ad d639
0.00018553133 0.0003054773 0.00024942376 0.0001764681 0.00013101904 0.00013821361 0.0007867384 0.0008030178
0.00022150275 0.0003519009 0.00046173454 9.639517e-05 0.0002016553 0.0003420208 0.00039089526 3.8900773e-05
6.8027126e-05 2.3325878e-05 2.6717057e-06 0.0006808102 0.00019868326 3.0602543e-05 9.3823895e-05 0.000106581385
0.0005691676 1.8985882e-05 0.00021452061 0.00015619407 0.00019130783 1.4711558e-06 4.4297583e-05 0.00040946537

exp_avg f4 [1, 32]
00000000: 2935 683b d0e3 483a e648 59ba b706 8e3b
00000010: 3f63 8fba c064 c93a 7d0c 78ba 2e1e 19bb
00000020: b8e0 be3a 1ba7 7ebb 02de 91bb b6b6 90bb
00000030: 2072 3ebb b150 a1bb 83c0 303b 0c35 653b
00000040: 1cc3 4abb c862 8c3a f336 1abb 24c2 f53a
00000050: 846e 1e3a abaa 6f3a a0df 30bb d6f0 e13a
00000060: 8e70 943a 997c 34b9 b779 173b 5de3 f83a
00000070: 2036 2fbb 732a 37b9 445b b93b 314c 493b
0.0035432077 0.0007663341 -0.0008288756 0.0043342966 -0.0010939612 0.0015365109 -0.000946231 -0.0023363936
0.0014562821 -0.0038856927 -0.004451514 -0.004416312 -0.0029059723 -0.0049229492 0.0026970215 0.0034974245
-0.0030939048 0.0010710591 -0.0023531287 0.0018749875 0.000604369 0.0009142558 -0.002698876 0.0017237912
0.0011325048 -0.00017212554 0.002311332 0.0018988658 -0.0026735142 -0.00017468054 0.0056566317 0.003071558

exp_avg_sq f4 [1, 32]
00000000: 6e4f 013b 4483 403b 1661 063b 17a9 083b
00000010: 9de0 133b bf7b 0e3a 6fce ea3a 690c 513b
00000020: 5276 4a3a 9cc7 933a 5257 493b 8b9b c33a
00000030: 718e e53a 6efe 103b 0542 0c3a 613a db3a
00000040: e15f 203a e1ba e939 7692 c939 1726 da3a
00000050: 6ac7 8b3a 1b4b b339 f484 323a 9c52 a73a
00000060: 4943 183b 983e 333a 6275 b43a e1b2 8a3a
00000070: 0e47 db3a 9f12 8238 a3cb 6e3b 5d34 e63a
0.0019731182 0.0029375115 0.0020504645 0.0020852739 0.00225643 0.000543531 0.0017914305 0.0031898266
0.00077233196 0.0011274698 0.0030722213 0.0014923675 0.0017513764 0.0022124308 0.0005350414 0.0016725772
0.00061178027 0.0004458046 0.0003844683 0.0016643432 0.0010664288 0.00034197498 0.00068099727 0.0012765708
0.0023233464 0.00068376353 0.0013767893 0.0010581875 0.001672955 6.2023515e-05 0.0036437295 0.0017563213

exp_avg f4 [1, 32]
00000000: 77f3 ec3a 6ed0 60bb 8166 ceba 3ef8 e83a
00000010: 0844 d3ba 3013 0cb9 e724 b037 51d0 3ebb
00000020: 3a54 a7ba bd71 d4b9 91b3 00bb 50ec 6c3a
00000030: f7a5 5cba 6a2e 413a f37d 9b39 da16 0a3b
00000040: 1fe8 d63a 513e fd39 c8db 593a c810 06bb
00000050: b1ad 97ba 303f 503a 6d5e 963a 7afa a93a
00000060: d0e1 c2ba d204 2fb9 c957 9d3a d5c2 333b
00000070: e7be 0bba 205b 11b5 6440 5c3b bb79 f53a
0.0018077929 -0.0034303921 -0.0015747101 0.0017774177 -0.0016118297 -0.00013358588 2.0998019e-05 -0.0029115865
-0.001276619 -0.00040520533 -0.001963828 0.0009037899 -0.00084170647 0.0007369282 0.00029657743 0.002107075
0.0016396082 0.0004830235 0.0008310643 -0.002045678 -0.001157215 0.0007943986 0.0011472233 0.0012968325
-0.0014868323 -0.00016691096 0.0012004311 0.0027429361 -0.0005330876 -5.4149314e-07 0.0033607716 0.0018728295

exp_avg_sq f4 [1, 32]
00000000: 7854 583a 42d2 843a 7530 c339 efcf 493a
00000010: 882a 0a3a 16a4 3839 9633 f339 608c 363a
00000020: f986 8b39 eb14 2f3a 4204 243a e8e9 113a
00000030: 7d2c 9039 4903 183a 54c5 043a 738b 003a
00000040: 834e ef39 4aeb cd39 d62f 7138 e8a2 773a
00000050: 26e6 8d39 6c8c 0939 af84 2539 d86c 8939
00000060: fd49 2c3a 86a2 3b39 d992 093a 949d 6539
00000070: 324d 0a3a 58b1 9837 2f9d b23a 61fe 073a
0.0008252333 0.0010133462 0.00037229402 0.0007698526 0.000527062 0.00017608734 0.00046387006 0.00069636665
0.00026612708 0.0006678837 0.0006256738 0.0005566166 0.00027498967 0.00057988294 0.00050648046 0.0004903592
0.00045644128 0.0003927595 5.750343e-05 0.0009446577 0.0002706509 0.0001311765 0.00015785055 0.0002621177
0.00065723044 0.00017894254 0.0005248017 0.00021897844 0.0005275785 1.8202394e-05 0.0013627167 0.0005187747
