IsaacGymEnvs/runs/Cartpole_11-02-20-21/nn/last_Cartpole_ep_25_rew_162.62842.pth (torch, 30020 bytes, 24 tensors)

value_mean_std.running_mean f8 [1]
0	0x4006658b2e33f89a	2.7995818719492265

value_mean_std.running_var f8 [1]
0	0x4013b46a4059a538	4.926186566802521

value_mean_std.count f8 []
0	0x4119000400000000	409601.0

running_mean_std.running_mean f8 [4]
0	0xbfa79943a4b72774	-0.04609118829428285
1	0xbfb00b6e8e4305ad	-0.0626744363135205
2	0xbf7ebdb1ba4201d7	-0.007505125282591916
3	0xbfa7437868cf3a9f	-0.04543663291371058

running_mean_std.running_var f8 [4]
0	0x3ff000a8a45086e4	1.000160829404586
1	0x4021094db7b77ef7	8.518171063565644
2	0x3fc23f58d655e26f	0.14255819764709396
3	0x401fb146d44fcb92	7.923121754999459

running_mean_std.count f8 []
0	0x4109000800000000	204801.0

a2c_network.actor_mlp.0.weight f4 [32, 4]
0	0xbe09bb15	-0.13450272
1	0x3d40fa38	0.047113627
2	0xbea57a33	-0.32319793
3	0x3e3bead0	0.18351293
4	0x3ef5f9ab	0.48042044
5	0xbea99977	-0.33124897
6	0x3f0a844e	0.5410813
7	0x3e15f1e1	0.1464305
8	0x3eb2f514	0.34952605
9	0x3d50a445	0.05093791
10	0x3ea39d71	0.31956056
11	0xbde5f406	-0.112281844
12	0x3e8fd894	0.28094923
13	0x3d79036e	0.060794286
14	0xbdfa6e34	-0.12228051
15	0x3e324a15	0.17411073
16	0xbe7d3de8	-0.24730647
17	0xbdeb7242	-0.11496402
18	0xbe9da709	-0.307915
19	0x3e33c3f3	0.17555217
20	0xbebf2a3b	-0.37336907
21	0xbd3f7cab	-0.046749752
22	0xbe08983d	-0.13339324
23	0xbe254f6c	-0.16143578
24	0x3dbc48ff	0.091936104
25	0xbf017a93	-0.5057766
26	0x3ed8f1eb	0.4237207
27	0xbeea1b36	-0.45723885
28	0x3ef98193	0.4873167
29	0x3d372250	0.044710457
30	0xbe45d8a9	-0.1932093
31	0x3e1fca5d	0.15604539
32	0x3d0e3e50	0.034727395
33	0x3ea93e32	0.33055264
34	0x3cca3568	0.02468367
35	0xbe96bc9a	-0.29440767
36	0x3d686365	0.056735415
37	0xbe43610e	-0.19079992
38	0x3eb9b00d	0.3626713
39	0x3ee5fbf9	0.44918802
40	0x3e92d128	0.286752
41	0xbe4cdaea	-0.20005384
42	0x3ec99bec	0.3937677
43	0x3df11867	0.117722325
44	0x3ed76d5c	0.42075622
45	0xbc971a88	-0.018445268
46	0xbf18af17	-0.59642166
47	0xbd6c1c00	-0.05764389
48	0xbf124514	-0.57136655
49	0x3e781f1f	0.24230622
50	0x3e80ce07	0.25157186
51	0x3c489db2	0.012244629
52	0x3dfdc7c9	0.123916216
53	0xbd607b76	-0.05480524
54	0x3eb51b41	0.35372356
55	0xbec7071d	-0.38872615
56	0x3d46b967	0.048516657
57	0xbea775a6	-0.32706946
58	0xbd54fafd	-0.051997174
59	0xbe817dfe	-0.25291437
60	0xbd44d7e4	-0.04805745
61	0xbe1c9b86	-0.15293702
62	0x3ef61621	0.48063758
63	0xbe453665	-0.19259031
64	0xbf0baab2	-0.54557335
65	0xbea60b4b	-0.3243049
66	0x3f283c92	0.6571742
67	0x3e81e2f8	0.25368476
68	0x3f0f3197	0.55935043
69	0xbdbda711	-0.09260381
70	0xbf3e1718	-0.7425399
71	0xbe7ae665	-0.24501951
72	0xbeec1de9	-0.4611657
73	0x3d8a14e4	0.06742266
74	0x3eaf5a93	0.3424879
75	0x3e8b29cc	0.27180326
76	0xbf013df4	-0.5048516
77	0xbe93b7ed	-0.28851262
78	0x3ecd35f3	0.40080222
79	0x3d1beb2b	0.03806607
80	0x3ebaba4b	0.36470255
81	0xbda24c35	-0.079246916
82	0x3e7aed0a	0.24504486
83	0xbe91b0d9	-0.28455237
84	0xbe266e62	-0.16253045
85	0x3e0dd5c1	0.13851072
86	0xbd2b9f98	-0.041900247
87	0xbe810b61	-0.25203994
88	0x3ee61937	0.44941112
89	0x3ed207ed	0.41021672
90	0xbf0e2700	-0.5552826
91	0xbebb727e	-0.36610788
92	0x3f0f5647	0.55991024
93	0x3e24da0f	0.16098808
94	0xbee950cc	-0.45569456
95	0xbe92eb77	-0.2869527
96	0xbe692818	-0.22769201
97	0x3e80f629	0.25187805
98	0xbc9e3d0b	-0.019316217
99	0xbea6f9f9	-0.3261259
100	0x3d9ec206	0.07751851
101	0xbe024374	-0.12721044
102	0xbef4283d	-0.4768695
103	0xbe4dc7e6	-0.20095786
104	0xbf34acf6	-0.7057642
105	0xbea64aea	-0.3247903
106	0x3ee5e7a7	0.449033
107	0x3de0a939	0.10969777
108	0x3f0cbf88	0.54979753
109	0x3d2dda6b	0.042444628
110	0xbf01455e	-0.5049647
111	0xbcbca9f3	-0.023030257
112	0xba2254af	-0.00061924284
113	0xbebfd598	-0.37467647
114	0xbea52b07	-0.3225939
115	0xbe950821	-0.29107764
116	0x3edef970	0.4354968
117	0x3de40428	0.11133605
118	0xbe838030	-0.25683737
119	0xbe541f0c	-0.20714968
120	0xbedb6389	-0.42849377
121	0xbdf95749	-0.121748514
122	0xbea405cc	-0.32035673
123	0xbe9f4b02	-0.31111914
124	0x3ee3281b	0.44366536
125	0xbe1d8dc8	-0.15386117
126	0x3f08d76d	0.53453714
127	0x3df7492b	0.120745026

a2c_network.actor_mlp.0.bias f4 [32]
0	0xbe458981	-0.19290735
1	0xbe547440	-0.20747471
2	0xbe55fd24	-0.20897347
3	0xbe76aea4	-0.24090058
4	0xbe3496a4	-0.1763559
5	0xbe2e6eb6	-0.1703442
6	0x3e2d8c31	0.1694801
7	0xbe5d3de6	-0.21605644
8	0xbe2b491b	-0.16727106
9	0xbe34d2b8	-0.17658508
10	0xbe4aa874	-0.19790822
11	0xbe48f3ed	-0.196243
12	0xbe261f01	-0.16222765
13	0x3e01ccf6	0.12675843
14	0x3e3c352a	0.18379655
15	0x3e536616	0.20644411
16	0xbe6bb1ad	-0.23016997
17	0xbe433237	-0.19062124
18	0xbe32a53a	-0.17445841
19	0x3e9c1ea2	0.3049212
20	0x3e175577	0.14778696
21	0x3dc93b60	0.09825778
22	0xbe56dd6f	-0.20982908
23	0xbe137c38	-0.14402854
24	0x3c175dcb	0.009238671
25	0xbdf1bafa	-0.11803241
26	0x3e7a8538	0.24464881
27	0xbd0e89d6	-0.03479942
28	0xbe1e86f8	-0.15481174
29	0x3e122cc3	0.14274888
30	0xbe05a229	-0.1305014
31	0xbe50943a	-0.20369044

a2c_network.actor_mlp.2.weight f4 [32, 32]
0	0x3d965ce1	0.07341934
1	0x3dc05749	0.09391648
2	0x3d2c6c87	0.042095687
3	0x3e654bd1	0.22392203
4	0x3d905ad3	0.07048573
5	0xbd005d38	-0.0313389
6	0xbe1615ae	-0.14656708
7	0x3d4a17a0	0.049338937
8	0x3e5c7b05	0.21531303
9	0xbc805149	-0.01566376
10	0xbbd2f797	-0.0064382064
11	0x3dcf9c4b	0.101372324
12	0xbe32fff1	-0.17480446
13	0xbc119ef7	-0.008887998
14	0x3d981de6	0.07427578
15	0xbe884a12	-0.2661901
16	0xbc911112	-0.017708335
17	0x3e5480aa	0.20752206
18	0xbd042a3a	-0.032266833
19	0xbe2c0455	-0.16798528
20	0x3cb570f6	0.02214859
21	0x3d818a45	0.06325201
22	0x3e6be00b	0.23034684
23	0xbb231434	-0.0024883868
24	0x3c27ab37	0.010233692
25	0x3de5fb44	0.11229566
26	0xbeb9b264	-0.36268914
27	0x3d0cbff7	0.03436276
28	0x3e41cd06	0.18925866
29	0x3e568035	0.20947345
30	0x3cb371f1	0.021904917
31	0x3d9c9c82	0.07647039
32	0xbdce1b3e	-0.1006379
33	0xbc9e91de	-0.019356664
34	0x3c2d5c1a	0.010581041
35	0x3c1493dd	0.0090684565
36	0xbe84473e	-0.25835603
37	0xbe4acd73	-0.19804935
38	0x3e858e06	0.26084918
39	0xbc0b74e9	-0.00851176
40	0xbe506c64	-0.20353848
41	0xbd75c7bb	-0.06000493
42	0xbdcbd621	-0.09952951
43	0xbedb9707	-0.42888662
44	0xbdc41e56	-0.095760986
45	0x3dae2feb	0.085052334
46	0x3e2bc782	0.16775325
47	0x3e06747a	0.1313037
48	0xbeaa2256	-0.3322932
49	0xbe835420	-0.2565012
50	0xbbaf9282	-0.0053580413
51	0x3e78c043	0.24292092
52	0x3db5aa6c	0.08870396
53	0xbd8038b5	-0.06260816
54	0xbe8c0a96	-0.27351826
55	0xbe26e1bb	-0.16297047
56	0xbe736afa	-0.23771277
57	0xbbd9c0c8	-0.006645296
58	0xbdda86bd	-0.106702305
59	0xbdf2b428	-0.11850768
60	0xbe5e44de	-0.21705958
61	0x3da7f29c	0.08200571
62	0x3d2bf364	0.041980162
63	0x3d74876f	0.059699472
64	0xbe2d4cba	-0.169238
65	0xbe91263e	-0.2834949
66	0xbe6797bb	-0.22616474
67	0x3dd313c9	0.10306508
68	0x3cba63ab	0.022752604
69	0x3d9428ba	0.072343305
70	0x3e4d0946	0.20023069
71	0xbba784c4	-0.0051122624
72	0xbe0ef3f0	-0.13960242
73	0xbe5fc00b	-0.21850602
74	0xbe65653e	-0.22401902
75	0xbe869565	-0.26285854
76	0xbc844048	-0.016143933
77	0xbc63f000	-0.013912201
78	0x3dc3b618	0.09556216
79	0xbc84a486	-0.016191732
80	0xbe8a2591	-0.26981786
81	0xbde8976a	-0.11357005
82	0xbe454c89	-0.19267477
83	0xbd3ab1e9	-0.045579825
84	0x3da1cd38	0.079004705
85	0x3dae8828	0.085220635
86	0xbe89ff0e	-0.26952404
87	0xbd746869	-0.059669886
88	0xbdbcd156	-0.09219615
89	0xbdfe8e17	-0.12429445
90	0xbe76713f	-0.24066637
91	0xbd4a43ad	-0.049380947
92	0x3df640e2	0.12024094
93	0xbd0f9ad1	-0.035059754
94	0x3d848360	0.0647037
95	0xbcaccee0	-0.02109474
96	0x3dd34515	0.10315911
97	0xbc04b1e6	-0.008099055
98	0x3e856789	0.26055554
99	0x3c2a9761	0.010412068
100	0x3d8bf17c	0.06833169
101	0x3e60a989	0.21939673
102	0xbd96a6f7	-0.07356065
103	0x3d82809b	0.06372186
104	0x3dbc8bd2	0.09206356
105	0xbe06e043	-0.13171487
106	0x3e3cdcaa	0.18443552
107	0x3c361c09	0.011115083
108	0x3d530762	0.051520713
109	0x3da95ed9	0.08270044
110	0x3ddf2e5c	0.10897514
111	0xbe0a97ae	-0.13534424
112	0xbe6019c7	-0.21884833
113	0x3e33a2e0	0.175426
114	0x3c60055c	0.013673153
115	0xbea04c8b	-0.31308398
116	0xbdadb7e3	-0.08482339
117	0xbe189ae4	-0.14902836
118	0x3e3178b5	0.17331202
119	0xbcb3667e	-0.021899458
120	0xbcb2582f	-0.021770565
121	0x3d3c58a1	0.04598296
122	0xbf06db8f	-0.5267877
123	0x3e75ae70	0.23992324
124	0x3e67b249	0.22626604
125	0x3d15840d	0.036502887
126	0x3ba547f5	0.0050439783
127	0x3d433a58	0.047663063
128	0xbe58379d	-0.21114965
129	0xbeaee3db	-0.34158215
130	0xbdab62a3	-0.08368423
131	0xbe5ff1e5	-0.21869619
132	0xbde3f73b	-0.1113114
133	0xbd2eed4e	-0.04270678
134	0x3daca441	0.084297664
135	0xbe3cff7e	-0.18456838
136	0xbe0e2a0a	-0.13883224
137	0xbe22288c	-0.1583578
138	0xbe5cc3fb	-0.21559136
139	0xbe4234a5	-0.18965395
140	0xbe1cc82b	-0.15310733
141	0x3e7712ba	0.24128237
142	0x3d920901	0.071306236
143	0x3e491f67	0.19640885
144	0xbdf7d58f	-0.1210128
145	0xbcf11013	-0.02942661
146	0x3ded3ab9	0.11583466
147	0x3dadeb4d	0.08492146
148	0xbd62b8f8	-0.05535218
149	0x3d6b0be8	0.0573844
150	0x3c75262e	0.014962716
151	0x3e1b56f3	0.15169887
152	0x3da40682	0.08009054
153	0x3d9f579d	0.07780383
154	0xbd1c223c	-0.038118586
155	0x3b8e9d77	0.0043522674
156	0xbe1b31ef	-0.15155767
157	0xbd147412	-0.036243506
158	0x3de3b384	0.11118224
159	0xbd8954bb	-0.06705614
160	0xbde136aa	-0.109967545
161	0xbd2ee398	-0.04269752
162	0xbd477eb0	-0.048704803
163	0xbe362130	-0.17786098
164	0xbd781e20	-0.060575604
165	0x3d616924	0.05503191
166	0x3dae2772	0.08503617
167	0x3cfe6d40	0.031057954
168	0xbdaa4a20	-0.083149195
169	0xbdd5df20	-0.10442948
170	0x3e2c49b6	0.16824993
171	0xbd174aea	-0.036936678
172	0xbd004504	-0.03131582
173	0x3d06a538	0.03287241
174	0xbdded78a	-0.108809546
175	0xbd8e09a9	-0.06935436
176	0x3cb03327	0.021508766
177	0x3c1fcf6c	0.009754043
178	0xbded3520	-0.115823984
179	0xbe4b0958	-0.19827783
180	0xbe6daf48	-0.23211396
181	0xbd89f78d	-0.0673667
182	0x3e870dd3	0.26377735
183	0xbe23d936	-0.16000828
184	0xbc8cf4f8	-0.017206654
185	0x3e0472b1	0.12934376
186	0xbe0e4ee1	-0.13897277
187	0x3e07b6f7	0.1325339
188	0x3e5a971f	0.2134671
189	0x3e0087fa	0.12551871
190	0xbdc3a5ba	-0.09553094
191	0x3dd64066	0.10461502
192	0x3e5880cd	0.21142884
193	0xbdfe25c1	-0.12409545
194	0xbe4221a3	-0.18958144
195	0x3e237456	0.15962347
196	0xbcd63aff	-0.026151178
197	0xbe4be3a2	-0.19911054
198	0xbe0a62fe	-0.13514325
199	0x3a756ecd	0.0009362519
200	0x3cd132eb	0.025536975
201	0x3bc533cf	0.006018139
202	0xbd7fefef	-0.062484678
203	0xbe155cd8	-0.14586198
204	0xbe47f65e	-0.19527575
205	0xbdaa775c	-0.08323547
206	0x3e3f87c8	0.1870414
207	0x3d01f87d	0.031731118
208	0xbeac2aae	-0.33626312
209	0x3c953845	0.018215308
210	0xbe0cca7d	-0.13749118
211	0xbc80b118	-0.015709445
212	0x3bf8dd87	0.0075947675
213	0x3e404478	0.18776119
214	0x3d36cbdf	0.04462802
215	0xbdda0dfe	-0.106472
216	0x3e147f48	0.14501679
217	0xbe074b67	-0.13212357
218	0x3dbc1169	0.09183008
219	0x3e73695e	0.23770663
220	0x3c2ba947	0.010477371
221	0x3e7bcd6a	0.24590078
222	0xbe5aefa7	-0.21380483
223	0xbe1bca6b	-0.15213935
224	0x3d16ab07	0.036784198
225	0xbe1369dc	-0.14395851
226	0xbe03da87	-0.1287633
227	0xbdd08e5a	-0.101834014
228	0x3c411b6d	0.011786324
229	0xbc36edc5	-0.011165087
230	0x3e2f0baa	0.17094293
231	0xbe489580	-0.1958828
232	0xbe8a4ee6	-0.2701332
233	0xbd118396	-0.03552588
234	0xbd173b04	-0.036921516
235	0xbe88f94a	-0.26752692
236	0xbdb6b6f3	-0.089216135
237	0x3e5ab776	0.21359047
238	0x3db251e5	0.087070264
239	0x3df57b8a	0.11986454
240	0xbe8148bd	-0.25250807
241	0xbe783880	-0.24240303
242	0xbe4393d5	-0.19099362
243	0xbe1ed086	-0.15509233
244	0x3d3c6c7d	0.0460019
245	0x3b9d57b0	0.004801713
246	0xbebce1f7	-0.36891147
247	0xbdfc0200	-0.12305069
248	0x3d9a492d	0.075334884
249	0xbc5fbafe	-0.013655422
250	0xbce422b5	-0.02784858
251	0xbdf078df	-0.11741804
252	0xbd9cc11d	-0.07654021
253	0x3d15b799	0.036552045
254	0xbe30906f	-0.17242597
255	0xbe54aff2	-0.20770243

a2c_network.actor_mlp.2.bias f4 [32]
0	0xbe4d731b	-0.2006344
1	0x3e297dad	0.16551848
2	0x3e496e37	0.1967095
3	0xbe5f79a5	-0.21823747
4	0x3e181fd7	0.14855896
5	0xbe272ccb	-0.16325681
6	0x3e5299e3	0.20566516
7	0x3e3b0583	0.18263821
8	0x3e396f0d	0.18108769
9	0xbe4940da	-0.19653645
10	0x3e3743fa	0.17897025
11	0x3d920ef8	0.07131761
12	0x3e2af40b	0.16694658
13	0x3e080680	0.1328373
14	0x3e1a0117	0.15039478
15	0xbe2af4db	-0.16694967
16	0xbe521d59	-0.20519008
17	0x3de0b748	0.10972458
18	0x3d9aeec7	0.075650744
19	0x3e413dd5	0.18871243
20	0xbe3a117d	-0.18170734
21	0x3e06d2c9	0.13166346
22	0x3e1ace1b	0.15117685
23	0xbe34af30	-0.17644954
24	0x3e0e579f	0.13900612
25	0x3de2e9e4	0.11079767
26	0xbe389272	-0.18024614
27	0xbd75d5ea	-0.060018457
28	0xbe4d080e	-0.20022604
29	0x3c5cfc40	0.013487875
30	0xbe957fac	-0.29198968
31	0xbe47292b	-0.19449298

a2c_network.value.weight f4 [1, 32]
0	0xbdf549cf	-0.119769685
1	0x3e3c64cb	0.18397824
2	0x3e339fd7	0.17541443
3	0xbe20dc4a	-0.15709034
4	0xbc2770b6	-0.0102197435
5	0xbd78aba1	-0.060710553
6	0x3e9027bd	0.28155318
7	0x3e845dcc	0.2585281
8	0x3e21d51c	0.15803951
9	0xbe610461	-0.21974327
10	0x3e3db0ec	0.18524522
11	0x3d434afd	0.047678936
12	0x3e0fab89	0.14030279
13	0x3ddb2b50	0.107016206
14	0x3e043b51	0.12913252
15	0x3be6820a	0.007034545
16	0xbd968665	-0.073498525
17	0x3cd50069	0.026001172
18	0xbca84995	-0.0205429
19	0x3e8193d2	0.2530809
20	0xbe123910	-0.1427958
21	0x3d894a9e	0.06703685
22	0x3d9bc0aa	0.07605107
23	0xbdaccd38	-0.0843758
24	0x3e695deb	0.22789733
25	0x3c01b13a	0.007915789
26	0xbde402f1	-0.111333735
27	0x3dad0c89	0.084496565
28	0xbe27c2dd	-0.16382928
29	0xbbd36201	-0.006450892
30	0xbd1cbfca	-0.03826884
31	0xbe42774e	-0.18990824

a2c_network.mu.weight f4 [1, 32]
0	0xbd1c625b	-0.038179737
1	0xbe1fdaf7	-0.15610872
2	0x3c5a4111	0.013321177
3	0xbcac7d82	-0.02105594
4	0x3e6dea93	0.23234014
5	0x3d1451bc	0.03621076
6	0xbda8c367	-0.08240395
7	0xbe6789a0	-0.22611094
8	0x3db0a1e0	0.08624625
9	0xbd90fcb2	-0.07079448
10	0xbe880df6	-0.2657315
11	0x3e83482f	0.2564101
12	0xbe03b82e	-0.12863228
13	0xbed2840a	-0.41116363
14	0x3ea4ecd5	0.32211939
15	0xbe14c205	-0.14527138
16	0x3e0b157d	0.13582416
17	0x3da591b5	0.08084432
18	0x3cb0d2bb	0.02158486
19	0xbddcb884	-0.10777381
20	0xbc1335e6	-0.008985018
21	0xbd47df0e	-0.048796706
22	0x3e20f3a8	0.15717947
23	0x3e26f80b	0.16305558
24	0x3df9940c	0.12186441
25	0x3ddcc1ed	0.10779176
26	0x3dad5d75	0.08465091
27	0xbe986dec	-0.29771364
28	0xbd0717b3	-0.032981586
29	0x3bd2d796	0.0064343913
30	0xbe9e973a	-0.30974752
31	0xbea814fc	-0.3282851

exp_avg f4 [32, 4]
0	0xba328dec	-0.0006811309
1	0xb9e228be	-0.00043136434
2	0x3a1475ac	0.00056632864
3	0x396bbecf	0.00022482428
4	0x3b87cb28	0.004144091
5	0x3b334b5e	0.0027358155
6	0x3ab8f40c	0.0014110818
7	0x3b878019	0.0041351435
8	0x3b02bb0d	0.0019947917
9	0x3aeb49d9	0.0017951085
10	0x3aa44ee8	0.0012535723
11	0x3b45018e	0.003006074
12	0xbaceb185	-0.0015769458
13	0xba1ce336	-0.0005984785
14	0x383131d5	4.22465e-05
15	0xb9f0859d	-0.00045875917
16	0x3a260687	0.000633337
17	0x3ac086a6	0.0014688566
18	0x39856424	0.00025442347
19	0x3aaa75f0	0.0013005119
20	0xb853da3b	-5.0509563e-05
21	0x3b546322	0.003240772
22	0xb771e363	-1.4417662e-05
23	0x3b234749	0.0024914315
24	0xbabd34c2	-0.0014435279
25	0xbb01534c	-0.0019733487
26	0x39036f78	0.00012534659
27	0xbafb7814	-0.0019185566
28	0x3a1b5a14	0.00059262034
29	0x39d61ae4	0.00040837296
30	0x3a869b99	0.001026976
31	0x3a951715	0.0011374677
32	0x39ed194c	0.0004522301
33	0x3b1d2e9b	0.0023984078
34	0x3a190c6c	0.0005838338
35	0x3b23949c	0.0024960404
36	0xba8054fb	-0.0009790951
37	0xb8514b90	-4.9899856e-05
38	0xb964d069	-0.00021821413
39	0x39b6c0c0	0.00034857355
40	0xb7356193	-1.0811159e-05
41	0x39ca0e75	0.00038539214
42	0x3a402857	0.000733023
43	0x3ac8cac6	0.001531922
44	0x3b7452d9	0.0037280826
45	0x3b357135	0.0027685885
46	0x3aee6847	0.0018189036
47	0x3b7e814e	0.0038834396
48	0xba2b3469	-0.0006530942
49	0x3b11c98a	0.002224537
50	0xb9e21009	-0.00043118026
51	0x3ae13b6e	0.0017183849
52	0xba956ca4	-0.0011400175
53	0xba812f8c	-0.0009856089
54	0x39da1d56	0.00041602057
55	0xba09b416	-0.000525297
56	0x3b09ed07	0.002104582
57	0xba89a93c	-0.0010502706
58	0xb7e61747	-2.7428976e-05
59	0xbac2250d	-0.0014812067
60	0xba0f3d10	-0.0005464116
61	0xb88635fd	-6.399674e-05
62	0xb9ed00d9	-0.00045204794
63	0xba8a3efc	-0.0010547335
64	0x3a596f9a	0.0008294523
65	0x3c13df01	0.009025336
66	0xbac11bdd	-0.0014733035
67	0x3bd668b1	0.006543242
68	0x3b2acf5f	0.0026063544
69	0x3acb8592	0.0015527478
70	0x3a8af37d	0.001060113
71	0x3ae3327c	0.0017333771
72	0x379d14ae	1.8725488e-05
73	0x3b069ea6	0.002054134
74	0xb9c5f779	-0.0003775915
75	0x3ae84e5e	0.001772355
76	0xba35a07e	-0.0006928517
77	0x39efaefd	0.0004571601
78	0xb9b484ff	-0.00034431365
79	0x3914ae28	0.00014179258
80	0xbb0be9d5	-0.0021349092
81	0xbb0aa2c8	-0.0021154154
82	0xba6d1d2d	-0.000904518
83	0xbb365c22	-0.0027825912
84	0x3ae27216	0.0017276432
85	0x38d38087	0.00010085204
86	0x3985c1b7	0.00025512066
87	0xb9d90e92	-0.0004140032
88	0x3b69c5ad	0.0035670802
89	0x3b2b6d49	0.0026157668
90	0x3b2e084b	0.0026555236
91	0x3b87b3b8	0.004141297
92	0x3b063d8f	0.002048347
93	0x3a834110	0.0010013897
94	0x3a98906f	0.0011639724
95	0x3ab57cbe	0.001384638
96	0x3afd4289	0.0019322197
97	0x3b22fc94	0.0024869787
98	0x3a08ba48	0.00052157464
99	0x3af17429	0.0018421459
100	0x3a64a731	0.0008722423
101	0x3aea1edb	0.0017861979
102	0x3a68bc6d	0.0008878175
103	0x3b012785	0.0019707393
104	0xba6da49c	-0.0009065361
105	0x3b149ac3	0.0022675253
106	0xba791f8a	-0.0009503296
107	0x3aa9eb6b	0.0012963837
108	0x398c36ab	0.00026743612
109	0xba284f7d	-0.0006420536
110	0x388bbdf4	6.663418e-05
111	0xba85b47b	-0.0010200882
112	0x3a763031	0.00093913364
113	0x39f27498	0.00046244706
114	0x3a2d2182	0.00066044193
115	0x3a3e80c6	0.00072671135
116	0x38880966	6.486736e-05
117	0xbac492f0	-0.0014997404
118	0x38fae10c	0.00011962847
119	0xbac1492c	-0.0014746538
120	0xb9f4affa	-0.0004667042
121	0x3b23a06a	0.002496744
122	0x39491205	0.00019175567
123	0x3aedd709	0.001814575
124	0x3b16d43a	0.002301468
125	0x3ad72325	0.0016413672
126	0x3a560f85	0.0008165765
127	0x3b20c040	0.0024528652

exp_avg_sq f4 [32, 4]
0	0x381ec18d	3.7850394e-05
1	0x37820c7c	1.5503021e-05
2	0x37ebca91	2.810851e-05
3	0x37512f8f	1.2468444e-05
4	0x39429e57	0.00018560268
5	0x39beb1a5	0.0003637198
6	0x390c2657	0.00013365723
7	0x399f37f2	0.00030368526
8	0x38cd83e4	9.799728e-05
9	0x393bc359	0.00017906482
10	0x3859b1d6	5.1902454e-05
11	0x3917cb17	0.00014476139
12	0x38111696	3.459173e-05
13	0x36c621a4	5.904776e-06
14	0x3718dd62	9.111451e-06
15	0x3677cfc1	3.6926797e-06
16	0x37e146ba	2.6855025e-05
17	0x37f5b79c	2.9291776e-05
18	0x37a000f4	1.907393e-05
19	0x37e139dc	2.6849033e-05
20	0x38f50616	0.00011683644
21	0x391b8edd	0.00014835173
22	0x38af7276	8.36597e-05
23	0x3901f8ea	0.00012395126
24	0x38a89a14	8.0395635e-05
25	0x387e85a7	6.0682793e-05
26	0x383cec12	4.504255e-05
27	0x385fadf6	5.3329357e-05
28	0x38a98108	8.082582e-05
29	0x38eebd4b	0.00011383983
30	0x38175022	3.6075835e-05
31	0x38c051c4	9.1705035e-05
32	0x392ee6f3	0.00016679968
33	0x398eb376	0.0002721806
34	0x3896355c	7.162496e-05
35	0x396c0f73	0.00022512469
36	0x38e7abc3	0.000110469315
37	0x394645c0	0.00018908735
38	0x38ba680b	8.888551e-05
39	0x390bcc2f	0.00013332137
40	0x38c28851	9.276032e-05
41	0x3914b4f9	0.00014181797
42	0x38747cb9	5.829029e-05
43	0x38eb03fe	0.00011206417
44	0x396d2882	0.00022617172
45	0x397518e6	0.00023374296
46	0x38f00d49	0.00011446566
47	0x39466740	0.00018921215
48	0x381b7eac	3.7072852e-05
49	0x38c6beb4	9.476897e-05
50	0x37bc9474	2.2480475e-05
51	0x38be36cc	9.070113e-05
52	0x37c69d46	2.3676675e-05
53	0x379dae68	1.8797073e-05
54	0x37828e5c	1.5563499e-05
55	0x37613bfb	1.342501e-05
56	0x3880b2ad	6.1367966e-05
57	0x384c3233	4.868414e-05
58	0x380c997c	3.3521545e-05
59	0x3816a272	3.5914076e-05
60	0x387acff4	5.9798316e-05
61	0x379579bb	1.781887e-05
62	0x3792a731	1.748241e-05
63	0x3789974d	1.6402128e-05
64	0x39c07949	0.00036711458
65	0x3a4d1496	0.0007823197
66	0x398b3e12	0.00026558392
67	0x3a427a24	0.0007418713
68	0x3904ad3c	0.00012653036
69	0x38e30e46	0.00010826862
70	0x38accc07	8.239602e-05
71	0x38a10036	7.6771175e-05
72	0x389caffa	7.471438e-05
73	0x3936a8b3	0.00017419718
74	0x388e983b	6.799443e-05
75	0x3917558c	0.00014432351
76	0x36790252	3.7105242e-06
77	0x359407d3	1.1029136e-06
78	0x3535b090	6.7684687e-07
79	0x359dd480	1.1759257e-06
80	0x39040e8b	0.00012593919
81	0x38d45490	0.00010124699
82	0x38304e8f	4.2034833e-05
83	0x389d6384	7.5048796e-05
84	0x3882ca18	6.236526e-05
85	0x372bd3f7	1.0241746e-05
86	0x372294cf	9.6906e-06
87	0x36d0e452	6.225463e-06
88	0x39ba0035	0.0003547684
89	0x39e78548	0.00044159056
90	0x3924dd87	0.00015722784
91	0x39c07d5c	0.00036714494
92	0x385cf7c2	5.268283e-05
93	0x3850a249	4.9742204e-05
94	0x37a0b96b	1.9159828e-05
95	0x3822a0a6	3.8773425e-05
96	0x393624e6	0.00017370618
97	0x393f4782	0.00018241818
98	0x38a46327	7.838598e-05
99	0x3914e221	0.0001419862
100	0x391b741a	0.00014825203
101	0x38f78ed5	0.00011804482
102	0x38b46bf3	8.603176e-05
103	0x38ae5d8a	8.3143896e-05
104	0x3811c76c	3.475642e-05
105	0x37de1907	2.6476117e-05
106	0x376a25a1	1.3956248e-05
107	0x37ccca0a	2.4412777e-05
108	0x36e6abda	6.8745403e-06
109	0x3693ce84	4.404983e-06
110	0x36943e65	4.4180074e-06
111	0x3680a434	3.833813e-06
112	0x38bfea5a	9.151241e-05
113	0x386231d3	5.3929e-05
114	0x389b076a	7.392357e-05
115	0x38317583	4.230953e-05
116	0x37372a78	1.0917538e-05
117	0x37af6ee2	2.091326e-05
118	0x36aae5cd	5.093147e-06
119	0x37a3cf50	1.9527652e-05
120	0x39456178	0.00018823694
121	0x39302e4f	0.00016801919
122	0x38fef85e	0.00012157926
123	0x39084a12	0.00012997564
124	0x38fd150f	0.000120679026
125	0x399a4453	0.00029424074
126	0x38cb283f	9.687291e-05
127	0x397c71d0	0.00024074991

exp_avg f4 [32]
0	0xb90766cf	-0.00012912902
1	0xbab82e50	-0.0014051888
2	0xba1dd583	-0.00060208904
3	0xb9728bca	-0.00023130994
4	0x39a4c30c	0.0003142584
5	0xba80fb8a	-0.000984059
6	0x3a7ba139	0.0009598914
7	0x39d42911	0.00040466388
8	0xb8eaa615	-0.00011188925
9	0xbaa35192	-0.0012460223
10	0xbada543a	-0.0016657182
11	0x3a7cf881	0.0009650067
12	0xbaa66f50	-0.0012697969
13	0xb964c26f	-0.00021816207
14	0x3aa6cad0	0.0012725238
15	0xb966bf9a	-0.00022005886
16	0xbb6cc565	-0.0036128398
17	0x3aa7008b	0.0012741251
18	0xba5eb4b9	-0.00084955577
19	0xba2e19fb	-0.00066414446
20	0x39c12090	0.0003683609
21	0x3aa2393b	0.0012376675
22	0x3ac24e8a	0.0014824432
23	0x3a57946d	0.0008223716
24	0xb9351d04	-0.00017272314
25	0x380beccd	3.336072e-05
26	0xbb22f275	-0.0024863754
27	0x3ad91f65	0.0016565142
28	0x39ab3ed5	0.00032662475
29	0x3acfd60e	0.001585664
30	0xb9c205e6	-0.00037006958
31	0xba5e3c0d	-0.0008477576

exp_avg_sq f4 [32]
0	0x387a4b3e	5.967472e-05
1	0x3a50fb12	0.00079719827
2	0x39cc9d39	0.00039027052
3	0x37219a30	9.632247e-06
4	0x38b6798a	8.701075e-05
5	0x39c0bdc2	0.00036762474
6	0x39566246	0.0002044524
7	0x398ea369	0.000272061
8	0x3a184a8b	0.00058094476
9	0x39a21feb	0.0003092283
10	0x398d0d82	0.0002690368
11	0x3a21dcf0	0.0006174585
12	0x394bf9c8	0.0001945264
13	0x38891465	6.536468e-05
14	0x38e54262	0.00010931936
15	0x38a5920f	7.895019e-05
16	0x3ac3cc3e	0.0014938188
17	0x39b379a1	0.0003423216
18	0x39c73edf	0.0003800308
19	0x3683ee3b	3.931838e-06
20	0x398f14db	0.00027290624
21	0x37d8c1fd	2.583954e-05
22	0x3a963eb8	0.0011462783
23	0x392eedba	0.00016682493
24	0x39eeffb2	0.00045585405
25	0x39aeacdb	0.00033316654
26	0x38c15d5b	9.220346e-05
27	0x37ab1cd2	2.0398209e-05
28	0x397047ff	0.00022915004
29	0x38302948	4.2000116e-05
30	0x39ee45d0	0.00045446912
31	0x3a1a3272	0.0005882151

exp_avg f4 [32, 32]
0	0xb93443d0	-0.000171914
1	0x3a637630	0.0008676974
2	0x39cab34b	0.00038662026
3	0x396f1e9f	0.00022804223
4	0xb9925066	-0.00027907192
5	0xb9f74b63	-0.0004716768
6	0xb965ac65	-0.00021903364
7	0x39b93965	0.00035328712
8	0xb95b0443	-0.00020887055
9	0x3a11bafc	0.0005559174
10	0x3a11a2a8	0.00055555487
11	0xb996c063	-0.0002875357
12	0xb9b4e105	-0.00034499928
13	0xb7ddaf58	-2.6426904e-05
14	0xb9a50c77	-0.0003148054
15	0x3898414a	7.260086e-05
16	0xb9dcc5a5	-0.00042108927
17	0xba06ee99	-0.0005147248
18	0xb91f2b64	-0.00015179586
19	0xb9f6d605	-0.00047080233
20	0x395260af	0.00020063178
21	0xb9ac537b	-0.00032868594
22	0xb9dea303	-0.00042464593
23	0xb956e0ba	-0.00020492348
24	0xb9c28753	-0.00037103388
25	0xba18070f	-0.00057993917
26	0xba343cd6	-0.00068755203
27	0x38102c9b	3.4373817e-05
28	0xba1c4d7d	-0.00059624744
29	0x3816144a	3.5781683e-05
30	0xba28203c	-0.00064134947
31	0x3a60bf8c	0.00085734646
32	0x3877d829	5.9090704e-05
33	0xbab75826	-0.0013988062
34	0xba91104c	-0.0011067479
35	0xba97abb6	-0.001157156
36	0x3a31a8c4	0.0006777162
37	0x3aa170b5	0.0012316915
38	0x3aef9198	0.0018277643
39	0xbaec4053	-0.0018024541
40	0xb992efe9	-0.00028026037
41	0xba0eaefd	-0.00054429454
42	0xba56ba6d	-0.0008191232
43	0xba8a2b30	-0.0010541435
44	0x3a382d1d	0.00070257654
45	0x39e94f88	0.00044500479
46	0x3a916719	0.0011093348
47	0x3a71d3ed	0.0009225
48	0x3ad4e64a	0.0016242948
49	0xba7e97fe	-0.00097119797
50	0x3a1aeee8	0.00059102336
51	0x3b095dba	0.0020960406
52	0xba12b7c0	-0.0005596839
53	0x3a289015	0.00064301613
54	0xbab15375	-0.00135289
55	0xbabf1259	-0.0014577612
56	0x3a241368	0.0006258995
57	0x39d15da4	0.00039933354
58	0x3b1a3e7b	0.0023535776
59	0xbad65f43	-0.0016355295
60	0x3aa8dc69	0.001288307
61	0xbaa1b287	-0.001233653
62	0x3ad37137	0.0016131763
63	0xbacbc9cf	-0.0015547815
64	0xb9812662	-0.00024633395
65	0xba81ecf6	-0.0009912539
66	0xba24e285	-0.00062898576
67	0xba43b150	-0.0007465081
68	0x384ee129	4.9323924e-05
69	0x39ea78b2	0.00044721883
70	0x3ae2d8e7	0.0017307074
71	0xba8dea27	-0.0010827229
72	0xb8967528	-7.1743794e-05
73	0xba174616	-0.00057706365
74	0xba191146	-0.0005839061
75	0xb9aa7829	-0.00032514453
76	0xb9146153	-0.00014150636
77	0x3a3c1174	0.00071742316
78	0x3a925eb0	0.0011167135
79	0x3a477f1b	0.0007610188
80	0x3a265c3b	0.0006346141
81	0xb8218dd0	-3.8517464e-05
82	0xb92e71bc	-0.00016636302
83	0x3a9e2fd7	0.0012068701
84	0x393736af	0.00017472611
85	0x39e9e8b9	0.00044614615
86	0xb9dc37e6	-0.00042003318
87	0xb9f28ae7	-0.00046261327
88	0x39a8b8d6	0.0003218117
89	0x3a16f0ef	0.0005757948
90	0x3aa4700f	0.0012545603
91	0xba2fb110	-0.00067021046
92	0x3a9486f2	0.0011331721
93	0xb988a08a	-0.00026059552
94	0x3a3d6bfc	0.0007225869
95	0xba90bd20	-0.0011042692
96	0xb98d2827	-0.00026923532
97	0x3a9f5202	0.0012155178
98	0x3a13cde2	0.0005638284
99	0x39b6150f	0.00034729435
100	0xb9ddd105	-0.00042308136
101	0xba32b0ad	-0.0006816488
102	0xb9882898	-0.00025970186
103	0x3a134c65	0.00056189887
104	0xb99492e2	-0.00028338196
105	0x3a3de79b	0.000724429
106	0x3a498535	0.0007687391
107	0xb99e2451	-0.00030163166
108	0xba09e471	-0.00052601757
109	0xb5f57f5c	-1.8290989e-06
110	0xb9ce7855	-0.00039381036
111	0x38e869e0	0.00011082343
112	0xba1e7b64	-0.00060456083
113	0xba17dbe2	-0.0005792958
114	0xb98c4965	-0.00026757564
115	0xba26f680	-0.0006369129
116	0x39baccdf	0.00035629325
117	0xb9ee5bc3	-0.00045463265
118	0xb9f5f488	-0.00046912231
119	0xb924f670	-0.00015732064
120	0xba0afed4	-0.00053022546
121	0xba4a309a	-0.00077129307
122	0xba7241be	-0.0009241364
123	0x393120c1	0.00016892237
124	0xba546424	-0.00081020803
125	0x392b4ca5	0.00016336383
126	0xba6aaef0	-0.00089524593
127	0x3a9e0d6b	0.0012058442
128	0xb9950957	-0.00028426453
129	0x39beefb6	0.00036418223
130	0x399f3d1d	0.00030372376
131	0x392b5bea	0.00016342071
132	0xba0921a4	-0.0005231148
133	0xba2d21d5	-0.00066044676
134	0xb90b10bc	-0.00013262307
135	0x3977d5b6	0.00023635369
136	0x38a5d8e2	7.908211e-05
137	0x392d41fd	0.00016523148
138	0x398d1532	0.00026909407
139	0x38c9e1da	9.626495e-05
140	0xba12a603	-0.00055941957
141	0x3965273d	0.00021853759
142	0xb90c8d12	-0.00013403993
143	0x36de142c	6.618464e-06
144	0xba37c339	-0.00070099864
145	0x38c1e7a0	9.246101e-05
146	0xb9f9b223	-0.00047625703
147	0xba104bb1	-0.0005504443
148	0x39f29f9c	0.00046276755
149	0xb94782f8	-0.00019026909
150	0x38f49b9f	0.00011663813
151	0x39498c82	0.00019221197
152	0xb98b7e8a	-0.00026606425
153	0xb9069540	-0.00012834836
154	0xba3c9f15	-0.0007195336
155	0x395681dd	0.00020457008
156	0xb9b36bbb	-0.00034221806
157	0x39bd2a1c	0.00036080263
158	0xba4b3a15	-0.00077524903
159	0x39df9697	0.00042646073
160	0xb80fc559	-3.427765e-05
161	0x3a0a30cf	0.0005271555
162	0x399eaea2	0.0003026622
163	0x398d99f3	0.00027008317
164	0xb908c89d	-0.00013044705
165	0xb987129f	-0.0002576308
166	0xb9cd34ad	-0.00039139893
167	0x39d0bd6c	0.00039813982
168	0xb81fe2a3	-3.8119626e-05
169	0x39a585be	0.00031570898
170	0x39b1e22e	0.00033928588
171	0x3798d196	1.8217408e-05
172	0xb8cf4075	-9.882535e-05
173	0xb9063cdb	-0.00012801906
174	0xb9aef06d	-0.00033366997
175	0xb8deada8	-0.00010618131
176	0xb9576534	-0.00020541699
177	0xb8ee6918	-0.000113682996
178	0xb7ff5599	-3.0438228e-05
179	0xb9bc93c0	-0.00035968237
180	0x389d3930	7.4969954e-05
181	0xb963fccb	-0.0002174258
182	0x373cf890	1.1263546e-05
183	0x38b744a3	8.7389046e-05
184	0xb95de4c2	-0.00021161421
185	0xb9a5e49e	-0.00031641586
186	0xb9d65a1f	-0.00040884406
187	0x394d7a3f	0.00019595864
188	0xb9e2bdda	-0.0004324753
189	0x38d81800	0.00010304153
190	0xb9bc8da7	-0.00035963694
191	0x3a13a5ab	0.00056322914
192	0xb9a01560	-0.00030533504
193	0xbac6ec6d	-0.0015176662
194	0xba355583	-0.0006917344
195	0xba380a4c	-0.00070205773
196	0xb8aa700a	-8.1271006e-05
197	0x39a97deb	0.00032328008
198	0x3b2beb09	0.0026232621
199	0xba6e829e	-0.0009098443
200	0x3936122c	0.00017363642
201	0xbaadee54	-0.001326988
202	0xba7b52d4	-0.00095872325
203	0x3a486abf	0.0007645301
204	0xba7c3233	-0.00096205174
205	0x3a96fd7c	0.0011519636
206	0x3b00fb0b	0.0019680883
207	0x3a28497c	0.00064196414
208	0x388ffc08	6.865716e-05
209	0x3ad7b694	0.0016457611
210	0xba79562e	-0.0009511438
211	0x3a42f124	0.00074364454
212	0x3a3dd294	0.00072411564
213	0x3a18cfee	0.0005829324
214	0x3a5423a9	0.0008092472
215	0x3a3aa26c	0.00071195397
216	0x39ac1cea	0.0003282794
217	0x3ad7207f	0.0016412883
218	0x3a224bbb	0.0006191094
219	0x398d1c36	0.00026914635
220	0x3b106f96	0.0022039167
221	0x3a290c62	0.00064486836
222	0x3a42d83c	0.0007432734
223	0xbae527a0	-0.0017483123
224	0xb88fa7d8	-6.850035e-05
225	0xbad1510c	-0.0015969588
226	0xbaa6926c	-0.0012708432
227	0xbaafc916	-0.0013411369
228	0x3a312a1d	0.00067582895
229	0x3ab0c1d0	0.0013485495
230	0x3b23223c	0.0024892231
231	0xbb02c15b	-0.0019951675
232	0xb9d859a2	-0.00041265512
233	0xba3e355e	-0.0007255877
234	0xba7d8e79	-0.0009672414
235	0xba916da5	-0.0011095299
236	0x3a1a3b26	0.00058834476
237	0x3a34194f	0.00068702264
238	0x3ac8875e	0.0015299132
239	0x3aa27fde	0.0012397727
240	0x3af21d47	0.001847186
241	0xba71aea8	-0.0009219446
242	0x3a01d2b7	0.00049523584
243	0x3b2a58d8	0.0025992896
244	0xb9d27e75	-0.0004014854
245	0x3a475981	0.00076045847
246	0xbabba000	-0.0014314651
247	0xbac327cd	-0.0014889181
248	0x3a2c572b	0.00065742683
249	0x39fe1c9e	0.00048467977
250	0x3b3c8310	0.0028764643
251	0xbad7c7f9	-0.0016462795
252	0x3acf5ce1	0.0015820527
253	0xba964afd	-0.001146644
254	0x3af222ac	0.0018473468
255	0xbaeb3a1c	-0.0017946395

exp_avg_sq f4 [32, 32]
0	0x3668c82b	3.4687207e-06
1	0x37406fba	1.1470105e-05
2	0x36fda42c	7.5590997e-06
3	0x36874f92	4.0325767e-06
4	0x368b2bb8	4.1476123e-06
5	0x37a00d25	1.9079607e-05
6	0x37435fff	1.1645257e-05
7	0x37245f40	9.797339e-06
8	0x359f6747	1.1876481e-06
9	0x37009d82	7.666067e-06
10	0x36f66702	7.343363e-06
11	0x3722a8f2	9.695288e-06
12	0x36aa05c9	5.0670683e-06
13	0x369517f6	4.4433355e-06
14	0x36ac5619	5.1360225e-06
15	0x36a49e7e	4.906032e-06
16	0x37026125	7.771222e-06
17	0x378b2a5e	1.658982e-05
18	0x36c2bf07	5.803889e-06
19	0x3684d018	3.958132e-06
20	0x36e2621e	6.746747e-06
21	0x366c75a2	3.5235212e-06
22	0x374afac0	1.20985205e-05
23	0x37152c46	8.8914e-06
24	0x369841e5	4.537624e-06
25	0x37763b12	1.4676496e-05
26	0x368c5670	4.182388e-06
27	0x3710d41c	8.632454e-06
28	0x3759b514	1.2976368e-05
29	0x36fa9510	7.4679338e-06
30	0x37fceec4	3.0151925e-05
31	0x377c699a	1.5044958e-05
32	0x3708a7d9	8.145312e-06
33	0x37e0f951	2.6818978e-05
34	0x374ea6a6	1.2317358e-05
35	0x36da1d12	6.5002905e-06
36	0x370bd0cf	8.333663e-06
37	0x37aad7d5	2.0366084e-05
38	0x383ba4cf	4.4737764e-05
39	0x3763d186	1.3579038e-05
40	0x36416a53	2.882113e-06
41	0x37380c5a	1.09701305e-05
42	0x3781c2db	1.5468735e-05
43	0x371f2470	9.485622e-06
44	0x3728db8e	1.0064699e-05
45	0x37703be7	1.4319062e-05
46	0x37885049	1.6249849e-05
47	0x37b087ec	2.1044129e-05
48	0x37d20767	2.5037398e-05
49	0x379c13fd	1.8605957e-05
50	0x3722e558	9.709351e-06
51	0x37cef1e1	2.4669747e-05
52	0x3794e1cd	1.7748122e-05
53	0x36a5de94	4.9432947e-06
54	0x375deb68	1.3227436e-05
55	0x373d655c	1.1288877e-05
56	0x36980f01	4.5316997e-06
57	0x374e2ec5	1.2289446e-05
58	0x380a9013	3.3035943e-05
59	0x3702ef3b	7.804304e-06
60	0x37c80056	2.3842014e-05
61	0x37196962	9.144047e-06
62	0x38117461	3.467908e-05
63	0x37c1e5da	2.3114426e-05
64	0x3700e6e6	7.683155e-06
65	0x37b65074	2.1733555e-05
66	0x3717a4ea	9.038698e-06
67	0x3689b03c	4.1034345e-06
68	0x36ec63db	7.044973e-06
69	0x379c13fc	1.8605955e-05
70	0x38191c22	3.6504243e-05
71	0x370cf4e2	8.4016665e-06
72	0x360de8de	2.1146184e-06
73	0x372b9cd0	1.0228905e-05
74	0x37653733	1.3662316e-05
75	0x36e47078	6.8080226e-06
76	0x36e7c26c	6.90697e-06
77	0x373c4de4	1.12238085e-05
78	0x376ace0b	1.399546e-05
79	0x3786df1b	1.6077936e-05
80	0x37aab697	2.0350604e-05
81	0x37708278	1.4335492e-05
82	0x37013906	7.702276e-06
83	0x3772c8b1	1.4471051e-05
84	0x37532475	1.2585068e-05
85	0x36af7da1	5.2300315e-06
86	0x37078cf0	8.079442e-06
87	0x36f0362e	7.1588647e-06
88	0x3698cc0c	4.553707e-06
89	0x375c9aba	1.3149047e-05
90	0x379ad556	1.8457573e-05
91	0x36a3e745	4.884702e-06
92	0x37bf9409	2.2837909e-05
93	0x36d478bc	6.3321477e-06
94	0x3807ce12	3.2378426e-05
95	0x3794979b	1.7713572e-05
96	0x369035e3	4.2978077e-06
97	0x3771616d	1.4387403e-05
98	0x371ccad0	9.345546e-06
99	0x36b11f8c	5.2786836e-06
100	0x36a56605	4.92926e-06
101	0x3792629c	1.7450475e-05
102	0x3773124f	1.44881915e-05
103	0x374c2a8d	1.2169255e-05
104	0x35d5fc45	1.5943157e-06
105	0x371d07d5	9.359753e-06
106	0x371ec052	9.462312e-06
107	0x373bcf7e	1.1194379e-05
108	0x36dedcc6	6.641817e-06
109	0x36b6701c	5.437074e-06
110	0x36e8ca7a	6.93771e-06
111	0x36c3eaac	5.8387723e-06
112	0x372a671a	1.0156795e-05
113	0x37ae82e5	2.0803369e-05
114	0x36ff150e	7.6020433e-06
115	0x36a9f908	5.0655835e-06
116	0x37086806	8.1304515e-06
117	0x369a5d39	4.60041e-06
118	0x378936f5	1.6357264e-05
119	0x3743cae5	1.1670146e-05
120	0x36a3dcd7	4.8834877e-06
121	0x376a3dce	1.3961877e-05
122	0x36bd1aac	5.635744e-06
123	0x37246f43	9.801067e-06
124	0x37764904	1.4679743e-05
125	0x37260a9a	9.896839e-06
126	0x37fb7020	2.9973744e-05
127	0x378c5c84	1.6732381e-05
128	0x35522f22	7.8299684e-07
129	0x367ae47e	3.7385903e-06
130	0x36734497	3.6249746e-06
131	0x3656d848	3.2014377e-06
132	0x35fcae41	1.8826178e-06
133	0x36fe75e4	7.583514e-06
134	0x36931253	4.3830746e-06
135	0x37093e4b	8.18034e-06
136	0x3597449d	1.1270346e-06
137	0x361d21d8	2.3414523e-06
138	0x35fe2bbc	1.8937203e-06
139	0x372b5f75	1.021462e-05
140	0x3714e8fa	8.8757315e-06
141	0x359165b6	1.0832944e-06
142	0x35bb6f67	1.3965008e-06
143	0x367792ce	3.689132e-06
144	0x3782b177	1.5579846e-05
145	0x377a5b0a	1.4922358e-05
146	0x370012f7	7.63381e-06
147	0x37aa8c2f	2.0330857e-05
148	0x3675f438	3.665e-06
149	0x35677549	8.622488e-07
150	0x3760b851	1.3394355e-05
151	0x374fafb9	1.2379075e-05
152	0x35d4e3aa	1.586149e-06
153	0x369ab74e	4.610897e-06
154	0x38018720	3.088184e-05
155	0x37453b09	1.175586e-05
156	0x3615b93b	2.2310549e-06
157	0x370fa95a	8.562894e-06
158	0x37308e69	1.0523575e-05
159	0x36a61317	4.949408e-06
160	0x35c7479d	1.4847498e-06
161	0x36c75e06	5.941608e-06
162	0x368e2911	4.2367105e-06
163	0x3607dfe5	2.0246891e-06
164	0x35e766cb	1.7240758e-06
165	0x373bf2de	1.12026155e-05
166	0x36e0eb7d	6.7031347e-06
167	0x36ba1369	5.5454916e-06
168	0x354413d6	7.3044555e-07
169	0x36a7591a	4.9873606e-06
170	0x36605f84	3.3434198e-06
171	0x36af48b1	5.223869e-06
172	0x3642f8b3	2.9053015e-06
173	0x36118812	2.1685887e-06
174	0x364228f2	2.8932086e-06
175	0x3634ed43	2.6960195e-06
176	0x3642106f	2.8917818e-06
177	0x37197a11	9.147931e-06
178	0x3667716f	3.448771e-06
179	0x361ad291	2.3070354e-06
180	0x36591f5a	3.2353769e-06
181	0x35a4c0f9	1.2275115e-06
182	0x36ae5f11	5.1966713e-06
183	0x369e4903	4.7172666e-06
184	0x360d88dc	2.10903e-06
185	0x37163d0a	8.9549085e-06
186	0x360cebdf	2.099892e-06
187	0x36a4ecd0	4.9151495e-06
188	0x3700755e	7.656721e-06
189	0x366864c8	3.4629356e-06
190	0x3791e29c	1.739087e-05
191	0x373249c1	1.0626799e-05
192	0x379fc319	1.9045126e-05
193	0x387f17b4	6.0818813e-05
194	0x3811cc58	3.4761004e-05
195	0x378f5167	1.7084834e-05
196	0x37a86aa0	2.0076812e-05
197	0x384ef234	4.9339797e-05
198	0x38d00212	9.9185985e-05
199	0x3830e3eb	4.2173935e-05
200	0x370845cf	8.122485e-06
201	0x3808df79	3.2633052e-05
202	0x381456eb	3.53669e-05
203	0x37f903ea	2.9684936e-05
204	0x37c54ea9	2.3520859e-05
205	0x380ad2f9	3.3098248e-05
206	0x3822813c	3.874417e-05
207	0x3836c0f2	4.3571876e-05
208	0x382386ac	3.898765e-05
209	0x387a88ae	5.9731938e-05
210	0x37d69530	2.5580259e-05
211	0x380be593	3.335399e-05
212	0x382febf4	4.1943e-05
213	0x3740b82e	1.14869745e-05
214	0x382cd609	4.120733e-05
215	0x3817010f	3.600219e-05
216	0x373c8928	1.1237607e-05
217	0x380f9d4e	3.424036e-05
218	0x381c4177	3.7254267e-05
219	0x37db5c32	2.6149766e-05
220	0x38821e21	6.204495e-05
221	0x37ed2add	2.8272561e-05
222	0x38afc30d	8.380981e-05
223	0x388d022f	6.723811e-05
224	0x37a0db0f	1.9175493e-05
225	0x386fcae7	5.7171008e-05
226	0x37cce549	2.4425464e-05
227	0x374e01f2	1.227901e-05
228	0x379a1180	1.836638e-05
229	0x3880de8e	6.14497e-05
230	0x38cee702	9.865874e-05
231	0x37d8d8e2	2.58502e-05
232	0x36d0d766	6.2239587e-06
233	0x37d39000	2.5220215e-05
234	0x380e112b	3.3871427e-05
235	0x37ca4782	2.4113575e-05
236	0x37bd817f	2.2590857e-05
237	0x37f946f8	2.971616e-05
238	0x381a1541	3.6736255e-05
239	0x383f7e4c	4.565557e-05
240	0x38635058	5.4195843e-05
241	0x383696e0	4.3532695e-05
242	0x37bf6556	2.2816163e-05
243	0x385a514e	5.205097e-05
244	0x38125940	3.4892233e-05
245	0x374d5178	1.2237921e-05
246	0x37c8dcbf	2.394465e-05
247	0x37baf416	2.228659e-05
248	0x37624a03	1.3487882e-05
249	0x38336242	4.2768435e-05
250	0x388f3717	6.829033e-05
251	0x37a4ef83	1.9661855e-05
252	0x38843d0b	6.3056206e-05
253	0x3799e71c	1.834664e-05
254	0x38d27b83	0.00010036586
255	0x384f2d49	4.939482e-05

exp_avg f4 [32]
0	0x39fcdb58	0.0004822861
1	0xba12546d	-0.00055820384
2	0xb87e4e74	-6.0631384e-05
3	0x3a44d6e0	0.00075088255
4	0x39bddd67	0.00036213847
5	0x38eeefd6	0.00011393397
6	0xb9d43227	-0.00040473157
7	0xb9553ec1	-0.0002033664
8	0x389cbdb3	7.473994e-05
9	0xbabad942	-0.0014255422
10	0x39e12ff4	0.00042951072
11	0x3a6cfe7d	0.0009040607
12	0xb9f39b0b	-0.00046464088
13	0xb9d5b55f	-0.00040761658
14	0x3b18bafa	0.0023304806
15	0xb9b4f27c	-0.0003451294
16	0x395a17a2	0.00020798904
17	0x3a115097	0.000554332
18	0x38b891c3	8.800954e-05
19	0x39a37f83	0.00031184786
20	0xba035c77	-0.0005011032
21	0xb9021410	-0.0001240524
22	0x3a47f7f9	0.00076281984
23	0x39fb7f84	0.00047969457
24	0x3925f81f	0.00015828059
25	0x3992219d	0.00027872334
26	0x393c67e1	0.00017967775
27	0xba80e909	-0.0009835075
28	0xba337f69	-0.00068472937
29	0x3728eef6	1.0069218e-05
30	0xb86a0a8a	-5.5799763e-05
31	0x38883a74	6.495873e-05

exp_avg_sq f4 [32]
0	0x3958171c	0.00020607974
1	0x3946b50e	0.000189502
2	0x393adea7	0.00017821287
3	0x3942a640	0.00018563215
4	0x382f8f97	4.185698e-05
5	0x39292a7b	0.00016132921
6	0x3a1a5789	0.00058876775
7	0x3a1eb489	0.00060541235
8	0x3922dd4e	0.00015531966
9	0x396c2612	0.00022520896
10	0x399c5405	0.00029817238
11	0x37133daf	8.776245e-06
12	0x391f2749	0.00015178056
13	0x38a8bec4	8.046397e-05
14	0x3929b381	0.00016183966
15	0x37cd6557	2.4485094e-05
16	0x386ed780	5.6944322e-05
17	0x3763086b	1.3532214e-05
18	0x35b67519	1.3594137e-06
19	0x3a086640	0.0005203225
20	0x39263e00	0.0001585409
21	0x37bdfc77	2.2648119e-05
22	0x38728d48	5.7828875e-05
23	0x38a92a1d	8.066392e-05
24	0x39d5ec15	0.0004080242
25	0x3625a267	2.4681447e-06
26	0x397094d1	0.00022943622
27	0x37c04672	2.2920987e-05
28	0x3912a782	0.00013986047
29	0x35d0a822	1.5546141e-06
30	0x3773c67c	1.4530142e-05
31	0x39b733c4	0.00034943048

exp_avg f4 [1, 32]
0	0xbb1f6a76	-0.002432493
1	0x3ba47aac	0.0050195064
2	0x3bb92447	0.0056500765
3	0xbb7c52c2	-0.0038501476
4	0x3c0e90ce	0.008701516
5	0xb9fa8727	-0.00047784412
6	0x3b328891	0.0027242044
7	0x3c00d3c8	0.007862993
8	0x3b3ec51c	0.0029109186
9	0x3a2d9d38	0.00066228537
10	0x3c189dab	0.009314935
11	0x3c2d4ec3	0.01057786
12	0x3b302556	0.0026877723
13	0xbb1de3d6	-0.00240921
14	0x3ae5b2a7	0.0017524556
15	0xbae5368f	-0.0017487573
16	0xbb01be61	-0.0019797313
17	0x3b595bb2	0.0033166227
18	0x3b9397e4	0.0045041908
19	0x3ab0ed3f	0.0013498439
20	0x3aeb050c	0.0017930581
21	0x39241829	0.00015649259
22	0x3bc104b6	0.005890454
23	0xb9343a23	-0.00017187795
24	0x39c3fe8f	0.0003738296
25	0x3bdb4c1c	0.0066924226
26	0xbb011886	-0.0019698455
27	0xbc02cba9	-0.007983127
28	0xb90d9e99	-0.0001350589
29	0x3ae2261f	0.0017253793
30	0xbab85788	-0.0014064172
31	0xba4a6435	-0.00077206205

exp_avg_sq f4 [1, 32]
0	0x3a700121	0.00091554417
1	0x3ab8dbd9	0.0014103606
2	0x3a9389f7	0.0011256327
3	0x3a603d4d	0.00085540564
4	0x3a2f1c01	0.0006679893
5	0x39def283	0.00042523825
6	0x3aa9b4ca	0.0012947556
7	0x3a9aca60	0.001180958
8	0x39c6d0e7	0.00037921147
9	0x3aaa95f1	0.0013014657
10	0x3a917600	0.0011097789
11	0x3a6e6e8e	0.00090954534
12	0x3a7a07d7	0.00095379114
13	0x3afa66f0	0.0019104164
14	0x3a10d840	0.0005525388
15	0x39cbef1c	0.00038897328
16	0x39f28fa2	0.00046264852
17	0x3a0106fa	0.0004921999
18	0x39b61958	0.00034732628
19	0x3aba1fd2	0.0014200157
20	0x3aa905aa	0.0012895365
21	0x39cab70c	0.00038664823
22	0x39ccc1c4	0.0003905428
23	0x3a9ecad4	0.0012114891
24	0x3abea19b	0.0014544012
25	0x39d3dcb3	0.0004040949
26	0x3a884725	0.0010397179
27	0x3a9037bb	0.0011002937
28	0x3afc0e11	0.0019230266
29	0x389addd8	7.384614e-05
30	0x3a30a77a	0.0006738823
31	0x39f4bae3	0.00046678548

exp_avg f4 [1, 32]
0	0x3b9429ec	0.004521599
1	0x3a65313c	0.0008742993
2	0xb9b4e533	-0.00034503042
3	0x3b75613d	0.0037441992
4	0xba5b6bd4	-0.00083702547
5	0x3ab70fb3	0.0013966471
6	0x3b86e13f	0.004116207
7	0x38c069de	9.174993e-05
8	0x39b98e08	0.0003539177
9	0xbbb3d121	-0.0054875766
10	0xba5b0a95	-0.0008355764
11	0xbbb2c514	-0.0054556224
12	0x39d808fe	0.0004120543
13	0xb9657cc5	-0.00021885622
14	0x3b3ce4e5	0.0028822955
15	0x3b648bb7	0.0034873316
16	0xbbabd195	-0.00524349
17	0x3b3c77c3	0.0028757907
18	0xb9dce9ec	-0.00042135955
19	0x3bc79b83	0.0060915365
20	0xbb3351f6	-0.0027362085
21	0x3b394a71	0.002827313
22	0xbb25b704	-0.0025286088
23	0x3a7cd366	0.0009644538
24	0x3b1f1c6f	0.0024278422
25	0xbb017358	-0.0019752588
26	0x3b3b1b7d	0.002855032
27	0x3a9013f8	0.0010992279
28	0xbb9f2dea	-0.0048577683
29	0xba18e5f9	-0.00058326084
30	0x3c027d74	0.007964481
31	0x3b3066b8	0.0026916694

exp_avg_sq f4 [1, 32]
0	0x3a05ecaa	0.0005108813
1	0x39205729	0.00015291259
2	0x38a2177a	7.729135e-05
3	0x39dd424f	0.00042201809
4	0x38d87082	0.00010320639
5	0x38f76d2e	0.00011798214
6	0x39461c1c	0.00018893223
7	0x390bd132	0.00013334004
8	0x38611f67	5.3673426e-05
9	0x3a1c2066	0.00059557555
10	0x3956550c	0.00020440313
11	0x3990e75a	0.0002763819
12	0x382e9476	4.1623098e-05
13	0x39268595	0.00015880757
14	0x3979aaa9	0.00023810066
15	0x391f0eb5	0.000151689
16	0x3959d696	0.00020774672
17	0x398f432f	0.0002732514
18	0x380a2687	3.2937645e-05
19	0x3941a625	0.00018467808
20	0x399647d3	0.00028663743
21	0x38e9b85c	0.000111446454
22	0x3831dcf9	4.2405885e-05
23	0x394009d4	0.00018314208
24	0x379fd74f	1.9054538e-05
25	0x38d638b1	0.00010214875
26	0x39d0f68e	0.0003985655
27	0x38872ab0	6.445253e-05
28	0x39ed2fde	0.00045239826
29	0x37b0d989	2.1082133e-05
30	0x39ffa813	0.00048762615
31	0x390392a4	0.00012547761
