IsaacGymEnvs/runs/Cartpole_11-02-20-21/nn/last_Cartpole_ep_75_rew_489.44818.pth (torch, 30212 bytes, 24 tensors)

value_mean_std.running_mean f8 [1]
00000000: 786c fbcd fd38 1940
6.305655687781034

value_mean_std.running_var f8 [1]
00000000: 9a43 78bd 4e8c 2040
8.274038239412949

value_mean_std.count f8 []
00000000: 0000 0000 01c0 3241
1228801.0

running_mean_std.running_mean f8 [4]
00000000: 9e0f a2ad 3095 bfbf f5ba 5027 eb66 a7bf
00000010: 4647 ece3 384f 62bf 9b49 17ae e527 8ebf
-0.1233702110203567 -0.04570708136485805 -0.0022350417269842186 -0.014724535346350367

running_mean_std.running_var f8 [4]
00000000: 6c55 5d47 e111 db3f cdbc e00b b305 1240
00000010: e43a 7045 bc1b a93f e394 74db d54e 1240
0.4229663082999966 4.505565820304764 0.04903972957264616 4.576987675657821

running_mean_std.count f8 []
00000000: 0000 0000 02c0 2241
614401.0

a2c_network.actor_mlp.0.weight f4 [32, 4]
00000000: 688b 25be b29b c33c 019b 99be 1296 063e
00000010: e312 d43e 26af a7be 4d45 043f 58dc 003e
00000020: e420 8b3e 5d96 713d 830a 9c3e e3ff fcbd
00000030: 3e9d 7e3e 3f86 4ebd 2eba 16be 48f9 343e
00000040: 8528 94be 0cca 6ebd 8c5e a2be f13d 213e
00000050: ad50 c8be bc93 2e3c c437 08be f704 15be
00000060: 5951 fc3d a7a6 e3be 1eb1 d53e 60ab b6be
00000070: 1799 da3e 3e03 223d 7a59 63be e45b 1b3e
00000080: ec54 403c be2e af3e b46b 7e3c a368 a1be
00000090: f944 48bb 6c20 4fbe cdf9 bd3e 9ca3 f53e
000000a0: b114 623e b38d 59be dff6 c03e 96ac 003e
000000b0: b874 be3e 0e4e 773c ec08 1fbf 1521 9ebd
000000c0: 3a78 12bf 8f20 7e3e ff52 913e 88d0 8ebc
000000d0: 65dd 123e 6d3f c73c f4c2 b03e 53d7 93be
000000e0: e58c 793d d0db 6ebe 3c6d 2cbd 750e 26be
000000f0: d0db 27bc f2e6 dabd 38a6 f33e ac17 1cbe
00000100: 2708 1bbf 1b4b 9ebe f579 253f 3e5b 803e
00000110: 13b2 103f 8bd4 afbb 697d 42bf 7d24 76be
00000120: 6ac0 f8be 1042 7f3d aaba bd3e 8ca0 843e
00000130: f604 dfbe 6ad7 60be 8277 003f c9dd 243e
00000140: 3648 c63e 9547 abbd 48dd 603e 59f4 64be
00000150: 7a85 f6bd efa8 643e 664c 11bd 0054 8cbe
00000160: 52fd e03e 5ece ec3e c927 15bf a7f8 c9be
00000170: 4725 143f 5e70 813e 99d3 fabe 8bba 9fbe
00000180: 8340 54be 14d4 963e f0d6 d7bc b748 aebe
00000190: 772c 863d 765a 8fbd 2edd f9be ae82 33be
000001a0: 05f6 2fbf 7c9a a2be 0a37 003f f30d 0a3e
000001b0: a647 1c3f 777a c43d a7c3 19bf b699 a2bd
000001c0: c7b4 a1bc 998e a7be a776 a3be 9e29 87be
000001d0: 0679 f03e e956 013e 76b2 abbe d48c 4ebe
000001e0: 17b6 dfbe c433 1dbd 6881 a1be d702 8ebe
000001f0: e77c c63e a2cc 19be d1d8 033f a405 d73d
-0.1616646 0.023877952 -0.3000107 0.13143185 0.4142066 -0.32750815 0.51668245 0.12584054
0.2717353 0.05898129 0.3047677 -0.12353494 0.2486467 -0.050420996 -0.1471946 0.17673218
-0.28937164 -0.058298156 -0.3171276 0.15746285 -0.3912405 0.01065534 -0.13302523 -0.14552675
0.12320203 -0.44463083 0.41736692 -0.35677624 0.42694923 0.039553873 -0.22202101 0.15171772
0.011738997 0.3421535 0.015528608 -0.31525144 -0.003055869 -0.20227212 0.37104645 0.47976387
0.22078206 -0.2124546 0.37688348 0.12565836 0.37198424 0.015094293 -0.6212299 -0.07721154
-0.572147 0.24817108 0.28383633 -0.01743342 0.14342268 0.024322236 0.34523737 -0.28875217
0.060925383 -0.2332604 -0.04209636 -0.16216452 -0.0102452785 -0.106885806 0.47587752 -0.15243405
-0.60559314 -0.30916676 0.64639217 0.25069612 0.5652172 -0.0053659133 -0.7597261 -0.24037357
-0.485843 0.06231886 0.37056476 0.25903738 -0.43558472 -0.21957174 0.50182354 0.1610023
0.38726968 -0.083632626 0.21959412 -0.22358836 -0.120371774 0.22330068 -0.03547325 -0.27407837
0.43943268 0.46251196 -0.5826383 -0.3944752 0.5786938 0.25281042 -0.4898956 -0.31197008
-0.20727734 0.29458678 -0.026347607 -0.34039852 0.0655145 -0.06999676 -0.4880156 -0.17530319
-0.6873477 -0.31758487 0.5008398 0.13481884 0.61046827 0.09593671 -0.60064167 -0.07939474
-0.019739522 -0.3272598 -0.31926462 -0.2639894 0.46967334 0.1263081 -0.33534592 -0.20170909
-0.4369361 -0.038379446 -0.31544042 -0.27736542 0.38767168 -0.15019467 0.5150271 0.10499123

a2c_network.actor_mlp.0.bias f4 [32]
00000000: f89c 0ebe 6ba3 30be 20cf 32be bdf6 57be
00000010: c1d9 efbd 6d13 1abe ea36 d63d 8e8f 2bbe
00000020: a049 d9bd 1095 21be 0e01 37be f4d8 04be
00000030: e1f6 12be 3bcf a4bb 2a46 003e 90d4 083e
00000040: dd50 4dbe b27c fdbd 4842 38be 862a df3c
00000050: c0de f23d 46eb 5b3d 0d7f 0cbe 253a 8ebd
00000060: 8c28 b13c 865d 8fbd c51e 303e 6be6 153d
00000070: 9c52 03be 0a71 133e b9bb ebbd ea64 2dbe
-0.13927066 -0.17249839 -0.17461824 -0.21090217 -0.11711455 -0.15046473 0.10459693 -0.1675398
-0.10609746 -0.15779519 -0.17871496 -0.12973386 -0.1435199 -0.0050295866 0.12526765 0.13362336
-0.20050378 -0.12377299 -0.17994034 0.027241956 0.118588924 0.05369117 -0.13720341 -0.06944684
0.02162578 -0.0700026 0.17199238 0.036596697 -0.12824482 0.1439859 -0.11510415 -0.16933027

a2c_network.actor_mlp.2.weight f4 [32, 32]
00000000: f4b5 b73d a476 193d 8221 003c 7271 3b3e
00000010: 1f06 b63d e894 87bc d2a2 12be 50fa ad3b
00000020: b3a8 703e 1167 38bd 7789 60bd 76ee 7a3d
00000030: 606a debd 2bbd 5ebc 7b40 9d3d 96f0 82be
00000040: 3320 233c 22ea 313e 2d4c 363c d2d8 f9bd
00000050: f786 42b9 2ee8 f23d 8847 583e 3c09 20bd
00000060: 4f09 693d e67b cd3d 56da 93be 192e 00bc
00000070: 799e 373e cdd6 3c3e 8b3d 0f3d e1d9 0c3d
00000080: 2c34 dbbd ace7 653d 6ba4 823d 7aea 8c3d
00000090: a608 76be f27e 4dbe f900 733e ac3c 843d
000000a0: 9c22 4cbe 3cfe 893c 980a 00bd fc18 b3be
000000b0: 0f4b edbd 14ef 6f3d 337b 113e 0d71 d23d
000000c0: 50cc 9dbe 87ff 43be 6da0 25bb f10a 513e
000000d0: 30b7 a23d 7fa8 0cbe 173b 7fbe 1f9d e5bd
000000e0: b73d 9fbe 86ce ed3c 9fd9 14be 4c22 61bd
000000f0: 1d8c 44be b2d5 973d 022b 113d 294b 053e
00000100: 9b7a 31be b853 51be 0a9a 21be a051 2e3e
00000110: ec21 da3c 6cc0 963d 9d44 343e a815 9d3d
00000120: 1c0f edbd 92bc 2cbe 59e2 1dbe 3d52 32be
00000130: c5ec 39bd bbf4 b7bc a088 8f3d 48a5 37bd
00000140: 4a58 85be 0240 29bd 4aa5 52be 7317 a6bd
00000150: 1bf8 a83d 2f67 543c c9b9 5fbe 0aed 743c
00000160: a5b1 15be 4acf bcbd 77a8 91be e9e4 dc3c
00000170: 03bb 0d3e cc04 e3bc 9de2 733d 3551 5c3d
00000180: 275f fb3d 9c86 8fbd 374b 6a3e 7bbb eabc
00000190: 1479 ab3d 558b 733e 68bd 97bd fe59 893c
000001a0: aea6 053e c249 2bbe f374 093e 2b12 13bd
000001b0: b595 fb3d 3d72 a93d 1105 d73d fc75 01be
000001c0: 84a7 48be 832b 0b3e 6347 6b3d 3879 8abe
000001d0: 2b11 debd 6238 b8bd b6c0 213e 9872 75bd
000001e0: 3dd5 183d c561 e93c 45a5 ecbe 1d13 413e
000001f0: 7e4c 563e 786c 1d3c cba9 973c 0def 013a
00000200: 17dd 3abe 1be1 95be 2885 453a 40ec 0ebe
00000210: 3600 03be e680 1ebd 9cd3 453d f0ce 03be
00000220: dcd9 63bd bfbf 1bbe b9a1 14be 99d3 29be
00000230: e943 1fbe 25ed 8a3e 6103 d0bb 3110 2b3e
00000240: c6c3 13be 1f02 9abc 4fad db3d 5d64 573d
00000250: c3a2 2abd 23e5 adbc 5a0d 8f3d 2c51 3f3e
00000260: 0172 8b3d b8ce 683d 021c aebd 2516 c03c
00000270: 34c0 5dbe 4e2d c2bc 89c7 bd3d 3925 1bbc
00000280: de21 f9bd 98d6 d3bd 2d2d c1bd 81b6 79be
00000290: 3733 94bd fd35 563d e95e d03d 7f30 b4bc
000002a0: 0b18 e9bd 61d9 13be cf76 dc3d a058 b7bd
000002b0: 4b07 9dbc 89ff 333d cc0b b0bd 69ad 19bd
000002c0: 07ec 01ba f478 15bd 4559 f3bd 4302 0ebe
000002d0: 775c 6bbe 155f 63bc 762f 663e 3e60 55be
000002e0: 5855 873c 9583 e23d 131e 6abd 1de5 bb3d
000002f0: 26ac 433e d763 f83d da72 c4bd 2c76 823d
00000300: 8f8a 4a3e 0fbf 84bd bcb6 27be 4bed 353e
00000310: 7e76 f7bb 52aa 3fbe 2be2 0fbe c4e1 0a3d
00000320: df41 ed3b de54 573d 10c2 4bbc fdd5 cbbd
00000330: 5055 4ebe a32d c0bd c5d4 3c3e dba8 df3c
00000340: 1725 95be f743 713d 7304 04be 6b05 9fbb
00000350: 0078 2c3a d4ff 0c3e b846 413d ac38 a8bd
00000360: 9ed2 d93d ae82 cabd 54a7 d93d e973 883e
00000370: 4b5c 2c3d 2e69 6e3e 5acd 4dbe 3a2a dcbd
00000380: a99c fe3c d93d a5bd 7ed7 b2bd c030 65bd
00000390: 827f 073d b6bf 2cbc 1517 1d3e f1a5 0dbe
000003a0: d7f7 89be 65a4 013d 563e a33c a284 53be
000003b0: 3b61 d1bd 3394 403e 679e 8b3d 6d39 c63d
000003c0: bcd9 65be 049e 42be 2f79 3bbe 6fc4 3cbe
000003d0: be35 ff3c a1ea 5fbd 3ae5 b6be dac1 b3bd
000003e0: b782 a83c bf6a 723c 08e2 67bd 6fd2 9bbd
000003f0: bf93 4ebd c02c 943c 39d2 32be f3f4 19be
0.08970252 0.03746666 0.007820489 0.18304995 0.08887886 -0.016550496 -0.14319924 0.0053093806
0.23501854 -0.045020167 -0.054818597 0.06126257 -0.10860133 -0.013594906 0.07678314 -0.25574178
0.009956407 0.17374471 0.01112656 -0.12199558 -0.0001855156 0.11860691 0.21121037 -0.039071307
0.056893643 0.100333974 -0.28877515 -0.007823491 0.17931546 0.18441315 0.0349708 0.034387473
-0.1070331 0.056129143 0.063790165 0.0688066 -0.24026737 -0.20067957 0.2373084 0.06456885
-0.19935077 0.016844861 -0.031260103 -0.3498 -0.11586582 0.058577612 0.14207153 0.10275469
-0.3081994 -0.19140445 -0.0025272623 0.2041433 0.079450965 -0.13736151 -0.24924885 -0.11211609
-0.31101772 0.029029142 -0.14536141 -0.05496435 -0.19194074 0.07413806 0.035441406 0.13016953
-0.17331927 -0.20442092 -0.15781417 0.17023325 0.026627503 0.0736092 0.17604299 0.07670146
-0.115751475 -0.16868809 -0.15418376 -0.17414184 -0.045391817 -0.022455564 0.07008481 -0.04483536
-0.26043922 -0.04132081 -0.20570865 -0.08109941 0.08250447 0.012964054 -0.21848215 0.014949093
-0.14618547 -0.09219225 -0.2844884 0.026964622 0.1384087 -0.027712248 0.059542287 0.053788383
0.12274008 -0.070080966 0.22880255 -0.02865385 0.08372703 0.2378362 -0.07409173 0.016766544
0.13051865 -0.16727355 0.13423519 -0.035906 0.12284414 0.08273742 0.10499013 -0.12642664
-0.19595152 0.13590817 0.057441127 -0.27045608 -0.10843118 -0.08995129 0.1579617 -0.05992374
0.037312735 0.028489003 -0.4621984 0.18854947 0.20927617 0.0096083805 0.01851358 0.0004956581
-0.18248402 -0.29273304 0.00075347954 -0.1395731 -0.12793049 -0.038697146 0.04829751 -0.12871909
-0.05562769 -0.15209864 -0.14514817 -0.16584624 -0.1555325 0.27134052 -0.006348059 0.16705395
-0.1443015 -0.01879984 0.10726415 0.05258595 -0.041659128 -0.021227425 0.069849685 0.18683308
0.06808854 0.056837767 -0.08501436 0.02344806 -0.21655351 -0.023703244 0.09266574 -0.009469324
-0.12164663 -0.10343665 -0.09432445 -0.24386026 -0.07236331 0.05229758 0.10174353 -0.021995781
-0.11381539 -0.14438392 0.107648484 -0.08952451 -0.019168517 0.04394487 -0.08596 -0.037518892
-0.000495613 -0.036492303 -0.11882261 -0.1386805 -0.22984491 -0.01387765 0.22479042 -0.20837495
0.016520187 0.110602535 -0.057157587 0.09174559 0.19108638 0.12128418 -0.09592219 0.06370196
0.19779418 -0.06481754 -0.16378301 0.17766301 -0.007551967 -0.18717316 -0.1405112 0.033906713
0.0072405185 0.05257117 -0.012436405 -0.099529244 -0.20149732 -0.093837045 0.1844054 0.027302196
-0.2912986 0.058902707 -0.12892322 -0.004852941 0.00065791607 0.13769466 0.047186583 -0.08213934
0.10635875 -0.098882064 0.106276184 0.26650932 0.042080205 0.2328231 -0.20097867 -0.107502416
0.03108056 -0.08068437 -0.08732508 -0.055954695 0.033080585 -0.010543754 0.15340836 -0.13832833
-0.269469 0.03165092 0.019927185 -0.20656064 -0.10223623 0.18806534 0.06817322 0.09678922
-0.2244634 -0.1900559 -0.18307947 -0.18434308 0.031153556 -0.05466712 -0.3572176 -0.087772086
0.020570142 0.014795958 -0.056612045 -0.076084964 -0.05043387 0.018087745 -0.17463006 -0.15034847

a2c_network.actor_mlp.2.bias f4 [32]
00000000: 5f98 49be 6376 003e eaf7 273e 1a60 5dbe
00000010: 49a4 e83d c431 0cbe 7fd5 423e 2eb8 193e
00000020: c2f0 193e c781 46be 3733 013e d5a5 d33a
00000030: 420b f23d 8bf9 ba3d 2ec6 2b3e 0c07 19be
00000040: 2898 33be 2a58 033e 1bab 46bc 0fac 2c3e
00000050: 0cb7 3bbe 1941 ca3d 98c7 d43d 1f8a 0ebe
00000060: 8338 fa3d effb 103d fa4c 21be 3947 debd
00000070: 38ee 49be eead 62bc 1e61 b3be 6246 5cbe
-0.19687031 0.12545161 0.16403165 -0.21618691 0.1135946 -0.13690859 0.19026755 0.15011665
0.15033248 -0.19385444 0.12617193 0.0016147444 0.118185535 0.09129628 0.16774818 -0.14944094
-0.17538512 0.128266 -0.012125756 0.1686251 -0.18331546 0.09875698 0.10389632 -0.13919877
0.1221781 0.035396513 -0.1575202 -0.108534284 -0.1971978 -0.013835413 -0.35035032 -0.21511224

a2c_network.value.weight f4 [1, 32]
00000000: 144b aebd 8792 0c3e 078c cc3d b444 fcbd
00000010: bbae 14bd 21db 98bc c7eb 553e 031e 413e
00000020: fc58 9a3d d0ab 1cbe 9701 eb3d 5948 cbbc
00000030: a77d 9c3d 29b0 4f3d ec84 d43d b6c7 c93c
00000040: 9c7d 68bd ea16 bb3c dddd f73b 08f9 683e
00000050: db66 b5bd 1273 e63b 2f42 c4bb da6a 8fbd
00000060: 2d67 283e d17d 77bc 9ee9 8ebd 8c74 793d
00000070: dc70 d8bd e25a a53a 4b61 91bc 4922 1abe
-0.08510414 0.13727771 0.099876456 -0.123177916 -0.03629945 -0.018659176 0.20890723 0.18859105
0.07536504 -0.15299916 0.114749126 -0.024814771 0.07641154 0.05070511 0.10376915 0.024631362
-0.056760415 0.022838075 0.00756429 0.22751248 -0.08857509 0.0070327604 -0.005989335 -0.07002802
0.16445608 -0.015105681 -0.06978153 0.060902163 -0.10568401 0.0012615586 -0.017746588 -0.15052141

a2c_network.mu.weight f4 [1, 32]
00000000: 1856 4cbd 27e1 02be 33f1 b73c 9394 06bd
00000010: 6d2a 4c3e b2c4 8c3c d532 6ebd 3633 53be
00000020: c16a 923d 3915 b0bd 913f 83be 090c 483e
00000030: 35d4 bbbd ad5f e3be 2320 aa3e 661a 20be
00000040: 6c80 bd3d c876 903d bf6f dcbb 97e2 a5bd
00000050: da79 6cbc 1bbb 753b 5a36 bc3d cf11 103e
00000060: 93bd 0d3e 8cc9 233d e880 ab3d 8821 a8be
00000070: 719b 2abd a891 e638 9c37 b6be acf2 b7be
-0.049886793 -0.12781201 0.02245388 -0.032856535 0.19938059 0.017183635 -0.058153946 -0.20625004
0.07149268 -0.08597798 -0.25634435 0.19535841 -0.09171335 -0.44408932 0.33227643 -0.1563507
0.0925301 0.07053906 -0.0067271884 -0.08099859 -0.014433349 0.0037495557 0.09190054 0.14069293
0.13841848 0.039987132 0.08374196 -0.32838082 -0.041652147 0.00010994385 -0.35589302 -0.3592733

exp_avg f4 [32, 4]
00000000: f74a c839 6f19 2db9 2ca9 31b9 029f c139
00000010: 0b6b 333a c34a 15ba 755f a138 1570 153a
00000020: 8353 133a fa48 43ba 08d7 30b8 0c51 b039
00000030: a82d b43a b4c4 c539 1f94 6938 2b3d 1aba
00000040: d8df 64ba c4a5 43ba 580c 00ba 780e 623a
00000050: 3f85 19bb 8b8b e8ba 8c57 82ba fb8a bb3a
00000060: 7249 383a 9186 d93a 4fba cd39 e832 0439
00000070: 0eca 353a d041 56b9 f14e 2cb9 2239 75b9
00000080: 9233 6bba 32e1 aeba d01d 1fba 4797 b33a
00000090: f6f3 d83a 97a2 14ba e78f ac38 fbc6 81ba
000000a0: 201e a53a 672d 2fb9 5d46 6d39 9182 adb8
000000b0: fde0 feb9 d2b7 81ba afc2 03ba 6ddc 803a
000000c0: 0391 a9ba cab9 1aba 82a1 07ba cb20 0b3b
000000d0: fb4c 42b9 fa37 95b8 d313 b538 ffb0 1239
000000e0: 0877 efb8 6d60 343a 7d23 9838 5ecc 31b9
000000f0: eccd 70ba 56e0 7d39 f3cc 3938 6a28 0bb6
00000100: 982e 43bb 0618 4ebb d476 a3ba 66af 703b
00000110: 2510 98ba 10a7 abba a7cf 3cba 5a29 5bb9
00000120: dc8c 03ba d466 cab9 5d9b b3b9 2064 e83a
00000130: bf77 13ba 4566 2bb8 ad20 8f36 d4ff 153a
00000140: d5cd 1d3a f8eb d03a d7b9 9839 82f6 bbb9
00000150: b1dd f9ba adc3 37ba b254 b2b9 c670 573a
00000160: 8755 c7ba 916f ceba 5de7 5dba f5de 113b
00000170: 94e2 93ba 7f27 86ba 460b 00ba 2d06 7639
00000180: 5053 3fbb fb65 d3ba ef3f 55ba bc49 003b
00000190: bc1a 1fba 93a6 5eba 0d66 fbb9 1654 ee39
000001a0: b0d2 7cba 9633 22ba 28b3 33b8 96e3 9b3a
000001b0: fc86 0939 6ac2 b639 555e 3bb9 c019 3bba
000001c0: b6bb 7039 8b6e a0b9 6528 f4b8 efef 3339
000001d0: b249 6639 3787 623a 6308 b638 224f 8bb8
000001e0: 6daf 41bb 3347 43bb 5b87 a7ba ab72 5e39
000001f0: 72b1 eb39 5b87 d9b9 4e53 29b8 d963 ac39
0.00038202826 -0.0001650804 -0.00016943057 0.000369303 0.0006844259 -0.0005695039 7.6948585e-05 0.00057006004
0.0005620049 -0.0007449534 -4.2161933e-05 0.0003362972 0.0013746517 0.00037721323 5.5689477e-05 -0.00058837485
-0.0008730865 -0.00074633607 -0.0004884652 0.0008623372 -0.0023425368 -0.0017741782 -0.0009944304 0.0014308387
0.0007029987 0.001659589 0.00039239458 0.00012607465 0.00069347105 -0.00020433147 -0.00016432606 -0.00023386304
-0.0008972223 -0.001334226 -0.0006069811 0.00137017 0.0016552198 -0.000566998 8.228403e-05 -0.000990122
0.0012597479 -0.00016706214 0.00022628294 -8.273603e-05 -0.00048614285 -0.0009896702 -0.00050262635 0.0009831317
-0.0012936894 -0.00059023185 -0.0005173908 0.0021229263 -0.00018529959 -7.1153e-05 8.634445e-05 0.00013989581
-0.000114185794 0.00068808236 7.254535e-05 -0.00016956168 -0.0009185958 0.00024211532 4.429831e-05 -2.0736138e-06
-0.002978241 -0.0031447425 -0.0012471327 0.003672564 -0.0011601491 -0.0013096053 -0.00072025735 -0.00020900872
-0.0005018243 -0.00038605055 -0.00034257295 0.0017730035 -0.00056254485 -4.0864823e-05 4.265536e-06 0.000572202
0.0006019746 0.0015939465 0.0002913016 -0.00035851082 -0.0019063262 -0.0007010054 -0.0003401391 0.00082184037
-0.0015207984 -0.0015749802 -0.0008464957 0.0022258137 -0.0011282736 -0.001023516 -0.00048844924 0.00023462689
-0.0029193945 -0.0016128415 -0.0008134832 0.00195752 -0.00060693524 -0.00084934494 -0.00047950484 0.00045457546
-0.0009644432 -0.00061874965 -4.2843778e-05 0.0011893387 0.00013115624 0.00034858595 -0.00017868851 -0.0007137321
0.00022958111 -0.0003059994 -0.00011642351 0.00017160152 0.00021961963 0.00086413644 8.6799984e-05 -6.642776e-05
-0.0029554025 -0.0029797077 -0.0012781428 0.00021214287 0.000449549 -0.00041490313 -4.0370323e-05 0.0003288079

exp_avg_sq f4 [32, 4]
00000000: 718e 1438 86ee 8b37 fd45 a937 2148 8137
00000010: da2e 1639 e36b 8c39 3cbd be38 882f 7139
00000020: 0632 ba38 4d99 1339 1c14 1c38 5812 fc38
00000030: 87cf 9738 4fe7 3438 2329 6f37 75c2 4738
00000040: 42e4 ea37 61fd ef37 d6f4 5e37 d285 eb37
00000050: 563d e338 c635 f238 a622 7038 2163 d138
00000060: dca8 8538 e8a5 4438 e18c 0138 17cc 3138
00000070: 1ae4 9138 0bb9 b138 4b45 e537 669b 9538
00000080: 181f 0a39 d8fb 4839 7d64 5138 d8f7 2739
00000090: 7e9d 3139 4ccb 8c39 1a2b 8c38 4859 8139
000000a0: 1868 0d39 740c 3539 60cc 4238 e836 2a39
000000b0: f3b2 3b39 3489 3e39 a82f a738 a1f0 1f39
000000c0: 3704 2938 0e43 9438 79a2 8337 a85d 8f38
000000d0: 0dee 8737 4084 5a37 caca 2f37 a0a4 1f37
000000e0: 5139 8938 a4ce 4338 2107 d337 14d9 2438
000000f0: 22e7 9338 6dde fe37 7711 7437 cc34 0538
00000100: 0049 e039 4bc6 193a a747 4239 e70a 123a
00000110: 9a9f 2d39 e0dc 2a39 7b01 8338 1fb1 1e39
00000120: b0d3 ba38 338d 2839 06f1 4738 2673 1739
00000130: 0ed1 f836 86bc a136 1ab5 7235 a354 b136
00000140: a010 c438 5811 9c38 53bc f537 fd69 7338
00000150: 4a24 e838 46b7 a738 0274 5f37 0eba b438
00000160: ed7d bf39 bf92 e639 d9ba f838 00d0 d139
00000170: 2e78 1b39 085e 2639 8739 cc37 99bb 2c39
00000180: 5826 4039 0fce 5939 a9d8 6c38 ffef 4539
00000190: 6792 f338 fa7b c638 a62e 7638 eac5 9638
000001a0: ada8 4838 ffcf 1e38 00e9 3837 405d 2038
000001b0: 247e 4138 f985 6338 1c10 e536 a447 7838
000001c0: 09ef 8338 6d0d 1c38 d03a 5038 37ce f837
000001d0: 1ddc e037 fbcf 2c38 e494 9f36 333f 3438
000001e0: 8fc0 4e39 c894 4539 ce7b b438 0d35 3539
000001f0: 75a3 bd38 80f3 5639 b7f2 8938 fe24 3239
3.541861e-05 1.6681162e-05 2.017896e-05 1.5411586e-05 0.00014322568 0.00026783263 9.095154e-05 0.00023001258
8.878489e-05 0.00014076121 3.7212027e-05 0.00012019713 7.238896e-05 4.3130767e-05 1.4255088e-05 4.76264e-05
2.8001265e-05 2.8609009e-05 1.3289236e-05 2.8076498e-05 0.00010835628 0.00011549475 5.7252728e-05 9.984361e-05
6.373387e-05 4.6884554e-05 3.08872e-05 4.2390162e-05 6.956626e-05 8.474485e-05 2.7331194e-05 7.133819e-05
0.00013172289 0.00019167305 4.992307e-05 0.0001601869 0.00016938706 0.0002685435 6.6837485e-05 0.00024671317
0.00013485586 0.00017266144 4.6443543e-05 0.00016232918 0.00017900373 0.00018170924 7.972057e-05 0.00015253063
4.0296665e-05 7.06968e-05 1.5692074e-05 6.836216e-05 1.6204105e-05 1.3024604e-05 1.0478028e-05 9.515468e-06
6.543345e-05 4.6684072e-05 2.515648e-05 3.9302817e-05 7.052558e-05 3.0382735e-05 1.45476e-05 3.1758842e-05
0.00042779 0.0005866035 0.00018527974 0.00055710826 0.00016558022 0.00016294746 6.2468425e-05 0.00015134037
8.908601e-05 0.0001607433 4.7669768e-05 0.00014443378 7.415313e-06 4.820121e-06 9.041556e-07 5.284864e-06
9.349105e-05 7.44189e-05 2.9293971e-05 5.8034424e-05 0.000110693814 7.997318e-05 1.3318846e-05 8.617724e-05
0.0003652418 0.00043978353 0.000118603646 0.00040018559 0.00014826722 0.00015866023 2.4345483e-05 0.00016473084
0.00018324831 0.00020771495 5.6468565e-05 0.0001887679 0.000116144125 9.464468e-05 5.8694415e-05 7.189422e-05
4.7840807e-05 3.7863847e-05 1.1021504e-05 3.823382e-05 4.6132263e-05 5.424579e-05 6.826607e-06 5.9194528e-05
6.2910905e-05 3.7205802e-05 4.9645838e-05 2.965993e-05 2.680538e-05 4.1201693e-05 4.7559024e-06 4.2974203e-05
0.00019717425 0.0001884281 8.606129e-05 0.00017281268 9.0426685e-05 0.00020499341 6.577878e-05 0.00016989183

exp_avg f4 [32]
00000000: d441 a43a 2314 4a3b c9b7 4c3b cbbe 65bb
00000010: fbd5 8e3b 2560 263c 4cb6 9bbb 520b b0ba
00000020: 4e08 de3b a479 c939 7325 e33a f36e 733b
00000030: 6e50 243c 02f1 d33a be81 64bb e55a aa39
00000040: 23fa be3c 7d31 5eba a079 203c 5f8a 8c3b
00000050: fb18 d1bb 5d42 9a3b bad5 d63b 35c0 4fba
00000060: 84b4 373c 7b48 023b 387c 1b3c f673 02bc
00000070: acc4 283a 681c b8bb 9fb9 053c 656c cd3a
0.0012531825 0.0030834756 0.0031237474 -0.0035056348 0.0043590046 0.010154759 -0.004751956 -0.0013431108
0.0067758923 0.00038428337 0.0017329886 0.0037144988 0.010028942 0.0016169848 -0.0034867371 0.00032492648
0.023312634 -0.0008476002 0.009794623 0.004288956 -0.0063811517 0.004707618 0.00655624 -0.00079250644
0.011212472 0.0019879628 0.009490065 -0.007962218 0.0006437998 -0.0056186207 0.008161931 0.0015672563

exp_avg_sq f4 [32]
00000000: ef99 9c38 314d 483a b63a e339 e2c9 2b39
00000010: 64b5 0f39 d3a6 053a 9601 7239 42d8 6839
00000020: 5ca7 173a 9891 453a 00a9 0d3a 3eb0 3b3a
00000030: 82b4 9139 ba6a 4138 86ad 4639 cd80 2839
00000040: 7b93 393b efd1 3e3a 604a 153a 886b 1438
00000050: eb1c 9839 1428 ad39 fcd5 eb3a f3bf 3f3a
00000060: 8de3 403a bb26 c539 8ff9 8d39 6124 9a39
00000070: 9066 2d39 ac53 4339 0fa8 483a ced3 003a
7.467332e-05 0.0007640897 0.00043340557 0.00016383038 0.00013705116 0.0005098406 0.00023079509 0.00022205806
0.00057851314 0.0007536649 0.0005403906 0.0007159746 0.00027791044 4.6114183e-05 0.00018947394 0.0001606971
0.0028316665 0.00072792073 0.00056949817 3.5386096e-05 0.00029013245 0.00033026992 0.001799285 0.00073146744
0.00073581265 0.00037603625 0.0002707955 0.00029400273 0.00016536773 0.0001862782 0.0007654437 0.0004914374

exp_avg f4 [32, 32]
00000000: 1f6c 16b9 fa71 7fb9 bfa1 d7b9 5157 bbb9
00000010: 4128 eeb7 8266 80b9 7b29 5139 4052 8db9
00000020: 9bd5 cab9 2e12 c2b8 61be 98b9 e8b3 84b9
00000030: 0405 7fb9 fa46 19b9 b268 7e39 6182 4539
00000040: c038 4db9 51eb a3b9 b869 4eb9 b7b7 7a39
00000050: d5a4 e638 e03a d3b7 eacd eeb9 a8bc 9cb9
00000060: cb40 e1b8 084c 05b9 7306 1b3a 4905 ba36
00000070: 038c 35b9 1576 2339 8588 35b9 bf29 94b9
00000080: 357f 8839 b88d 6f3a 11fe ad3a 4c8a 943a
00000090: 3fdb 7bb9 5253 2239 51d8 27ba 1cef 8b3a
000000a0: e7d0 8f3a 9dc6 8239 583a 733a e965 673a
000000b0: e68a 6d39 6e55 093a 9b92 47ba 58f4 0cba
000000c0: 057c a9b8 1c3a 883a d51c 2e39 f6ff 84ba
000000d0: efa3 4d38 5fa5 61b8 4c4d d23a 1205 a23a
000000e0: 95d1 d438 8d9d 2739 9a86 13bb d824 013a
000000f0: 1101 2eb6 5e03 8c37 0f03 66b9 8253 893a
00000100: 3fa6 9339 ced8 053a 19ab 613a 6a2f 4c3a
00000110: 08c7 2db6 d2ce bc39 f5fc 04ba 7e3b 2c3a
00000120: 2cfb 4f3a aeaa 5939 ebc8 1b3a 8ecf 163a
00000130: 7cbe d139 dc66 9439 5950 10ba 43d7 e2b9
00000140: 0726 6039 6f3d 353a efaa ae39 03e3 1eba
00000150: 3d99 3ab9 a5c3 aa37 c259 883a ffd1 3d3a
00000160: 22b3 2f39 29a7 5c39 c1a4 b7ba f309 1939
00000170: e56d 5d39 24e5 4bb9 a642 3139 8cfa 203a
00000180: 55ee 4fb9 0e7f c6b9 479a 1dba 7ffc 0bba
00000190: e51e 94b7 5a0a 96b9 672d a239 8e82 e2b9
000001a0: b27f 0dba 35c0 1ab9 d771 e2b9 410e ccb9
000001b0: 0548 96b9 7cd6 57b9 36bd bc39 2ddd 9439
000001c0: 4988 5cb9 f39e f5b9 ac28 7bb9 3e23 c739
000001d0: de26 0539 530a 03b7 0399 32ba eaf8 f5b9
000001e0: 9c63 eeb8 60f4 29b9 f404 6f3a 9847 72b8
000001f0: 157f 48b9 94b2 3539 1926 2ab9 4055 e4b9
00000200: 734b c1b7 0cfd 2aba 6a37 31ba c65c 17ba
00000210: 9c14 8b39 0ad1 8c39 84d4 4d39 699c 2dba
00000220: 0c8c c7b9 3208 0eb9 605a 0bba 8124 08ba
00000230: b5b2 9d39 a5d6 99b9 e258 9a39 2060 6339
00000240: 9cc0 c939 2c1f 19ba a2ee 7a39 a5d3 1c3a
00000250: 435f 98b9 f721 3a39 d2bc 52ba 5363 45ba
00000260: cf01 3b39 cf20 f136 fd9a a33a c37f 0fba
00000270: d355 5c39 6138 97b9 901a 083a e659 30ba
00000280: b5c8 3ab5 472e 75b7 0551 a3b8 0662 3cb8
00000290: b544 3738 bec3 f236 df68 a238 201e 2bb8
000002a0: bdae c9b8 e190 c534 0c4a 01b8 24d9 3eb7
000002b0: 115c 71b8 f5d2 35b8 8927 9e38 ea75 8c37
000002c0: 99f1 9637 ac88 13b7 b79e 12b8 3e4f 6a38
000002d0: e952 a9b4 2820 e2b7 ebfe d5b8 d845 80b8
000002e0: bd94 35b8 5cbd 1738 45cd 0b39 b4fe 02b6
000002f0: 35ab 9a38 7bdc 1736 18b3 4138 80dc 2eb8
00000300: d6dc 0e3a 9cee b03a a11a 043b 1351 ec3a
00000310: 8212 1bb9 b447 103a 11ad 88ba 949d d33a
00000320: 6470 e03a 4c7b f239 7029 bc3a fec6 b63a
00000330: b3c0 163a 856c 393a cbae 9bba 1242 75ba
00000340: 8b8a 5639 2385 d93a aeff fc39 0540 c2ba
00000350: c291 30b9 73d7 86b8 0f8b 1e3b 98b2 eb3a
00000360: 1335 6039 a7aa db39 965c 5bbb c124 193a
00000370: 6991 aa39 9c4f 5bb9 e393 7d38 7700 cb3a
00000380: 9189 af39 5da1 a73a 3c64 f13a cf50 cc3a
00000390: 1fa9 c2b9 7251 2639 f754 63ba bc6b c23a
000003a0: d7f2 c53a 1420 ac39 0963 a83a 06b3 9f3a
000003b0: 3f19 8b39 8ce7 423a d6f3 88ba 9dd1 3dba
000003c0: 0fed 34b9 c6ab bb3a f2c6 3e39 5bea b9ba
000003d0: 0779 f138 ca17 a8b8 750b 123b 52e5 e23a
000003e0: 2dbc 0439 46f7 4a39 6776 4dbb b9d4 3b3a
000003f0: 61dc 6fb8 71bb 8c38 ea47 c3b9 afba bf3a
-0.00014345393 -0.00024361155 -0.00041128506 -0.00035732475 -2.8390556e-05 -0.00024490437 0.00019947246 -0.00026954897
-0.0003868759 -9.254027e-05 -0.00029133543 -0.00025311043 -0.00024320564 -0.00014617658 0.0002426233 0.00018835954
-0.00019571465 -0.00031265107 -0.00019685074 0.00023910297 0.00010997957 -2.5180576e-05 -0.00045548315 -0.00029895199
-0.00010740905 -0.00012712192 0.0005913742 5.5438472e-06 -0.00017313664 0.0001558888 -0.00017312363 -0.00028259863
0.00026034718 0.0009138244 0.001327457 0.001133272 -0.00024018901 0.00015480563 -0.0006402778 0.0010676119
0.0010972292 0.0002494351 0.0009278408 0.00088271365 0.00022653825 0.0005238865 -0.00076130935 -0.0005376986
-8.0816484e-05 0.0010393295 0.00016604674 -0.0010147083 4.9028484e-05 -5.3798194e-05 0.0016044765 0.001236113
0.000101479854 0.00015985053 -0.0022510649 0.00049264496 -2.5928641e-06 1.6690869e-05 -0.00021935649 0.0010477158
0.00028161888 0.0005105854 0.00086085644 0.00077890477 -2.589486e-06 0.00036012247 -0.0005073094 0.00065701443
0.0007933851 0.00020758316 0.000594272 0.0005752974 0.00040005508 0.00028305396 -0.0005505137 -0.00043266462
0.00021376471 0.00069137564 0.00033315222 -0.0006061049 -0.00017795428 2.0356683e-05 0.0010402726 0.00072410697
0.00016756033 0.00021043107 -0.0014010892 0.00014594923 0.00021117141 -0.0001944495 0.00016904864 0.000614085
-0.00019829844 -0.00037860166 -0.0006012064 -0.0005340054 -1.7657361e-05 -0.00028617942 0.00030932875 -0.0004320335
-0.0005397751 -0.00014758187 -0.00043190896 -0.00038920532 -0.00028663888 -0.000205839 0.00035999127 0.0002839355
-0.00021031605 -0.00046848468 -0.00023952377 0.00037982495 0.00012698348 -7.810612e-06 -0.00068129617 -0.00046915497
-0.00011367278 -0.00016208133 0.00091178645 -5.7763973e-05 -0.00019120828 0.0001732803 -0.00016226656 -0.00043551065
-2.3042527e-05 -0.0006522692 -0.00067602715 -0.0005774017 0.000265275 0.00026858627 0.00019629492 -0.0006622733
-0.0003806058 -0.00013545228 -0.0005315896 -0.0005193428 0.0003007852 -0.00029342357 0.00029439392 0.00021684216
0.00038481213 -0.0005841132 0.00023930756 0.0005982465 -0.00029062675 0.00017750995 -0.00080390007 -0.0007529754
0.00017834383 7.186179e-06 0.0012482103 -0.0005474055 0.00021012807 -0.0002884297 0.00051919464 -0.0006727263
-6.9582467e-07 -1.4613913e-05 -7.787537e-05 -4.4913984e-05 4.369459e-05 7.2349494e-06 7.744296e-05 -4.0797633e-05
-9.6169744e-05 3.6799523e-07 -3.082496e-05 -1.13754395e-05 -5.754462e-05 -4.3350232e-05 7.541391e-05 1.6744209e-05
1.7993896e-05 -8.793704e-06 -3.4956927e-05 5.5863748e-05 -3.1539028e-07 -2.6956273e-05 -0.00010204114 -6.116525e-05
-4.3292286e-05 3.617756e-05 0.00013332542 -1.9519766e-06 7.375182e-05 2.262909e-06 4.618158e-05 -4.169019e-05
0.0005449777 0.0013498846 0.0020157474 0.0018029533 -0.00014788847 0.00055038487 -0.0010427554 0.0016144984
0.0017123339 0.000462497 0.0014355611 0.0013944802 0.00057507603 0.00070733606 -0.0011877654 -0.00093558535
0.00020460242 0.0016595464 0.00048255682 -0.0014820105 -0.00016838967 -6.4297485e-05 0.0024191772 0.0017982302
0.00021382076 0.0004189808 -0.0033471934 0.00058419636 0.00032533266 -0.00020915124 6.045763e-05 0.001548781
0.00033481096 0.0012789179 0.0018416713 0.0015588048 -0.00037128569 0.00015861334 -0.00086720235 0.0014833133
0.0015102279 0.00032830297 0.0012846898 0.001218409 0.00026530956 0.0007435016 -0.0010448645 -0.00072410126
-0.00017254449 0.001431816 0.00018193925 -0.0014184223 0.000115143186 -8.015295e-05 0.002228466 0.0017310774
0.00012658602 0.00019356338 -0.003135109 0.0007165182 -5.7187284e-05 6.710634e-05 -0.00037246878 0.001462778

exp_avg_sq f4 [32, 32]
00000000: 9c14 3e36 9b60 1437 a9c7 c936 7960 8836
00000010: b4ee 5236 1947 5b37 682d 2337 4bad 0437
00000020: 602f 9b35 1427 c036 439b c136 b0ca f836
00000030: fb54 8036 ad35 6736 298d 9536 d454 9136
00000040: f89e bb36 8483 4c37 366a 9236 8301 8336
00000050: 8d64 b136 cc3e 2f36 5276 1b37 fabb e536
00000060: 65e9 5736 da4b 2837 825a c036 29b2 d436
00000070: 1365 1737 29cf b336 874d ac37 d8df 3c37
00000080: cc8a 2c37 fba3 fd37 d7f4 9237 6883 8537
00000090: 082b 2037 fac2 9337 4635 5738 45f1 aa37
000000a0: de29 b336 dc90 5437 4eeb 9b37 4a1f 7737
000000b0: 4bf7 5937 c6e7 7d37 8a46 b137 1908 c537
000000c0: 84c2 b437 885a c537 96af 5b37 b907 f537
000000d0: bffe af37 17b5 bb36 834b 9d37 dcb7 8637
000000e0: 4ea8 a036 d508 4137 ac02 5238 1d4d 2d37
000000f0: 6b2e c437 468f 2737 2c6b f237 6c44 e137
00000100: a25e f536 8639 ab37 8625 4037 9b52 2e37
00000110: 093c ca36 5120 6037 e6ad 0a38 6857 5a37
00000120: 2b84 7136 9cfb 2937 92c0 6837 b8c7 1937
00000130: 5578 ca36 1de5 1d37 1ee5 7737 4ce6 8537
00000140: 769e 7d37 dc22 7237 d5fa e336 94a9 9b37
00000150: 1e98 3537 dfbf a936 88fd 3f37 6682 1637
00000160: 5c38 8536 88e9 1d37 7172 fb37 f12e bc36
00000170: 6c6c 8737 a63f ad36 2014 c037 032f 9837
00000180: 3713 6e36 01f9 3b37 ab8a ff36 0298 b936
00000190: 9213 7b36 7c20 4937 3f8c 4c37 f3e6 2837
000001a0: 1ae7 d535 6ad3 ee36 d49a fd36 b5f0 1237
000001b0: 0c73 a536 8dd8 8d36 e964 cb36 f98d b336
000001c0: 9945 f436 ec9a 8037 0973 bd36 e1c9 af36
000001d0: 4df7 d336 ac70 6736 8997 5237 c66a 1637
000001e0: 788d 6b36 a25d 2037 7abc 0637 2a51 f236
000001f0: fdce 2937 fb07 eb36 d00e ab37 1862 5737
00000200: 39e2 d836 1018 8237 02ff 2d37 7421 3e37
00000210: ad48 e836 8a09 4037 fc6b 0938 ce5f 8137
00000220: 19d7 5336 67bf e036 7921 0d37 2bc7 8437
00000230: 7e33 8937 094d 0e37 ab85 5137 9cf8 5237
00000240: 9e72 9037 6adf cc37 6450 8537 56eb bc37
00000250: 5f54 9037 a713 2036 f522 9f37 d468 9f37
00000260: 0a3e 5136 3937 0f37 e072 3c38 bf05 8337
00000270: bf5f 7437 7288 5937 0228 8d37 02fe 6e37
00000280: 4a41 a235 441d 8f36 a0cb 4e36 d96c ea35
00000290: 59d9 b135 5a23 0037 b6bb b436 c2c5 8836
000002a0: dcd7 2435 7ca4 6e36 969b 2436 3229 7b36
000002b0: cfa8 1136 3f51 e335 1eae 2136 c2a3 1436
000002c0: f5a2 0f36 21b7 d736 2915 2c36 590a 0636
000002d0: ca4b 2b36 c175 7135 9e2e 7f36 4bb8 6436
000002e0: 4af3 c335 3ce3 cb36 a0b6 1336 4429 6936
000002f0: 2209 b136 066a 2936 440f 4637 e0f6 f836
00000300: 1dc1 a237 18ec 7c38 7376 2938 d74b 1038
00000310: 2f75 9537 302c 1938 6411 c138 d48f 5338
00000320: 070d 4a37 a7f9 0338 26a0 2238 df5d 1238
00000330: 41ae b037 0472 ec37 f3c5 2e38 3ff1 3938
00000340: 36f2 0238 7ad1 7038 fa8f c037 7f83 4838
00000350: 89be 1838 1e9f 4d37 d956 4338 278e 2038
00000360: cf18 2e37 486c d937 e262 a438 b139 d537
00000370: a1b7 4238 63ad bd37 c78b 7e38 ca67 8838
00000380: 06b6 c137 3ec5 8738 3f32 1738 ba57 0838
00000390: 55b1 ae37 051c 5138 3c60 eb38 e66c 2c38
000003a0: 3568 3c37 e120 ec37 bba7 2838 9262 0e38
000003b0: f8ff f037 8e76 0538 4339 4238 a26a 5338
000003c0: dee2 4238 51f3 5d38 5263 f837 55cd 7f38
000003d0: 2097 3438 55e5 5937 2ac4 1a38 8ab7 0a38
000003e0: 3c08 5737 18bd 1638 d0e0 db38 ab74 c937
000003f0: d495 7738 102b ac37 b996 a738 c5cd 7038
2.8324203e-06 8.84398e-06 6.0135103e-06 4.0643467e-06 3.1431382e-06 1.3069971e-05 9.726129e-06 7.908161e-06
1.1562188e-06 5.726595e-06 5.769923e-06 7.414572e-06 3.8245903e-06 3.4452926e-06 4.4569792e-06 4.331212e-06
5.5915407e-06 1.2189968e-05 4.3635036e-06 3.90428e-06 5.2867167e-06 2.6113585e-06 9.2662685e-06 6.846615e-06
3.217335e-06 1.0031241e-05 5.7325824e-06 6.338833e-06 9.0238345e-06 5.3587323e-06 2.05401e-05 1.1257791e-05
1.0284315e-05 3.023631e-05 1.7518569e-05 1.5916026e-05 9.546762e-06 1.7614559e-05 5.130961e-05 2.037793e-05
5.3394897e-06 1.2669912e-05 1.8587012e-05 1.4729632e-05 1.2991785e-05 1.5133939e-05 2.1132892e-05 2.3488e-05
2.154825e-05 2.3526387e-05 1.3094299e-05 2.9209872e-05 2.0980251e-05 5.594116e-06 1.8751021e-05 1.6059661e-05
4.787965e-06 1.1505753e-05 5.007039e-05 1.0329558e-05 2.3386636e-05 9.987334e-06 2.8898554e-05 2.6853952e-05
7.3125857e-06 2.0411575e-05 1.1452828e-05 1.0390441e-05 6.027058e-06 1.3358965e-05 3.306372e-05 1.3014163e-05
3.598873e-06 1.0131767e-05 1.3873114e-05 9.166011e-06 6.0340776e-06 9.411274e-06 1.4775693e-05 1.5962076e-05
1.511687e-05 1.443244e-05 6.794328e-06 1.8556406e-05 1.0823858e-05 5.058929e-06 1.1443517e-05 8.9710575e-06
3.97027e-06 9.4123025e-06 2.9974823e-05 5.6083013e-06 1.6143742e-05 5.1632114e-06 2.2897555e-05 1.8141704e-05
3.5475948e-06 1.1204044e-05 7.6157353e-06 5.5311257e-06 3.7413306e-06 1.1988097e-05 1.2192001e-05 1.0067352e-05
1.5936996e-06 7.1175646e-06 7.558012e-06 8.758322e-06 4.9307764e-06 4.2273373e-06 6.061619e-06 5.3511435e-06
7.279869e-06 1.533093e-05 5.646031e-06 5.238908e-06 6.3170796e-06 3.4487266e-06 1.2552257e-05 8.965557e-06
3.5100074e-06 9.558544e-06 8.0309055e-06 7.2216108e-06 1.0121378e-05 7.004475e-06 2.0391686e-05 1.2837838e-05
6.4636374e-06 1.5508413e-05 1.0370977e-05 1.1332671e-05 6.9225994e-06 1.1446313e-05 3.2763914e-05 1.542261e-05
3.1566653e-06 6.6980024e-06 8.412048e-06 1.5828371e-05 1.635565e-05 8.481796e-06 1.2488493e-05 1.2574859e-05
1.721951e-05 2.442273e-05 1.589227e-05 2.2520933e-05 1.7205426e-05 2.3853297e-06 1.8970555e-05 1.9003091e-05
3.1179538e-06 8.536322e-06 4.492968e-05 1.5619093e-05 1.4565826e-05 1.2965977e-05 1.682714e-05 1.4245046e-05
1.2088942e-06 4.265139e-06 3.0814917e-06 1.7466037e-06 1.3250784e-06 7.6376255e-06 5.3862705e-06 4.076138e-06
6.140888e-07 3.5560506e-06 2.4528467e-06 3.7425893e-06 2.1704943e-06 1.6936464e-06 2.409222e-06 2.2149038e-06
2.1403514e-06 6.4288183e-06 2.5642314e-06 1.997358e-06 2.55251e-06 8.995085e-07 3.8025096e-06 3.408192e-06
1.4599439e-06 6.076325e-06 2.2011009e-06 3.4743725e-06 5.2760743e-06 2.5244676e-06 1.1805274e-05 7.419716e-06
1.940183e-05 6.030136e-05 4.0403054e-05 3.4402907e-05 1.7816752e-05 3.6519195e-05 9.2061964e-05 5.044027e-05
1.2043171e-05 3.146534e-05 3.877296e-05 3.4896537e-05 2.1061978e-05 2.8186485e-05 4.1669187e-05 4.4332115e-05
3.121999e-05 5.741555e-05 2.2955228e-05 4.780618e-05 3.6417074e-05 1.22559995e-05 4.6572506e-05 3.8279362e-05
1.0376984e-05 2.5918838e-05 7.838548e-05 2.5418443e-05 4.6424222e-05 2.2611295e-05 6.0688497e-05 6.5043176e-05
2.3092154e-05 6.474041e-05 3.6048e-05 3.250663e-05 2.0824993e-05 4.985558e-05 0.00011223598 4.1109415e-05
1.1229936e-05 2.8148703e-05 4.0210532e-05 3.394724e-05 2.8729424e-05 3.1820084e-05 4.6306533e-05 5.040563e-05
4.646449e-05 5.2917112e-05 2.9610153e-05 6.0987968e-05 4.305609e-05 1.2987603e-05 3.6899153e-05 3.3072698e-05
1.2816916e-05 3.5938894e-05 0.00010484608 2.4015395e-05 5.9028927e-05 2.052405e-05 7.991255e-05 5.7412097e-05

exp_avg f4 [32]
00000000: a711 163b a7e2 bcbb 9deb 93bb 8ade 503b
00000010: f5d3 fe3a ae2c 9d39 7fba 1ebc 6142 00bc
00000020: f8b7 6abb 948a f63b 8ebe 7cbb b4f6 663a
00000030: bcb9 33bb 67a9 8d39 2dde dcbb ce0c 83ba
00000040: c332 0d3b 6bc4 d6ba a6d9 d6b9 ee14 1fbc
00000050: e100 903b d594 e1b9 7a34 0e3a 5ec6 023b
00000060: 609e 05bc 0462 4b3a e7f3 df3a a4c5 3aba
00000070: 932b a43b 529e 70b9 1106 523a 8b15 9d3b
0.0022898705 -0.0057643238 -0.0045141713 0.0031870925 0.001944183 0.00029978662 -0.009688019 -0.007828326
-0.003581522 0.007523844 -0.0038565728 0.00088105653 -0.0027423939 0.0002701983 -0.0067403526 -0.0009998323
0.002154515 -0.0016385441 -0.00040979421 -0.00970958 0.004394636 -0.00043026233 0.000542469 0.0019954662
-0.008155435 0.0007758441 0.0017086238 -0.00071247877 0.0050100773 -0.00022947163 0.0008011768 0.004793828

exp_avg_sq f4 [32]
00000000: 70e5 2639 ce44 a739 2d8d 7039 c34d 2239
00000010: 85d0 4a39 afe5 ef38 7e9c 423a b19e 543a
00000020: 7e9d 5839 af6e b739 3c8b 0b3a 7cf9 3139
00000030: ac5b 4c39 a532 283a de43 073a 36af 5138
00000040: b259 a638 1b06 f837 6cbd 2936 b594 2d3a
00000050: d837 3c39 2377 d537 19a9 d538 503e fa38
00000060: e4b1 143a 088e af37 ccb3 4339 0392 9739
00000070: c036 3e39 36fe a935 2c0f 6738 caa9 da39
0.00015916466 0.00031903986 0.00022940776 0.00015478492 0.00019341901 0.0001143919 0.0007423832 0.0008110805
0.00020658036 0.00034986946 0.0005323177 0.00016972976 0.00019489106 0.0006416238 0.00051599543 4.999266e-05
7.932204e-05 2.9566747e-05 2.529322e-06 0.00066215853 0.0001794988 2.5447056e-05 0.00010188128 0.000119325356
0.000567226 2.0927764e-05 0.00018663629 0.00028909752 0.00018140208 1.2665466e-06 5.508882e-05 0.00041706703

exp_avg f4 [1, 32]
00000000: 465d 9a3c 146e 71bc 9dfc 19bc 6da6 ac3c
00000010: 0068 3dbc df5c 873b 14ae 3cbc 4d84 a5bc
00000020: 71d4 5dbb 6995 2abb 27f5 a0bc 551e 3ebb
00000030: 6e1e 4dbc de94 a8bc 77db b239 4dd5 903c
00000040: 1b75 6b3b e2c5 36b9 a51c fcba b74f f5bb
00000050: 2638 7f3a 9884 753a bc2e 69bb 6dd8 093c
00000060: 4a56 50bc 9528 6bb9 e3bb 473c a620 83b9
00000070: 309d 1c39 aaa7 163a 43d1 0a3d c0bf b03c
0.018843304 -0.014735717 -0.009398607 0.021075452 -0.01156044 0.004130944 -0.011516113 -0.020204687
-0.0033848549 -0.0026028997 -0.019648148 -0.0029009779 -0.012519462 -0.020578798 0.0003411432 0.017679835
0.0035927955 -0.0001743059 -0.0019234611 -0.0074863094 0.0009735845 0.00093657663 -0.0035580834 0.008413416
-0.012715885 -0.00022426464 0.012190792 -0.00025010592 0.00014935876 0.000574703 0.033890974 0.021575809

exp_avg_sq f4 [1, 32]
00000000: c82b 073b c636 2d3b 42e9 f03a 0f68 113b
00000010: 7ebe 0b3b 57f2 f939 902c d73a 68a1 4f3b
00000020: 29b1 2d3a bc72 743a fc2e 4a3b a9d5 b03a
00000030: d8d3 d33a f92c 1a3b 7757 f339 e89b e33a
00000040: 966c 063a cb47 c339 a706 a739 dcd6 b53a
00000050: 50d1 653a 0a1d 9339 b5b2 223a c75d 913a
00000060: 803c 0a3b 28f8 133a 57d9 ae3a 2490 673a
00000070: b662 b43a 8cd0 5538 971b 893b 4083 033b
0.002062546 0.0026430353 0.0018380063 0.0022187268 0.002132326 0.00047673538 0.0016416479 0.00316819
0.0006625825 0.0009324958 0.0030850759 0.001349141 0.0016161157 0.002352534 0.00046413738 0.0017365189
0.0005127875 0.00037246788 0.0003185768 0.0013873237 0.0008766847 0.0002805966 0.0006206439 0.001109057
0.002109319 0.0005644583 0.0013339919 0.00088334293 0.0013762328 5.097738e-05 0.004184197 0.0020067245

exp_avg f4 [1, 32]
00000000: 85f3 6039 ee5f 3ebb 81de 82ba 6f78 c039
00000010: e851 52ba 4a4d c839 0fa6 22bb 481c e2ba
00000020: ed1b 8cba 9bca 363b 9a0b 3ab9 68ae 753b
00000030: 63c3 b6ba 77d8 743a 5ca3 37bb 275c 183a
00000040: 0a11 5b3b 7f12 dfba a879 3b37 3811 83bb
00000050: 5c39 143a 6660 4aba 9ace 8a3a 0b3f cb39
00000060: 8bd3 69bb 0300 1238 4f6f 97b9 a77a b63a
00000070: 480b 1b3b 3ecd d639 6bc6 bb3a 1235 893a
0.00021453023 -0.0029048878 -0.0009984524 0.00036710824 -0.0008023069 0.00038204557 -0.0024818217 -0.001725086
-0.0010689475 0.0027891758 -0.00017742664 0.0037487987 -0.0013943728 0.0009340117 -0.0028020954 0.00058120716
0.0033426904 -0.0017019062 1.1174394e-05 -0.0039998554 0.0005654299 -0.0007720053 0.0010590137 0.00038766148
-0.0035679068 3.4809123e-05 -0.00028883896 0.0013922051 0.0023657847 0.00040970178 0.0014326101 0.0010468087

exp_avg_sq f4 [1, 32]
00000000: d1a6 903a 74f2 8e3a 1d04 073a a594 923a
00000010: 62fb 3d3a 52be 4c39 eaba 113a 026b 933a
00000020: 4417 8d39 223a 143a 51c4 8b3a 13ff 203a
00000030: 94c0 d539 1bf7 b63a a0bb ee39 81bd 453a
00000040: cb74 cf39 4dd5 b139 bfbc 6638 c5b3 533a
00000050: 2300 6c39 1f0f f338 4eed 5339 62c0 9539
00000060: 2818 453a 3918 2039 a643 263a f148 123a
00000070: 3baf e739 a78c 7e37 6e8f 113b 2264 793a
0.0011036043 0.0010905997 0.0005150454 0.0011183216 0.0007247237 0.00019525856 0.00055591634 0.0011247101
0.0002691095 0.00056544144 0.0010663365 0.00061415246 0.00040770008 0.0013959141 0.0004553469 0.0007543192
0.00039569134 0.00033918992 5.5012057e-05 0.0008075799 0.00022506765 0.000115899595 0.00020210931 0.0002856283
0.0007518553 0.00015267813 0.0006342478 0.0005580327 0.0004419031 1.5172328e-05 0.0022210735 0.0009513517
